refinement/rbm/models/rbm_mnist_pcd_20250325155229.pt (torch, 808460 bytes, 3 tensors)

W f4 [784, 256]
-0.38603386 -0.600305 -0.6461122 -0.6907157 -0.7020092 -0.6006218 -0.6828685 -0.8261249
-0.65460753 -0.87656623 -0.5862624 -0.4957879 -0.64434177 -0.8643082 -0.8343314 -0.55378646
-0.87291294 -0.672837 -0.64737 -0.85940605 -0.86429244 -0.55357695 -0.71713537 -0.75937456
-0.564508 -0.74359035 -0.69935447 -0.63967294 -0.5853757 -0.6282456 -0.8362698 -0.8391619
-0.7942913 -0.6363985 -0.7636776 -0.6960353 -0.8475005 -0.6093585 -0.53915143 -0.6125704
-0.5640739 -0.7718013 -0.68177164 -0.69207436 -0.68135726 -0.6098799 -0.85643435 -0.6112988
-0.60522276 -0.6608443 -0.7222101 -0.618511 -0.7140289 -0.8420174 -0.6433831 -0.5195333
-0.85704535 -0.5877497 -0.7513903 -0.8804299 -0.48454726 -0.7408431 -0.68942475 -0.4452459
-0.6436596 -0.6097888 -0.8585499 -0.6595151 -0.616433 -0.71384877 -0.6801953 -0.7438933
-0.6543567 -0.5964037 -0.6991335 -0.7710425 -0.86554235 -0.61620224 -0.8013722 -0.85653704
-0.6560413 -0.6858088 -0.85756916 -0.7364805 -0.69137156 -0.5762846 -0.61156344 -0.6885302
-0.6088396 -0.5095219 -0.6059845 -0.50955814 -0.7000273 -0.6638238 -0.64108104 -0.5376066
-0.69661033 -0.56791186 -0.766546 -0.579999 -0.58290786 -0.8666173 -0.5085664 -0.54569876
-0.86363584 -0.76462924 -0.6362841 -0.6123319 -0.6545232 -0.65352297 -0.68107074 -0.5826842
-0.63783765 -0.5066541 -0.82082075 -0.69113857 -0.63779205 -0.6324209 -0.85555726 -0.71488464
-0.6257966 -0.66124636 -0.64261043 -0.6534107 -0.8686081 -0.3967479 -0.6556778 -0.5785092
-0.8546732 -0.557375 -0.7583441 -0.7151474 -0.6492715 -0.7375938 -0.84832376 -0.81733537
-0.7404512 -0.88114935 -0.7199059 -0.6392213 -0.5219296 -0.6205795 -0.8552434 -0.8474764
-0.5268555 -0.6098239 -0.67910194 -0.6817077 -0.72348464 -0.41585016 -0.50616735 -0.65080935
-0.66845185 -0.62781435 -0.61334765 -0.664955 -0.5231747 -0.6607289 -0.5217623 -0.43604
-0.4497135 -0.86765426 -0.5762056 -0.83587706 -0.6756133 -0.50604653 -0.62526023 -0.838354
-0.67191625 -0.59349144 -0.69213855 -0.6355095 -0.8646814 -0.6224624 -0.75636387 -0.8611602
-0.5995957 -0.44672278 -0.5953559 -0.70911497 -0.7326809 -0.885109 -0.6725183 -0.5268197
-0.71350414 -0.52836215 -0.81504405 -0.6141284 -0.66261554 -0.5758358 -0.63569945 -0.62718374
-0.7749235 -0.7622056 -0.6893246 -0.6453346 -0.6203592 -0.673615 -0.6743675 -0.83186907
-0.67919576 -0.6449301 -0.6832253 -0.8323702 -0.83003217 -0.6199498 -0.8087665 -0.8281175
-0.70276445 -0.8251596 -0.85511184 -0.81961125 -0.41222438 -0.6315327 -0.86194795 -0.70129114
-0.863412 -0.6701732 -0.5681564 -0.61959314 -0.6475198 -0.85564137 -0.661946 -0.61693954
-0.6917064 -0.7635104 -0.6523214 -0.57185066 -0.7194846 -0.57132286 -0.8544674 -0.5810216
-0.64132243 -0.60697585 -0.83602965 -0.61541396 -0.59137684 -0.87305486 -0.6029929 -0.51055306
-0.6328159 -0.6322339 -0.69500875 -0.6593468 -0.5903799 -0.6839661 -0.6746333 -0.7418602
-0.42351013 -0.61891717 -0.70227945 -0.4665572 -0.8481742 -0.67546487 -0.8720631 -0.46179324
00000000: 3ba6 c5be 97ad 19bf 9c67 25bf bed2 30bf
00000010: e0b6 33bf 5ac2 19bf 78d0 2ebf ec7c 53bf
00000020: 5c94 27bf a566 60bf 4b15 16bf e9d7 fdbe
00000030: 95f3 24bf 4d43 5dbf be96 55bf f3c4 0dbf
00000040: 3977 5fbf 0c3f 2cbf 0aba 25bf 0902 5cbf
00000050: 4542 5dbf 38b7 0dbf 2f96 37bf 5f66 42bf
00000060: 9983 10bf f05b 3ebf e508 33bf 9bc1 23bf
00000070: 2fdb 15bf b4d4 20bf c715 56bf 50d3 56bf
00000080: ad56 4bbf 03eb 22bf 6080 43bf 5f2f 32bf
00000090: cbf5 58bf ebfe 1bbf d405 0abf 6ad1 1cbf
000000a0: 2667 10bf c594 45bf 9688 2ebf c92b 31bf
000000b0: 6e6d 2ebf 1721 1cbf 483f 5bbf 147e 1cbf
000000c0: e1ef 1abf 182d 29bf c3e2 38bf bd56 1ebf
000000d0: 99ca 36bf 748e 57bf c1b4 24bf 2200 05bf
000000e0: 5367 5bbf c476 16bf 1d5b 40bf db63 61bf
000000f0: 9416 f8be e5a7 3dbf 247e 30bf 45f7 e3be
00000100: e0c6 24bf 1e1b 1cbf edc9 5bbf fbd5 28bf
00000110: 8ece 1dbf cbbe 36bf 4721 2ebf cb6f 3ebf
00000120: ec83 27bf eaad 18bf 6afa 32bf 0b63 45bf
00000130: 2f94 5dbf 6ebf 1dbf ba26 4dbf 0346 5bbf
00000140: 53f2 27bf 2a91 2fbf a789 5bbf fc89 3cbf
00000150: bafd 30bf 6387 13bf 6c8f 1cbf 8443 30bf
00000160: e9dc 1bbf 0770 02bf cd21 1bbf 6772 02bf
00000170: fd34 33bf 5bf0 29bf e31d 24bf 96a0 09bf
00000180: 0e55 32bf ac62 11bf 5c3c 44bf d17a 14bf
00000190: 7339 15bf a2da 5dbf 6831 02bf eab2 0bbf
000001a0: 3d17 5dbf bebe 43bf 84e3 22bf c9c1 1cbf
000001b0: d58e 27bf 484d 27bf a75a 2ebf cb2a 15bf
000001c0: 5449 23bf 15b4 01bf 4f21 52bf 75ee 30bf
000001d0: 5746 23bf 56e6 21bf cd05 5bbf ae02 37bf
000001e0: 3534 20bf 7147 29bf 1e82 24bf ec45 27bf
000001f0: 1a5d 5ebf 8a22 cbbe 80da 27bf 2e19 14bf
00000200: ddcb 5abf 21b0 0ebf d722 42bf e613 37bf
00000210: a836 26bf f3d2 3cbf bf2b 59bf e43c 51bf
00000220: 368e 3dbf 0193 61bf c14b 38bf 02a4 23bf
00000230: 2e9d 05bf 4cde 1ebf 3bf1 5abf 37f4 58bf
00000240: 01e0 06bf 6b1d 1cbf a0d9 2dbf 6584 2ebf
00000250: 4a36 39bf 50ea d4be 2f94 01bf 719b 26bf
00000260: a91f 2bbf 71b8 20bf 5a04 1dbf 7e3a 2abf
00000270: c7ee 05bf 8725 29bf 3792 05bf a340 dfbe
00000280: d940 e6be 971e 5ebf 3682 13bf 0afc 55bf
00000290: fef4 2cbf 448c 01bf 0e11 20bf 5e9e 56bf
000002a0: b402 2cbf 0eef 17bf fe2f 31bf c0b0 22bf
000002b0: c35b 5dbf b259 1fbf 10a1 41bf ff74 5cbf
000002c0: 1b7f 19bf d9b8 e4be 3f69 18bf 8f88 35bf
000002d0: fa90 3bbf 8196 62bf 292a 2cbf a8dd 06bf
000002e0: 35a8 36bf be42 07bf baa6 50bf 8537 1dbf
000002f0: 2ca1 29bf fa69 13bf 33bd 22bf 1d8f 20bf
00000300: 6361 46bf e81f 43bf 9477 30bf a634 25bf
00000310: dccf 1ebf 0872 2cbf 59a3 2cbf 5ff5 54bf
00000320: c6df 2dbf 241a 25bf dae7 2ebf 3716 55bf
00000330: fd7c 54bf 08b5 1ebf 520b 4fbf 82ff 53bf
00000340: 5fe8 33bf a93d 53bf 9ce8 5abf 0bd2 51bf
00000350: 130f d3be 21ac 21bf 9fa8 5cbf d187 33bf
00000360: 9208 5dbf 7990 2bbf b372 11bf a89d 1ebf
00000370: dcc3 25bf 500b 5bbf 4b75 29bf c0ef 1dbf
00000380: ac13 31bf 6b75 43bf 89fe 26bf ce64 12bf
00000390: 2530 38bf 3742 12bf 60be 5abf d5bd 14bf
000003a0: b52d 24bf c562 1bbf 0a06 56bf c58b 1dbf
000003b0: 7964 17bf 8680 5fbf be5d 1abf 9bb3 02bf
000003c0: 3900 22bf 15da 21bf 18ec 31bf f4ca 28bf
000003d0: 2323 17bf 6718 2fbf c5b4 2cbf 8dea 3dbf
000003e0: 52d6 d8be 5b71 1ebf 96c8 33bf 96e0 eebe
000003f0: f221 59bf 44eb 2cbf 873f 5fbf 2a70 ecbe

b f4 [784]
-2.5057588 -2.5052977 -2.5018868 -2.4980183 -2.494438 -2.5063348 -2.5080762 -2.499675
-2.5035012 -2.5135102 -2.5074842 -2.505679 -2.5047586 -2.506688 -2.510794 -2.4954994
-2.507107 -2.5004919 -2.5041742 -2.5129523 -2.4986334 -2.5085862 -2.5078778 -2.5053341
-2.5054183 -2.5072725 -2.5150695 -2.4973717 -2.510727 -2.5085883 -2.5204458 -2.5067868
-2.5092776 -2.5021253 -2.517222 -2.4981072 -2.497638 -2.5002365 -2.4960263 -2.496902
-2.5004103 -2.5040185 -2.4969666 -2.5092015 -2.5027275 -2.4980383 -2.5039852 -2.4997504
-2.505168 -2.498976 -2.5084996 -2.5018954 -2.505697 -2.5087032 -2.5130274 -2.5080469
-2.4976735 -2.5059085 -2.5104518 -2.503247 -2.5062442 -2.5000474 -2.5019996 -2.4874327
-2.4930549 -2.4863927 -2.4995775 -2.4868236 -2.4824362 -2.4672935 -2.4530714 -2.4559288
-2.454892 -2.463541 -2.46474 -2.4789073 -2.486423 -2.4970696 -2.5041287 -2.5007832
-2.5050306 -2.5001829 -2.4971337 -2.4975016 -2.514514 -2.5029113 -2.5059628 -2.4981585
-2.503499 -2.4919949 -2.4812844 -2.4896 -2.4752948 -2.4498618 -2.4251144 -2.3780587
-2.3650572 -2.3336806 -2.3092008 -2.2908688 -2.2866306 -2.307561 -2.3254318 -2.3554878
-2.4130137 -2.4706805 -2.4913657 -2.4983706 -2.497233 -2.5003848 -2.5060785 -2.5100632
-2.500328 -2.5002818 -2.5171144 -2.5052986 -2.502848 -2.4954743 -2.4789464 -2.444804
-2.388705 -2.3101642 -2.2488046 -2.1947646 -2.1503537 -2.093998 -2.0498192 -2.024689
-2.014137 -2.0243988 -2.071656 -2.1582737 -2.256741 -2.3731275 -2.433699 -2.4736335
-2.4929512 -2.4927063 -2.504411 -2.4956179 -2.5004847 -2.5012825 -2.503386 -2.4958065
-2.4905527 -2.4753153 -2.417781 -2.3327425 -2.222179 -2.1323638 -2.0527117 -1.9716432
-1.9086277 -1.8517407 -1.8133235 -1.7752408 -1.77268 -1.7997723 -1.8587803 -1.9478639
-2.0762053 -2.1968894 -2.315455 -2.393438 -2.4526653 -2.4992378 -2.4983096 -2.500003
-2.5051558 -2.5100036 -2.497754 -2.489658 -2.4818795 -2.4249659 -2.3252776 -2.2021236
-2.092644 -1.9812692 -1.8871152 -1.8256685 -1.7746829 -1.7338822 -1.6772377 -1.6516541
-1.6448195 -1.6787527 -1.733831 -1.8072302 -1.9255233 -2.0582361 -2.1953068 -2.3202367
-2.4199011 -2.4801047 -2.5056138 -2.5117474 -2.5014 -2.5078082 -2.4857938 -2.4935749
-2.4554036 -2.3605566 -2.2433474 -2.1096144 -1.9885485 -1.8830981 -1.7884822 -1.7449216
-1.695926 -1.6612576 -1.6640366 -1.6819918 -1.6668915 -1.6386784 -1.6663363 -1.727123
-1.8297337 -1.9519138 -2.1187046 -2.2654576 -2.39584 -2.4798396 -2.498253 -2.5114434
-2.508364 -2.504869 -2.498732 -2.4637744 -2.4193976 -2.2910588 -2.167176 -2.0356975
-1.9047409 -1.8089966 -1.727286 -1.6785854 -1.6453053 -1.6238464 -1.6231904 -1.6183012
-1.6196148 -1.634872 -1.6513464 -1.6966449 -1.7854135 -1.8995886 -2.0720077 -2.243828
-2.393637 -2.4826152 -2.506741 -2.5056958 -2.503145 -2.4963343 -2.4942305 -2.4671824
00000000: 5a5e 20c0 cc56 20c0 ea1e 20c0 88df 1fc0
00000010: dfa4 1fc0 ca67 20c0 5284 20c0 adfa 1fc0
00000020: 5d39 20c0 5add 20c0 9f7a 20c0 0b5d 20c0
00000030: f74d 20c0 946d 20c0 d9b0 20c0 43b6 1fc0
00000040: 7174 20c0 0f08 20c0 6444 20c0 36d4 20c0
00000050: 9ce9 1fc0 ad8c 20c0 1281 20c0 6557 20c0
00000060: c658 20c0 2777 20c0 e6f6 20c0 f0d4 1fc0
00000070: c0af 20c0 b68c 20c0 fc4e 21c0 326f 20c0
00000080: 0198 20c0 d222 20c0 2a1a 21c0 fde0 1fc0
00000090: 4dd9 1fc0 e003 20c0 e5be 1fc0 3ecd 1fc0
000000a0: b906 20c0 d741 20c0 4dce 1fc0 c296 20c0
000000b0: b02c 20c0 dcdf 1fc0 4b41 20c0 e9fb 1fc0
000000c0: ac54 20c0 39ef 1fc0 428b 20c0 0e1f 20c0
000000d0: 575d 20c0 988e 20c0 71d5 20c0 d783 20c0
000000e0: e2d9 1fc0 ce60 20c0 3eab 20c0 3335 20c0
000000f0: 4e66 20c0 c700 20c0 c320 20c0 1932 1fc0
00000100: 368e 1fc0 0f21 1fc0 14f9 1fc0 1e28 1fc0
00000110: 3ce0 1ec0 23e8 1dc0 1fff 1cc0 f02d 1dc0
00000120: f31c 1dc0 a8aa 1dc0 4dbe 1dc0 6ba6 1ec0
00000130: 8e21 1fc0 fdcf 1fc0 a543 20c0 d50c 20c0
00000140: 6c52 20c0 ff02 20c0 0ad1 1fc0 11d7 1fc0
00000150: cced 20c0 b32f 20c0 b261 20c0 d4e1 1fc0
00000160: 5439 20c0 d87c 1fc0 5dcd 1ec0 9b55 1fc0
00000170: 3b6b 1ec0 89ca 1cc0 1335 1bc0 1d32 18c0
00000180: 195d 17c0 065b 15c0 f2c9 13c0 989d 12c0
00000190: 2858 12c0 14af 13c0 e0d3 14c0 50c0 16c0
000001a0: d16e 1ac0 a11f 1ec0 8972 1fc0 4ee5 1fc0
000001b0: aad2 1fc0 4e06 20c0 9763 20c0 e0a4 20c0
000001c0: 6005 20c0 9e04 20c0 6718 21c0 d056 20c0
000001d0: a92e 20c0 dab5 1fc0 0fa7 1ec0 ab77 1cc0
000001e0: 8be0 18c0 bbd9 13c0 6aec 0fc0 0677 0cc0
000001f0: 659f 09c0 1004 06c0 3d30 03c0 8194 01c0
00000200: 9fe7 00c0 c08f 01c0 0396 04c0 2821 0ac0
00000210: 726e 10c0 52e1 17c0 b9c1 1bc0 0350 1ec0
00000220: 838c 1fc0 8088 1fc0 4548 20c0 34b8 1fc0
00000230: f107 20c0 0315 20c0 7a37 20c0 4bbb 1fc0
00000240: 3765 1fc0 916b 1ec0 edbc 1ac0 a74b 15c0
00000250: 2e38 0ec0 a678 08c0 a15f 03c0 ce5e fcbf
00000260: ea4d f4bf d705 edbf fc1a e8bf 173b e3bf
00000270: 2ee7 e2bf f05e e6bf 83ec edbf 9b53 f9bf
00000280: 8ce0 04c0 d699 0cc0 6a30 14c0 172e 19c0
00000290: 78f8 1cc0 83f3 1fc0 4ee4 1fc0 0d00 20c0
000002a0: 7954 20c0 e6a3 20c0 34db 1fc0 8f56 1fc0
000002b0: 1dd7 1ec0 a432 1bc0 59d1 14c0 98ef 0cc0
000002c0: e1ed 05c0 3b9a fdbf fe8c f1bf 81af e9bf
000002d0: cf28 e3bf daef ddbf baaf d6bf 6769 d3bf
000002e0: 7289 d2bf 5ee1 d6bf 2dee ddbf 5253 e7bf
000002f0: 8c77 f6bf 24ba 03c0 e87f 0cc0 c27e 14c0
00000300: a9df 1ac0 09ba 1ec0 fa5b 20c0 78c0 20c0
00000310: f016 20c0 ee7f 20c0 3f17 1fc0 bb96 1fc0
00000320: 5525 1dc0 5c13 17c0 0193 0fc0 ec03 07c0
00000330: c288 febf 5c09 f1bf fcec e4bf 9759 dfbf
00000340: 1a14 d9bf 17a4 d4bf 27ff d4bf 824b d7bf
00000350: b35c d5bf 37c0 d1bf 824a d5bf 5e12 ddbf
00000360: b734 eabf 50d8 f9bf db98 07c0 42fd 10c0
00000370: 7155 19c0 b1b5 1ec0 61e3 1fc0 7dbb 20c0
00000380: 0989 20c0 c64f 20c0 3aeb 1fc0 7bae 1dc0
00000390: 69d7 1ac0 b5a0 12c0 03b3 0ac0 de48 02c0
000003a0: 8dce f3bf 338d e7bf b517 ddbf e3db d6bf
000003b0: 5d99 d2bf 33da cfbf b4c4 cfbf 7e24 cfbf
000003c0: 8a4f cfbf 7c43 d1bf 525f d3bf a92b d9bf
000003d0: 6e88 e4bf b825 f3bf c69b 04c0 e19a 0fc0
000003e0: 5931 19c0 2be3 1ec0 726e 20c0 525d 20c0
000003f0: 8733 20c0 f1c3 1fc0 79a1 1fc0 51e6 1dc0

c f4 [256]
2.5274475 2.7507062 3.008374 3.1022334 3.1697607 2.8036308 3.0818336 3.0322928
2.9948194 3.3098087 2.96305 2.655182 2.9301271 3.3216932 3.3147514 2.7433872
3.325149 3.1466835 2.984092 3.324353 3.324006 2.8560543 3.1164181 3.245723
2.9572954 3.2125313 3.0189412 3.0090668 2.9319062 3.1752837 3.3273828 3.3271394
3.2916963 2.975392 3.107013 3.0845969 3.3231053 2.8782225 2.8950155 2.8939126
2.8711274 3.2495713 2.938085 3.0321634 3.0364068 2.924728 3.3273365 3.0036395
2.8356445 3.0664377 2.9415295 3.221746 3.0538414 3.3284366 3.2841144 2.7757514
3.3225963 2.9817517 3.1315942 3.315229 2.8325987 3.2124836 3.145413 2.7141774
2.5948951 3.0281565 3.3306031 3.0653164 3.0471017 3.087995 2.8242114 2.9457228
3.0476 3.1054444 3.0168264 2.9513478 3.3249037 2.9167337 3.0894735 3.321173
3.0928676 2.5767567 3.324721 2.9664392 3.0302093 2.6754248 2.920189 3.0989478
2.9662669 2.8988013 2.9705274 2.6982725 2.995957 2.9772832 3.0442762 2.8290648
2.9554121 2.811329 3.1251369 2.7263114 2.7466369 3.3269658 2.6279886 2.504357
3.3261688 3.0108023 2.8084471 2.8562543 2.8462222 2.9533226 3.0269635 2.7122896
3.0416765 2.937141 3.325284 3.018934 3.0595968 3.044175 3.325599 3.0477383
3.1019695 3.0537388 3.4520156 2.874783 3.3282816 2.4291859 2.9934094 2.8683915
3.3267813 2.662589 3.1860929 3.024413 3.1581495 3.2354488 3.3238974 3.30423
3.0419252 3.3191152 3.0388553 2.9298017 2.586448 2.797614 3.3249729 3.3251824
2.715055 3.0204139 3.0363064 3.6989627 3.0596793 2.6226811 2.617516 2.9623907
2.9603 2.963202 2.8339586 2.822526 2.7772224 3.0487561 2.8648548 2.5985498
2.4514365 3.3254108 2.973492 3.3239644 3.0986276 2.6615548 2.959673 3.3221893
2.8302062 3.0600579 2.9930506 3.068779 3.3235083 3.0823007 2.9754255 3.3234005
3.0625892 2.7139516 2.9085484 3.0017025 3.0518496 3.3238194 3.0693052 2.7873526
2.9752998 2.7034433 3.3067646 2.8521156 3.0104516 2.9421015 2.9435961 3.0564063
3.1136646 3.3187623 2.975715 2.8854246 2.572541 3.1687183 3.6064384 3.3008618
3.563079 3.012701 2.9993308 3.3105838 3.3204849 2.825691 3.1146479 3.3271594
3.1139545 3.319352 3.3268235 3.306244 2.574388 2.9136624 3.3189094 3.0938935
3.3264341 2.9525194 2.8415072 3.0369399 2.9504156 3.323288 3.0221767 3.029191
3.1172764 2.855763 3.0286925 2.9552808 3.0671759 3.009663 3.3276393 2.878687
3.1891863 2.7970982 3.3229537 2.8079917 2.997012 3.3254342 3.034588 2.8089359
2.8381298 2.9910398 2.821093 3.0396423 2.8654752 3.010523 2.990526 3.2285964
2.7550664 3.1388764 2.999395 2.567262 3.3245358 3.056178 3.3321285 2.6938663
00000000: b3c1 2140 920b 3040 3389 4040 fe8a 4640
00000010: 5cdd 4a40 b06e 3340 c33c 4540 1611 4240
00000020: 1fab 3f40 e8d3 5340 9ca2 3d40 80ee 2940
00000030: 3487 3b40 9f96 5440 e324 5440 a893 2f40
00000040: 3ecf 5440 4363 4940 5dfb 3e40 33c2 5440
00000050: 84bc 5440 98c9 3640 6573 4740 edb9 4f40
00000060: 5444 3d40 1d9a 4d40 5536 4140 8d94 4040
00000070: 5aa4 3b40 d937 4b40 d7f3 5440 daef 5440
00000080: 27ab 5240 d36c 3e40 4dd9 4640 096a 4540
00000090: c2ad 5440 cc34 3840 ef47 3940 dd35 3940
000000a0: 8dc0 3740 faf8 4f40 9609 3c40 f70e 4240
000000b0: 7d54 4240 be2e 3b40 15f3 5440 a13b 4040
000000c0: 337b 3540 8440 4440 0542 3c40 1631 4e40
000000d0: 2372 4340 1b05 5540 ee2e 5240 e9a5 3140
000000e0: 6ba5 5440 05d5 3e40 0a6c 4840 b62c 5440
000000f0: 4c49 3540 5599 4d40 724e 4940 15b5 2d40
00000100: c312 2640 51cd 4140 9a28 5540 252e 4440
00000110: b703 4340 b6a1 4540 e1bf 3440 b986 3c40
00000120: e10b 4340 9abf 4640 af13 4140 e2e2 3c40
00000130: 39cb 5440 c4ab 3a40 efb9 4540 198e 5440
00000140: 8bf1 4540 95e9 2440 3bc8 5440 24da 3d40
00000150: f3ee 4140 293a 2b40 60e4 3a40 2955 4640
00000160: 51d7 3d40 f685 3940 1f1d 3e40 7fb0 2c40
00000170: c2bd 3f40 cf8b 3e40 6cd5 4240 660f 3540
00000180: 7925 3d40 d0ec 3340 3e02 4840 e37b 2e40
00000190: e6c8 2f40 02ed 5440 f730 2840 6347 2040
000001a0: f3df 5440 fcb0 4040 99bd 3340 dfcc 3640
000001b0: 8128 3640 3d03 3d40 c5b9 4140 2796 2d40
000001c0: d4aa 4240 1efa 3b40 74d1 5440 3736 4140
000001d0: 6fd0 4340 c3d3 4240 9dd6 5440 250e 4340
000001e0: ab86 4640 7570 4340 d3ed 5c40 72fc 3740
000001f0: 9102 5540 c877 1b40 0594 3f40 ba93 3740
00000200: fce9 5440 dc67 2a40 f2e8 4b40 fc8f 4140
00000210: 1f1f 4a40 9811 4f40 bcba 5440 8178 5340
00000220: e7ae 4240 626c 5440 9b7c 4240 df81 3b40
00000230: 5d88 2540 1c0c 3340 5bcc 5440 cacf 5440
00000240: 76c3 2d40 764e 4140 d852 4240 cebb 6c40
00000250: c9d1 4340 02da 2740 6285 2740 cf97 3d40
00000260: 8e75 3d40 1aa5 3d40 945f 3540 44a4 3440
00000270: 03be 3140 d21e 4340 c859 3740 a44e 2640
00000280: 56e4 1c40 88d3 5440 b14d 3e40 d5bb 5440
00000290: ea4f 4640 ea56 2a40 486b 3d40 c09e 5440
000002a0: 1922 3540 fdd7 4340 248e 3f40 e066 4440
000002b0: 5cb4 5440 6a44 4540 5f6d 3e40 98b2 5440
000002c0: 7601 4440 62b1 2d40 a825 3a40 e51b 4040
000002d0: 8151 4340 75b9 5440 7f6f 4440 fc63 3240
000002e0: 506b 3e40 3705 2d40 08a2 5340 1089 3640
000002f0: 3dab 4040 644b 3c40 e163 3c40 299c 4340
00000300: 4846 4740 9a66 5440 1d72 3e40 ccaa 3840
00000310: 83a4 2440 48cc 4a40 e3cf 6640 5241 5340
00000320: 7d09 6440 18d0 4040 09f5 3f40 9be0 5340
00000330: d382 5440 1fd8 3440 6456 4740 2ef0 5440
00000340: 084b 4740 4370 5440 adea 5440 8099 5340
00000350: c6c2 2440 7279 3a40 0369 5440 5a02 4640
00000360: 4ce4 5440 14f6 3c40 41db 3540 395d 4240
00000370: 9cd3 3c40 c0b0 5440 586b 4140 44de 4140
00000380: 7581 4740 d2c4 3640 19d6 4140 5223 3d40
00000390: 9c4c 4440 529e 4040 0bf8 5440 683c 3840
000003a0: a11b 4c40 a803 3340 46ab 5440 23b6 3340
000003b0: 0bcf 3f40 ead3 5440 b136 4240 9bc5 3340
000003c0: eba3 3540 326d 3f40 ca8c 3440 8089 4240
000003d0: f263 3740 69ac 4040 c764 3f40 53a1 4e40
000003e0: 0253 3040 5ae3 4840 16f6 3f40 054e 2440
000003f0: 32c5 5440 6c98 4340 9841 5540 4e68 2c40
