parametric_qst_single/tfim_4x4_multi_suscept/models_viet/hyprbm_tfim_4x4_20000_suscept_seed47_20260123_014438.pt (torch, 51418 bytes, 7 tensors)

W f4 [16, 64]
0	0x3f5dba76	0.8661264
1	0xbdfbf095	-0.12301747
2	0xbc6c2979	-0.014414185
3	0xbefdd878	-0.49579215
4	0x3cd6393f	0.026150344
5	0x3d711f97	0.058868017
6	0xbd5f42df	-0.054507133
7	0xbe6ed480	-0.2332325
8	0xbd5040e8	-0.05084315
9	0xbd09da47	-0.03365543
10	0x3ec6f7fa	0.38861066
11	0x3bfc17a8	0.0076932497
12	0xbd4f25ee	-0.050573282
13	0xbd096dfb	-0.03355215
14	0x3d21a09a	0.039459802
15	0xbd80d64d	-0.06290875
16	0x3ed4b8dc	0.41547287
17	0x3f9c0d3f	1.2191542
18	0x3e50788d	0.20358486
19	0x3f8cf17d	1.1011196
20	0x3f02d564	0.5110686
21	0x3d193783	0.037406456
22	0xbbe4e103	-0.0069848313
23	0x3dbdff14	0.09277168
24	0x3f128fff	0.5725097
25	0xbd9cd406	-0.07657628
26	0x3db5419b	0.08850404
27	0xbd69efec	-0.057113573
28	0x3cf3570d	0.029704595
29	0xbc39be4c	-0.011336874
30	0xbdb81779	-0.08988852
31	0xbd7dd2af	-0.0619685
32	0x3d94af93	0.072600506
33	0x3b993e39	0.004676607
34	0xbd90dc98	-0.07073325
35	0x3ef96d21	0.4871607
36	0x3c99baee	0.018765893
37	0xbcd33194	-0.025780477
38	0xbd9539a7	-0.07286387
39	0xbdd5a9d6	-0.10432784
40	0xbed280c1	-0.41113856
41	0xbd878752	-0.06617607
42	0xbdb2f2a2	-0.08737685
43	0xbd23b672	-0.039968915
44	0x3f4f46f0	0.8096762
45	0xbd84d2a5	-0.0648549
46	0xbd4d3d01	-0.050107006
47	0x3e1dec1a	0.15422097
48	0x3d9aa7ce	0.075515375
49	0xbcd93e87	-0.026519073
50	0x3e119bdf	0.14219616
51	0x3d3df8ab	0.046379726
52	0xbbace1b2	-0.0052759284
53	0x3cac60ae	0.021042194
54	0x3d1c85cf	0.038213547
55	0xbd99699e	-0.07490848
56	0x3e8373d6	0.25674313
57	0xbdaa226c	-0.08307347
58	0x3c654594	0.0139936395
59	0xbc363cdb	-0.0111229075
60	0xbf14af6d	-0.5808018
61	0x3e088a03	0.13333897
62	0x3c5255b7	0.012837819
63	0x3c91a221	0.017777504
64	0x3e6854f0	0.22688651
65	0x3e68b1e2	0.22724107
66	0x3caa1a4e	0.020764496
67	0xbdc7ba4d	-0.09752331
68	0x3d369771	0.04457802
69	0x3dc64aa9	0.09682209
70	0x39b3b05d	0.0003427294
71	0xbe935dc9	-0.2878249
72	0xbc36422a	-0.011124173
73	0x3cc19e16	0.023634952
74	0xbd1285af	-0.03577202
75	0x3d306ae2	0.04307068
76	0x3b0a6fb5	0.0021123711
77	0xbc998259	-0.018738912
78	0x3d628ac2	0.05530811
79	0xbab65566	-0.0013910949
80	0x3e98caf9	0.29842356
81	0xbe22029e	-0.15821311
82	0x3eaaa7ca	0.33331138
83	0x3f18a617	0.59628433
84	0x3ffab585	1.9586645
85	0x3d8e6ea2	0.06954695
86	0x3d571b26	0.052516125
87	0x3da99be3	0.08281686
88	0x3f0c5c0e	0.54827964
89	0xbcccdf94	-0.025008954
90	0xbe0f5331	-0.13996579
91	0x3c57cbd2	0.013171153
92	0x3d8dd449	0.06925256
93	0x3d2137fd	0.039360035
94	0xbcd892f6	-0.026437264
95	0xbc9ea0c5	-0.01936377
96	0x3e11fefc	0.14257425
97	0x3d0fb011	0.03508002
98	0x3d0b657d	0.034032334
99	0x3f8be61c	1.0929599
100	0x3be40545	0.006958636
101	0x3c906440	0.017625928
102	0xbc1ae702	-0.009454491
103	0xbd2e571f	-0.042563554
104	0xbe972a79	-0.29524592
105	0xbe86d051	-0.26330808
106	0xbd3b51ee	-0.04573243
107	0xbc24adf7	-0.010051242
108	0x3edd4bb1	0.4322181
109	0x3b42a007	0.0029697435
110	0x3a75286e	0.0009352033
111	0xbd51ce83	-0.051222336
112	0x3db74140	0.08947992
113	0x3c8c04ab	0.01709207
114	0x3e57c48e	0.21071073
115	0x3d6b492a	0.05744282
116	0x3c1a8dda	0.009433234
117	0x3d7c9b6f	0.06167167
118	0x3d592392	0.053012438
119	0xbd11f6c1	-0.035635713
120	0xbc63c5cd	-0.01390214
121	0xbd2fd3d5	-0.04292663
122	0x3d611012	0.054946966
123	0x3ccac833	0.024753666
124	0xbdb70c78	-0.08937925
125	0x3e735b21	0.23765232
126	0x3d0bf847	0.034172323
127	0x3d323f29	0.043517265
128	0x3e8f3567	0.2797043
129	0x3f09f145	0.53883773
130	0x3d45c914	0.048287466
131	0xbea32407	-0.31863424
132	0x3d21fdb0	0.039548576
133	0x3e0ee4d6	0.13954481
134	0x3dc32292	0.09528078
135	0xbe6e6e36	-0.2328423
136	0x3dbd3a38	0.0923962
137	0x3dab94ad	0.08377967
138	0x3ea07bc8	0.31344438
139	0x3d97efc5	0.07418779
140	0x3dca3b84	0.09874633
141	0xbc9be770	-0.019031256
142	0x3d36bcf9	0.044613812
143	0x3de10718	0.10987681
144	0x3f525985	0.82167846
145	0xbedef947	-0.4354956
146	0x3eaac733	0.33355102
147	0xbdf1fe7c	-0.11816117
148	0x3f1425b0	0.57870007
149	0xbd808e9a	-0.06277199
150	0x3d5d960e	0.05409818
151	0xbd10999a	-0.035302736
152	0x3e392053	0.18078737
153	0x3de6304a	0.11239679
154	0xbe1549ef	-0.14578985
155	0x3dc8bd25	0.098017015
156	0x3cd1d049	0.025612013
157	0x3d4e0701	0.05029965
158	0x3de74cb8	0.1129393
159	0x3dd10e23	0.102077745
160	0xbeee1ef2	-0.46507984
161	0x3d74c156	0.059754692
162	0x3ded8863	0.11598279
163	0x3f8df21b	1.108951
164	0xbbab1409	-0.0052208942
165	0x3d889e30	0.06670797
166	0x3dcede13	0.10100951
167	0x3e0d7866	0.1381546
168	0xbeb8f81b	-0.3612679
169	0xbfb46cd2	-1.4095709
170	0xbaddfe16	-0.0016936685
171	0x3db0ef92	0.086394444
172	0x3ea6910f	0.32532546
173	0x3e04341b	0.12910502
174	0x3db40e3f	0.0879178
175	0xbe00205c	-0.12512344
176	0x3c9584ae	0.018251743
177	0x3d82140f	0.06351482
178	0xbdbbbd7c	-0.09167001
179	0xbcf977c7	-0.030452622
180	0x3aad58f4	0.0013225363
181	0x3d5eb212	0.05436904
182	0xbdf779b1	-0.12083758
183	0x3ddf5a27	0.10905867
184	0x3caab1c1	0.020836713
185	0x3dd75306	0.10513882
186	0x3dc57a32	0.096424475
187	0x3d68c7d2	0.05683119
188	0x3ebb626a	0.3659852
189	0x3f452a10	0.7701731
190	0x3d2c9dc8	0.04214266
191	0x3da9a08c	0.08282575
192	0x3f18032e	0.5937985
193	0x3e221436	0.15828022
194	0xbce71906	-0.028210174
195	0xbef31867	-0.47479555
196	0x3ce8d476	0.028421622
197	0xbd52ba93	-0.051447462
198	0x3d7d9ec3	0.061918985
199	0xbec8213f	-0.39087865
200	0x3d5db457	0.054127064
201	0x3cf447de	0.029819425
202	0x3f5a49fe	0.85269153
203	0x3cc9060a	0.024539012
204	0x3d0884cf	0.03332978
205	0x3ed5e1d2	0.4177385
206	0x3c2b20ad	0.010444802
207	0x3d5a3d53	0.05328114
208	0x3fecfb91	1.8514272
209	0x3ed61e0e	0.41819805
210	0x3e58625b	0.2113127
211	0x3dcad23c	0.0990338
212	0xbeb1004e	-0.34570545
213	0xbc676053	-0.014122087
214	0x3ce2e1bc	0.02769553
215	0x3c296408	0.010338791
216	0xbd07eef2	-0.03318686
217	0x3da63b97	0.081168346
218	0xbd325533	-0.043538284
219	0x3cfd8eba	0.030951846
220	0x3b694d88	0.003559919
221	0x3b252c4f	0.0025203412
222	0x3da3e919	0.08003444
223	0x3d839a09	0.06425864
224	0x3f059f2d	0.5219601
225	0x3c2214bd	0.00989264
226	0x3cd55862	0.02604312
227	0x3f05dc15	0.52288944
228	0x3cca64d7	0.024706287
229	0x3d0c41c9	0.034242425
230	0x3d51ac7c	0.051189885
231	0x3dc12ff3	0.09432974
232	0x3e2b8aab	0.16752116
233	0xbefe6536	-0.49686593
234	0xbdd7697b	-0.10518166
235	0x3d5ba194	0.05362089
236	0x3f0e1692	0.5550319
237	0x3cbaf75c	0.022823028
238	0x3d878d57	0.06618755
239	0xbd1128b2	-0.0354392
240	0xbca71a7a	-0.020398367
241	0x3cfdc249	0.030976431
242	0x3d90a5f5	0.07062904
243	0xbd618243	-0.055055868
244	0xbb9ab16d	-0.004720858
245	0xbba43d25	-0.005012172
246	0xbda02c78	-0.07820982
247	0x3da486bc	0.08033511
248	0x3e6e107e	0.23248479
249	0x3dbe810e	0.09301959
250	0xbca54eb4	-0.02017913
251	0x3c81eb2c	0.015859209
252	0xbeaa3049	-0.33239964
253	0x3f0f0e59	0.5588127
254	0x3cd3ba15	0.025845567
255	0x3cc4e008	0.024032608

b f4 [16]
0	0x3bdf07b0	0.0068063363
1	0x3b060513	0.0020449802
2	0xbbd47ad6	-0.0064843697
3	0xbbc05841	-0.0058698957
4	0x3c2a1007	0.010379798
5	0x3af4b77b	0.0018670404
6	0x3b47bfc8	0.00304793
7	0xbc4aad70	-0.012370452
8	0x3bda5f79	0.0066642133
9	0xbbb607c7	-0.0055551264
10	0x3bbc7164	0.005750822
11	0xbcb44555	-0.022005716
12	0xbc58ed4c	-0.01324017
13	0xbc21e3b0	-0.009880945
14	0xbbe3f927	-0.0069571915
15	0x3ba89fb6	0.005145992

c f4 [64]
0	0x3db0212a	0.086000755
1	0xbbe32404	-0.0069317836
2	0x3dedcd6b	0.11611446
3	0xbbcc7e09	-0.0062406105
4	0xbee5e861	-0.44903854
5	0xb95db29b	-0.00021142738
6	0x3f13634d	0.57573396
7	0xbe07378a	-0.1320478
8	0x3f0b1b01	0.5433808
9	0xbee29064	-0.44250786
10	0x3e98e831	0.29864648
11	0x3ef294fb	0.47379288
12	0x3ef275d5	0.47355524
13	0x3ce7be75	0.02828906
14	0x3f208d4e	0.62715614
15	0x3f137429	0.5759912
16	0xbc60de68	-0.013724901
17	0x3bc128ab	0.0058947406
18	0x3a61876c	0.0008603248
19	0x3c56bb9d	0.013106254
20	0x3b61e75f	0.0034470183
21	0xbeedc23d	-0.46437255
22	0x3f114b8b	0.56755894
23	0xbef370bd	-0.4754695
24	0xb9b75c97	-0.00034973465
25	0x3efa4ecd	0.48888245
26	0xbbc7203c	-0.0060768407
27	0x3ef424ef	0.47684428
28	0xbf03ef4a	-0.51537
29	0x3ef890b4	0.485479
30	0x3ef7dfdd	0.48412982
31	0x3f173def	0.5907888
32	0xbad9aef8	-0.0016607931
33	0xbeecadb7	-0.46226284
34	0x3ef7fcfa	0.48435193
35	0x3e77add0	0.24187398
36	0xbee4c09d	-0.44678202
37	0xbf133cbe	-0.5751456
38	0x3f140e02	0.57833874
39	0x3eb94acd	0.3618988
40	0xbc1ea8ca	-0.009683797
41	0xbbbfdc26	-0.005855101
42	0xbe6a99bf	-0.22910212
43	0x3f040c19	0.5158096
44	0x3ae38a78	0.0017359992
45	0xbe045406	-0.12922677
46	0x3f1e9e2e	0.61960113
47	0xbb597b0e	-0.0033184919
48	0xbee8b3de	-0.45449728
49	0xbf020626	-0.5079063
50	0x3c7437ba	0.014905864
51	0xbec9567a	-0.3932379
52	0x3eed2f1d	0.46325007
53	0x3ec4ba9f	0.3842363
54	0xbec09668	-0.3761475
55	0x3f0b4ea9	0.544169
56	0xbc02b3ed	-0.007977468
57	0x3f19f1bd	0.6013449
58	0xbe8310f3	-0.2559887
59	0xbed52848	-0.41632295
60	0x3b37e380	0.0028059185
61	0xbb2d9220	-0.0026484802
62	0xbf23470a	-0.6378027
63	0x3ed917d3	0.4240099

conditioner.fc1.weight f4 [64, 1]
0	0xbea1cb22	-0.3160029
1	0xbf6c7894	-0.9237149
2	0x3cc901d2	0.024537
3	0x3e993052	0.29919678
4	0x3e9a5038	0.30139327
5	0x3d7c6cac	0.061627075
6	0x3f914d8d	1.1351792
7	0xbe91f2a2	-0.28505427
8	0xbf3e8257	-0.7441763
9	0xbe451dc3	-0.19249634
10	0x3c5930fd	0.013256309
11	0x3f2bfd89	0.6718374
12	0xbd9ba557	-0.075998954
13	0x3b9455f8	0.00452685
14	0xbf6fb8f8	-0.93641615
15	0x3cc92aed	0.024556601
16	0x3f3bdba5	0.73382026
17	0xbf2d58d6	-0.6771368
18	0xbea87ed0	-0.3290925
19	0x3c11597f	0.008871435
20	0xbbd6c1c0	-0.0065538585
21	0x3e3f2ae8	0.18668711
22	0xbdf37c56	-0.118889496
23	0x3bfddde5	0.007747399
24	0xbe964bcf	-0.29354712
25	0xbd41a134	-0.047272876
26	0x3f07b687	0.5301289
27	0xbe4b8d4c	-0.19878119
28	0xbf18978a	-0.5960623
29	0x3da43e22	0.080196634
30	0x3e71fe36	0.2363213
31	0x3f304f27	0.68870777
32	0x3cbe7aaa	0.02325185
33	0xbf6b9b0d	-0.92033464
34	0xbc27226e	-0.01020108
35	0x3d716ac2	0.058939703
36	0x3da15bb2	0.078788176
37	0xbe32fd6e	-0.17479488
38	0xbeff1124	-0.49817765
39	0x3c4d52c4	0.01253194
40	0xbe637a77	-0.22214685
41	0x3c7e6211	0.015526311
42	0xbcd2d7e3	-0.025737708
43	0xbe3c649a	-0.18397751
44	0xbca50f3e	-0.02014887
45	0xba5d5150	-0.00084425975
46	0x3bcd20b3	0.0062600016
47	0x3c274f9b	0.0102118505
48	0xbe803f47	-0.25048277
49	0xbd8735ad	-0.06602035
50	0xbecbfb3f	-0.39840123
51	0xbf20c912	-0.6280681
52	0xbcd75711	-0.026286634
53	0xbc4f34dc	-0.01264688
54	0xbe57272c	-0.21011037
55	0xbd3d9ac6	-0.04629018
56	0xbcfcb9e2	-0.030850355
57	0x3e25b626	0.16182765
58	0x3aa94426	0.0012913987
59	0x3d89c501	0.06727029
60	0x3c2c050f	0.010499253
61	0xbccdeee5	-0.025138328
62	0x3d4867f5	0.048927266
63	0xbddc24e3	-0.10749223

conditioner.fc1.bias f4 [64]
0	0x3f464343	0.77446383
1	0x3f475492	0.7786342
2	0xbcda89c0	-0.026677012
3	0x3e13829c	0.14405292
4	0xbf543b61	-0.82903105
5	0xbe045b0d	-0.12925358
6	0xbf353c10	-0.70794773
7	0x3f37a045	0.71728927
8	0x3ef7ea52	0.4842096
9	0x3f07b8e5	0.530165
10	0xbd507466	-0.050892256
11	0xbe4c681d	-0.19961591
12	0x3e4befba	0.19915667
13	0x3a8266fb	0.0009948903
14	0x3eb2e586	0.34940737
15	0xbc2c80f4	-0.010528792
16	0xbf505081	-0.8137284
17	0xbf08b015	-0.5339368
18	0xbe186865	-0.14883573
19	0x3a941738	0.0011298424
20	0x3b8c17ee	0.0042753136
21	0xbf03f049	-0.5153852
22	0x3e8180b1	0.25293496
23	0xbc2c9bab	-0.010535161
24	0x3f38dc36	0.72211015
25	0x3df80650	0.12110579
26	0xbe2e1e0b	-0.17003648
27	0x3eba9685	0.36442962
28	0x3f40fbdb	0.753843
29	0xbe386b5f	-0.18009709
30	0xbf263281	-0.6492081
31	0xbf627f4e	-0.884755
32	0xbc21ee61	-0.009883494
33	0x3f2f20f6	0.6840967
34	0xbc667ac9	-0.01406736
35	0xbe1532c5	-0.14570148
36	0xbe47899c	-0.19486088
37	0x3efd40cb	0.49463496
38	0xbe854f82	-0.26037222
39	0xbc0a7506	-0.008450752
40	0x3f1e2b77	0.6178507
41	0xbc1ffea2	-0.009765299
42	0x3ce1536a	0.027505595
43	0x3f07509d	0.5285738
44	0x3dc4c85c	0.09608528
45	0xbb550f88	-0.0032510478
46	0x3c599153	0.013279277
47	0xbc4cdee1	-0.01250431
48	0x3f337f25	0.7011588
49	0x3e257cd6	0.16160902
50	0x3f05626d	0.5210331
51	0x3f6ae4b0	0.917552
52	0x3c425ff9	0.011863702
53	0x3b954977	0.004555877
54	0x3f181777	0.59410805
55	0xbaf91f52	-0.0019006527
56	0x3d673bbd	0.056453455
57	0xbeda8397	-0.4267852
58	0xbc7c48a6	-0.01539818
59	0xbe439adf	-0.19102047
60	0xbb90b067	-0.00441556
61	0x3da46910	0.080278516
62	0xbde9f7c3	-0.1142421
63	0x3e8a9640	0.27067757

conditioner.fc2.weight f4 [160, 64]
0	0xbce974aa	-0.028498013
1	0xbd542ee7	-0.051802542
2	0x3defb690	0.11704743
3	0xbe1cfa77	-0.1532992
4	0x3e14233f	0.1446657
5	0xbd9a3609	-0.07529838
6	0xbdf3dfb1	-0.119079
7	0x3e2c9e7c	0.16857332
8	0x3e29cb9c	0.16581577
9	0xbe794091	-0.24341036
10	0xbd9a1186	-0.075228736
11	0xbe225a32	-0.1585472
12	0x3e2595d5	0.16170438
13	0x3c7653fb	0.015034671
14	0xbc96e7b4	-0.018421032
15	0xbbc6f6a2	-0.0060718814
16	0xbd9ee905	-0.07759289
17	0x3e4a6979	0.19766797
18	0xbd2c8394	-0.04211767
19	0x3d8ac8fc	0.06776616
20	0xbce74231	-0.028229805
21	0x3d98877e	0.07447718
22	0x3d93b04f	0.072113626
23	0xbd56e07b	-0.052460175
24	0x3d2cc6ad	0.04218166
25	0xbd216640	-0.039404154
26	0xbe131384	-0.14362913
27	0xbd0f0486	-0.034916423
28	0x3d87929f	0.06619763
29	0xbd408b69	-0.047007952
30	0x3de85e36	0.11346094
31	0x3d78a458	0.060703605
32	0xbb192f6a	-0.0023374208
33	0xbc85f2ba	-0.016351093
34	0xbe0f3f6e	-0.1398904
35	0xbd8c3eae	-0.06847893
36	0x3de4f1aa	0.11178906
37	0xbdb8df38	-0.090269506
38	0x3e25603a	0.16149989
39	0xbde5e6c1	-0.112256534
40	0xbd3dd207	-0.046342876
41	0xbe1824b9	-0.14857759
42	0xbd13d1c1	-0.03608871
43	0x3d1465cd	0.036229897
44	0x3de66183	0.11249068
45	0xbd505ad6	-0.050867878
46	0x3c48cc5a	0.012255752
47	0xbe59d031	-0.21270825
48	0x3da52546	0.0806375
49	0xbcbd3509	-0.023096578
50	0x3dae2520	0.08503175
51	0xbdcedb25	-0.10100392
52	0xbda529fe	-0.0806465
53	0xbd302a1d	-0.043008912
54	0xbe1e8308	-0.15479672
55	0x3ca430a1	0.02004272
56	0x3c8c3413	0.017114675
57	0x3e0e756e	0.13911983
58	0xbe3e0b9d	-0.18559118
59	0xbda702ed	-0.08154855
60	0x3d85fccd	0.065423585
61	0xbd555201	-0.05208016
62	0xbdab9681	-0.08378316
63	0xbc86e0eb	-0.016464671
64	0xba6bfbe5	-0.0009002074
65	0x3e05e0a4	0.13073975
66	0x3e81369c	0.25236976
67	0xbdc14917	-0.09437769
68	0x3e7f765a	0.24947491
69	0x3d90dea0	0.07073712
70	0xbdea3a7a	-0.11436935
71	0x3d859165	0.065218724
72	0x3e183279	0.14863004
73	0xbe2403e2	-0.16017106
74	0x3d19627e	0.037447445
75	0x3bd6df5f	0.0065573896
76	0x3d2d08ec	0.042244837
77	0x3cc88cf4	0.024481274
78	0x3e21ca90	0.15799928
79	0x3c3438fe	0.010999916
80	0x3df5dff8	0.12005609
81	0xbd71b323	-0.05900873
82	0x3dd87f44	0.10571149
83	0x3e2e0178	0.16992748
84	0xbc8adc16	-0.016950648
85	0x3e360d0a	0.17778412
86	0x3d1a1359	0.037616108
87	0xbd880744	-0.06642011
88	0x3dbd82a9	0.09253437
89	0xbc37aa39	-0.011210018
90	0xbe08ed24	-0.13371712
91	0x3da0225c	0.078190535
92	0x3d15fa33	0.03661556
93	0x3da37ed2	0.079831734
94	0x3e0725d1	0.1319802
95	0xbd9fec5b	-0.07808753
96	0x3e8aa25f	0.27077004
97	0x3e19ad3b	0.15007488
98	0xbbd0c4b3	-0.0063711046
99	0x3db15ffd	0.086608864
100	0x3d4ae903	0.049538624
101	0xbdc885e5	-0.09791163
102	0x3d5f1a47	0.05446842
103	0x3d135e37	0.035978522
104	0xbca034ff	-0.01955652
105	0x3e2a8b82	0.1665478
106	0xbc077d88	-0.008269675
107	0xbcbee4fd	-0.02330255
108	0xbdc5df93	-0.09661784
109	0xbbd6dd85	-0.006557169
110	0xbd3d42dd	-0.046206344
111	0x3db3e60e	0.08784114
112	0xbe1d3aad	-0.15354414
113	0x3cec370f	0.028834848
114	0xbd278dff	-0.040906902
115	0x3da08803	0.07838442
116	0xbdb946a7	-0.09046679
117	0x3e27d715	0.16390641
118	0x3b7c2685	0.0038475108
119	0xbe138143	-0.14404778
120	0xbd91eeb9	-0.07125611
121	0xbd6baa42	-0.057535417
122	0x3e7e1452	0.24812439
123	0xbdf391fa	-0.11893077
124	0x3e09940b	0.1343538
125	0x3ccd909e	0.025093373
126	0x3d1c3454	0.03813584
127	0x3e0f9f31	0.1402557
128	0xbc379801	-0.011205674
129	0x3db741f0	0.089481235
130	0x3e28f776	0.16500649
131	0xbde774a2	-0.11301543
132	0x3e818565	0.25297084
133	0xbd811ce9	-0.06304342
134	0xbbd45c9b	-0.006480766
135	0x3d5f4ac6	0.05451467
136	0x3e3641a8	0.17798483
137	0xbe4ed32b	-0.20197742
138	0x3cfbdc37	0.030744655
139	0xbdfe8d3c	-0.12429282
140	0x3dc87119	0.09787197
141	0x3dd9368b	0.10606106
142	0x3bd6a51f	0.0065504457
143	0x3de3949d	0.1111233
144	0xbcd9f12a	-0.026604254
145	0xbc41705c	-0.011806574
146	0x3d21b45e	0.039478652
147	0x3d3d2477	0.046177354
148	0x3db2220a	0.08697899
149	0x3e4d97b3	0.200774
150	0x3e23fe6c	0.16015023
151	0xbddc0c31	-0.10744513
152	0xbc9b3c76	-0.018949728
153	0x39e990c2	0.00044549076
154	0x3d09f0a1	0.033676747
155	0x3e1047c1	0.14089872
156	0x3df311b0	0.11868608
157	0xbda96def	-0.08272921
158	0x3e1ee5ba	0.15517321
159	0x3daf5f45	0.08563093
160	0xbc50faa0	-0.012755066
161	0x3e23a2de	0.15980098
162	0x3da67eab	0.08129629
163	0x3d6a68d4	0.05722888
164	0x3c4da238	0.012550883
165	0xbcf68b98	-0.03009586
166	0x3df5bf22	0.11999346
167	0x3daf9a41	0.085743435
168	0xbdeba8f9	-0.11506838
169	0xbc9a32f6	-0.018823128
170	0xbddbbaad	-0.10728965
171	0xbdf92728	-0.121656716
172	0x3d16d533	0.036824416
173	0xbe07f6e6	-0.13277778
174	0xbcd83321	-0.026391568
175	0x3d13a1ed	0.036043096
176	0x3c1b1ac7	0.009466833
177	0x3d3fa996	0.04679259
178	0x3dbc1831	0.09184302
179	0x3d27c9e1	0.04096401
180	0xbdcf07a4	-0.10108879
181	0x3cd45736	0.025920492
182	0xbe6835bc	-0.22676748
183	0x3e078b19	0.13236655
184	0x3d6e8597	0.05823287
185	0x3dec41e4	0.11536005
186	0x3e32f8fc	0.17477793
187	0x3d28b098	0.041184038
188	0x3da3a880	0.07991123
189	0xbca065cf	-0.019579796
190	0x3d615a8b	0.05501799
191	0x3dd0ca6e	0.101948604
192	0x3d7a1e48	0.061064035
193	0x3becccc0	0.0072265565
194	0x3e604807	0.21902476
195	0xbe459bb6	-0.1929768
196	0x3cb9e18b	0.022690555
197	0xbd9e3bda	-0.077262595
198	0xbe0f2ca8	-0.13981879
199	0x3cdc54ff	0.026895998
200	0x3d14014f	0.03613406
201	0xbe37a976	-0.17935738
202	0xbd490204	-0.049074188
203	0xbe4739f3	-0.194557
204	0xbd26da9e	-0.040735833
205	0x3cd01c47	0.025404109
206	0x3d9b5e35	0.07586328
207	0x3e0bb8a9	0.13644661
208	0xbd807f5c	-0.06274292
209	0x3d9ec449	0.07752282
210	0x3e36b6ef	0.17843221
211	0x3e755aae	0.23960373
212	0xbd0366d9	-0.032080505
213	0x3e5d8912	0.2163432
214	0xbd33f74c	-0.043937013
215	0x3dccfcdc	0.100091666
216	0x3c9c6b0f	0.019094018
217	0x3d9905e9	0.074718304
218	0xbd6f5598	-0.058431238
219	0x3c0838b0	0.008314297
220	0x3e045c56	0.12925848
221	0x3da62094	0.081116825
222	0x3e8ce09a	0.27515107
223	0xbc029021	-0.007968933
224	0x3dfb0a0d	0.122577764
225	0x3d17b448	0.037037164
226	0xbd08c3bb	-0.033389788
227	0xbe1b10c1	-0.1514311
228	0x3cd6a4cc	0.026201628
229	0xbd5ebc9f	-0.0543791
230	0x3c74e40a	0.014946947
231	0x3d4677e5	0.048454184
232	0xbc80b706	-0.015712272
233	0x3da58f78	0.08084005
234	0xbdf92ac3	-0.12166359
235	0x3db3aadb	0.087728225
236	0x3d0698cc	0.032860562
237	0xbe87a17c	-0.2649039
238	0x3dbed4ee	0.09317957
239	0x3dccef7b	0.10006615
240	0x3d973834	0.07383767
241	0xbce06c9d	-0.02739554
242	0xbcd2b1ab	-0.025719484
243	0xbc01f9cc	-0.007933091
244	0xbe29b97e	-0.16574666
245	0x3e3ceb4f	0.18449138
246	0xbe0b86af	-0.13625596
247	0xbe15c9e3	-0.14627795
248	0xba07d0d1	-0.00051809574
249	0x3e2ee4be	0.17079446
250	0xbe837bc7	-0.25680372
251	0x3d2a71e9	0.04161254
252	0x3a884ce1	0.0010398888
253	0xbd4006a9	-0.04688135
254	0x3da8dc64	0.08245161
255	0x3d1a225c	0.037630424

conditioner.fc2.bias f4 [160]
0	0xbdce4383	-0.100714706
1	0xbde78eee	-0.113065585
2	0xbe506dcd	-0.20354386
3	0xbd71bb9e	-0.059016816
4	0xbd19b390	-0.03752476
5	0xbe528cf1	-0.20561577
6	0xbd2fdbef	-0.042934354
7	0xbdb5c223	-0.08874919
8	0xbe33f6b6	-0.17574582
9	0xbd404dd5	-0.046949226
10	0xbdb722a9	-0.08942158
11	0xbd5bd476	-0.053669415
12	0xbe0430b8	-0.1290921
13	0xbe298a42	-0.16556647
14	0xbd6abe94	-0.057310656
15	0xbd7bad1b	-0.061444383
16	0xbe18c0f9	-0.14917363
17	0xbd7db756	-0.06194242
18	0x3d81230b	0.06305512
19	0xbe944f99	-0.28966978
20	0xbddd73b2	-0.10813083
21	0xbe88d238	-0.26722884
22	0xbd22245b	-0.039585453
23	0xbe1f1ac8	-0.1553756
24	0xbe312aa6	-0.17301425
25	0xbe94c6d7	-0.29057953
26	0x3c9994d8	0.018747732
27	0xbdf3bf5d	-0.11901734
28	0xbe4b6467	-0.19862519
29	0xbdf6067f	-0.12012958
30	0xbc96df1f	-0.01841694
31	0xbc2b6dd3	-0.010463196
32	0xbeb3b7bf	-0.35101125
33	0xbd5e36b2	-0.05425138
34	0xbef91233	-0.48646697
35	0xbe0a1371	-0.13483979
36	0x3f342b7a	0.7037884
37	0xbe34bd2d	-0.1765029
38	0xbf752f37	-0.9577517
39	0x3d43133e	0.047625773
40	0xbf676dce	-0.90401924
41	0x3f31d416	0.6946424
42	0xbedad72b	-0.42742285
43	0xbf69f009	-0.9138189
44	0xbf59fac1	-0.85148245
45	0xbe4fe279	-0.20301236
46	0xbf5da1d5	-0.8657506
47	0xbf6c6513	-0.92341727
48	0xbe7372c4	-0.23774248
49	0xbe854bdf	-0.26034448
50	0xb8a445af	-7.833109e-05
51	0xbd8199c1	-0.06328154
52	0xbe66dfa4	-0.2254625
53	0x3f590159	0.8476768
54	0xbf84f973	-1.0388626
55	0x3f4a3f6a	0.7900301
56	0xbe098f9d	-0.1343369
57	0xbf27a381	-0.6548386
58	0xbe5521ac	-0.20813626
59	0xbf434fe6	-0.7629379
60	0x3f4be3e9	0.7964464
61	0xbf7decfe	-0.99189746
62	0xbf457988	-0.77138567
63	0xbf441d4f	-0.7660722
64	0xbe390c2c	-0.1807105
65	0x3f4c2254	0.7973988
66	0xbf6464da	-0.8921639
67	0xbe5c7471	-0.21528794
68	0x3ef9f687	0.48820898
69	0x3f550d18	0.83223104
70	0xbf5f9afa	-0.8734585
71	0xbf16ae73	-0.5885994
72	0xbe854d43	-0.2603551
73	0xbe4b6448	-0.19862473
74	0x3eb89e21	0.36058143
75	0xbf4f3bd5	-0.8095067
76	0xbdcf9271	-0.10135353
77	0x3e1c17da	0.15243474
78	0xbf7ca2a4	-0.9868567
79	0xbe16180d	-0.14657612
80	0x3f336783	0.7007982
81	0x3f585f28	0.84520197
82	0xbe280f1f	-0.16412018
83	0x3f0307fe	0.5118407
84	0xbf429476	-0.76007783
85	0xbf5f1644	-0.8714335
86	0x3f211ff2	0.6293937
87	0xbf3c5dae	-0.73580444
88	0xbe287654	-0.16451389
89	0xbf2b4e7a	-0.6691662
90	0x3ea75cbb	0.32687935
91	0x3f459ede	0.7719554
92	0xbdfe6b0c	-0.12422761
93	0xbd215fe8	-0.039398104
94	0x3f4277eb	0.7596423
95	0xbf43db12	-0.7650615
96	0xbe845a72	-0.25850254
97	0xbe885b92	-0.26632363
98	0xbed83aa4	-0.4223224
99	0xbe79e2ea	-0.24402967
100	0xbedc9e58	-0.43089557
101	0xbeaa427c	-0.3325385
102	0xbe7032ad	-0.23456831
103	0xbe634689	-0.22194876
104	0xbe8f60e7	-0.28003618
105	0xbedbad6c	-0.42905748
106	0xbe8ed8ec	-0.27899873
107	0xbea4cb07	-0.32186148
108	0xbe8cbc64	-0.2748748
109	0xbe55d17f	-0.20880698
110	0xbea09d35	-0.3136994
111	0xbed09393	-0.4073759
112	0xbe66cb8a	-0.22538581
113	0xbe982b85	-0.29720703
114	0xbe261894	-0.16220313
115	0xbe4d4f6c	-0.20049828
116	0xbe28a670	-0.16469741
117	0xbea55a26	-0.3229534
118	0xbeb38d21	-0.3506861
119	0xbe578a7b	-0.2104892
120	0xbeb2bfa1	-0.34911826
121	0xbea0f117	-0.31433937
122	0xbe69474b	-0.22781102
123	0xbe967891	-0.2938886
124	0xbeab83f3	-0.33499107
125	0xbe9b0338	-0.30275893
126	0xbebc8578	-0.3682058
127	0xbebad404	-0.3648988
128	0xbeb786b8	-0.3584497
129	0xbe9c7d2d	-0.30564252
130	0xbe86d4b9	-0.2633417
131	0xbd9e74ad	-0.07737098
132	0xbed0a94d	-0.40754166
133	0xbe718f19	-0.23589744
134	0xbeb5b384	-0.35488522
135	0xbf030587	-0.5118031
136	0xbe4f0f58	-0.20220697
137	0xbe3bbc28	-0.18333495
138	0xbef10313	-0.47072658
139	0xbea0705d	-0.31335726
140	0xbdaed8c6	-0.0853744
141	0xbf1d4b27	-0.614428
142	0xbec57df0	-0.38572645
143	0xbeeb8f80	-0.4600792
144	0xbeb31393	-0.3497587
145	0xbe93a4ff	-0.2883682
146	0xbee678b0	-0.45013952
147	0xbeec71d4	-0.46180594
148	0xbecf2f8c	-0.40465963
149	0xbedd7aa0	-0.43257618
150	0xbed8a47f	-0.42313
151	0xbe908d42	-0.2823277
152	0xbe141409	-0.14460768
153	0xbec3f060	-0.3826933
154	0xbe873f08	-0.26415277
155	0xbe92782b	-0.28607306
156	0xbd0e34b8	-0.034718245
157	0xbe924f43	-0.28576097
158	0xbe48a5cf	-0.19594501
159	0xbec95a5d	-0.39326754
