parametric_qst_single/tfim_4x4_multi_suscept/models_viet/hyprbm_tfim_4x4_20000_suscept_seed46_20260123_014434.pt (torch, 51418 bytes, 7 tensors)

W f4 [16, 64]
00000000: 2b13 fdbd ea01 dd3e e152 303d f8bc 293e
00000010: 18a1 99be a281 63bd 3556 ebbc 9025 27bd
00000020: 2981 82bc 9e02 8abc dbd2 f03d b2f9 823d
00000030: efb7 573c 2188 863c 7300 32bc f70f b23b
00000040: f67e a3bc ac51 fc3b d1a1 673e 320d 873f
00000050: d4c8 e9bb 6f40 04bd adf6 253d 99c2 37be
00000060: dc9c 0fbc e785 22be 3582 b8bc c6a8 8ebb
00000070: 69a9 36bc 64fc b3bc 9817 ad3f cf80 4abd
00000080: 1c7f 093f 8c5c f53c f5d5 8bbe 7e50 8fbc
00000090: 28b3 e2bc bf96 513f a6ca 95be 19e9 2bbd
000000a0: 638c 843c 1186 fe3e 157c 573c 7b28 2bbb
000000b0: cf4a e1bc d596 653d 0d02 7fbc 33d7 403c
000000c0: 26e2 98bc 9489 0fbd 4f90 ce3c f9d9 a9bf
000000d0: 5280 263b 4735 afbc 818f f0bc edf4 fd3e
000000e0: 0ab2 633d 4b7a 3a3c 9dcf 8d3c 1f09 e6bd
000000f0: 93e9 13bd 866b 68bd ba20 95be db36 d03e
00000100: 9657 18bc 0441 d1bd 921f 4a3d 98a0 b8bb
00000110: f7aa fb3e 7190 3c3d bcc8 cf3d 4a98 093d
00000120: 4e5c df3d fcac 4d3d 3d67 123e 9c50 1c3d
00000130: b303 793d f82b 473d d6e1 523d 92d8 893d
00000140: f5be 283d 9b6b 083d 03a0 1c3f 4405 bdbe
00000150: 2136 5a3d 1cb9 373c 8473 853d 0baa 51be
00000160: 2071 4a3d e487 f93e b026 6d3d 1741 103d
00000170: e6a8 22bc 5222 823c 6220 a13f 2c69 c33c
00000180: b4c5 523e 3aad 463d 8c59 8bbe 9cf0 723d
00000190: 627f 193d 3db4 ae3f a61c 2ebf 06b6 893d
000001a0: b4c3 8b3d 6514 153f 24e3 8d3d 2ea8 633d
000001b0: 955e 833d 979d 38bc d236 4f3e 9e2e 8d3d
000001c0: c154 6f3d d5c2 f43c 89c3 f2bc c780 853e
000001d0: bd28 593d 36a0 9f3c 2f69 1b3d 5477 9c3e
000001e0: f459 98bd 350e 6d3d 0b90 233d 942b 14bf
000001f0: d23c ab3d 2889 173d 2a09 e9bc 06f0 0f3f
00000200: 5eb6 ce3d bf22 92bd 02a7 a0bd aa8d 5c3e
00000210: 6a0b a83e 3c40 b5bc f340 a3bb 6e31 5abd
00000220: d444 5f3b d6ed 95bc b376 9fbb 6099 cc3c
00000230: 3dc2 c13b 4c0a 9abc 40e9 0cba 9dc6 1cbd
00000240: 830c 8339 ea78 cbbc 83bc a43f c6e0 23be
00000250: b2ce 88bc b238 e6bc 440e ea3c b5d9 9b3e
00000260: d009 5ebb 2c8e ea3e be1d 1d39 d686 c4bc
00000270: 4322 6bbd acf4 06bd ee95 263f 4bdf 1dbd
00000280: cf8f 5ebf c74c 323b 521f 07bf 7882 80ba
00000290: 788e 303b 6c4a 903f 9633 4d3f 498c c0bb
000002a0: 3ef1 ac3c 35d5 903e 906b fc3b 1747 233c
000002b0: d264 52ba a29a 93bd 869b 40bd 6736 1f3c
000002c0: 7e70 a7ba a711 80bc 7d14 08bd d7e0 5e3d
000002d0: 6392 72bc 236e 9abd 0000 683c d359 20be
000002e0: 6e9f 0cbe 0f96 4cbc 2376 6c3b d396 e43c
000002f0: 845f 823a 8f42 0dbd c525 283f 7ddd 013f
00000300: 482a 423d adfc 913f 6d9b 00bd dee8 033f
00000310: 27dd 3b3f 6618 8fbd 456e 71bd adfe 09be
00000320: 6eda bc3b 51cc 903c ff0c 5ebc 1947 a23d
00000330: 40be 833c 5f0f 0fbd 3efb 22bc faaa 54bd
00000340: e7dd 1d3d 1af4 d53c 229e 623f 74ab ad3f
00000350: 3d0b b7bc 6711 22bd 2329 693d 2dba 52be
00000360: 320b 833c 020e 72bc 1d7b 4dbc a9a7 8cbb
00000370: bf5a 953b ceec aabc d9a8 5c3f 72ff b4bd
00000380: 725b 1bbf 7130 1d3d 0a5a cabe ad1d 7c3c
00000390: 388d 633c b1e4 da3d 513f 723f 152c 5dbd
000003a0: 2503 083d 840d 9c3e 15f2 983c ddee 203c
000003b0: ab45 9a3b ae42 573d 04da 63be 5a59 c63c
000003c0: bfc8 133a 0295 f2bc 0484 a13d 033e aabe
000003d0: 1769 b23b 6413 32bd ed55 d9bb 37e9 27be
000003e0: f668 ef3d 9c97 293c 8c35 1c3d cbb6 a3be
000003f0: 5a27 68bc 10db 6cbd c333 283d 05d1 7f3e
-0.123571716 0.43165523 0.04304779 0.16575992 -0.30005717 -0.05554355 -0.02872763 -0.040807307
-0.015930729 -0.016846951 0.117589675 0.06395282 0.013166412 0.016422333 -0.010864365 0.005434032
-0.019958 0.0077001657 0.22620322 1.0550902 -0.0071345363 -0.03228801 0.04051845 -0.17945327
-0.0087654255 -0.15871392 -0.022523025 -0.0043536155 -0.011148789 -0.021970935 1.3522825 -0.049439248
0.5370958 0.029951356 -0.27311674 -0.017494436 -0.027673319 0.81870645 -0.2925617 -0.041970346
0.016180223 0.4971166 0.013152142 -0.0026116658 -0.027501492 0.056052048 -0.015564454 0.0117700575
-0.018662523 -0.035043314 0.025215296 -1.3269645 0.0025406075 -0.02138771 -0.029365303 0.49600926
0.055589713 0.011381696 0.017310912 -0.112322085 -0.036111426 -0.056743167 -0.2912653 0.4066685
-0.009298226 -0.10217479 0.049346514 -0.0056343786 0.49153873 0.046036188 0.10145709 0.0335925
0.109062776 0.0502138 0.14297195 0.038162813 0.060794543 0.048625916 0.051484905 0.06730761
0.041197736 0.033305746 0.6118166 -0.3691808 0.053274278 0.011213567 0.065161735 -0.20475022
0.04942429 0.4873649 0.057898223 0.035218325 -0.009927964 0.015885506 1.2588007 0.02385386
0.2058323 0.048505045 -0.27216756 0.059311494 0.037474997 1.3648754 -0.68012464 0.06724171
0.06824437 0.58234245 0.06928089 0.05558031 0.064145245 -0.011268041 0.20235756 0.06893657
0.058430437 0.02987806 -0.029634254 0.26074812 0.053017367 0.019485574 0.037942108 0.3055979
-0.07439032 0.057874877 0.039932292 -0.57878995 0.0836121 0.036996037 -0.028446753 0.5622562
0.100933775 -0.071355335 -0.07844354 0.21538416 0.32821208 -0.022125356 -0.004982108 -0.053269796
0.0034068124 -0.018301886 -0.004866445 0.024975479 0.0059130476 -0.018803738 -0.0005375333 -0.03827535
0.0002499559 -0.02483793 1.2870029 -0.16003713 -0.016700123 -0.028103206 0.028571256 0.30439535
-0.003388036 0.45811594 0.00014983767 -0.023990076 -0.05740572 -0.03294818 0.65072525 -0.038543027
-0.86938184 0.0027206407 -0.52782166 -0.0009804508 0.0026940387 1.1272712 0.8015684 -0.0058760983
0.021111127 0.28287664 0.007703252 0.00996568 -0.00080258877 -0.07207228 -0.04702332 0.00971756
-0.0012774614 -0.015633417 -0.033222664 0.054413643 -0.014805409 -0.07540538 0.014160156 -0.15659265
-0.13732693 -0.012486949 0.0036081157 0.02790395 0.0009946679 -0.034487303 0.6568263 0.5072859
0.047403604 1.1405236 -0.031398226 0.515272 0.73384327 -0.069870755 -0.05894305 -0.13476057
0.0057633435 0.01767555 -0.013552903 0.07923717 0.01608193 -0.03492677 -0.009947596 -0.05192087
0.0385417 0.026117373 0.8852254 1.3567948 -0.022344226 -0.039567377 0.056923997 -0.20578833
0.01599655 -0.014773848 -0.0125415595 -0.0042924476 0.004557937 -0.02086487 0.8619514 -0.08837785
-0.6068641 0.038376275 -0.3952182 0.015387935 0.01388865 0.10688151 0.94627863 -0.053997118
0.033206124 0.30479062 0.018670121 0.009822574 0.004708012 0.052553825 -0.22251135 0.024212528
0.00056375185 -0.029612068 0.07886508 -0.33250436 0.0054446566 -0.043475524 -0.0066325576 -0.16397558
0.116899416 0.010351088 0.038137004 -0.31975397 -0.014169538 -0.0578261 0.04106499 0.24982078

b f4 [16]
00000000: 308e d9ba bd7e 58bb a2e8 d3ba 1b10 283c
00000010: d251 f93a c7a9 653c e5c4 e1b9 7964 f0bb
00000020: 90b8 273b 697e 82bb 31a0 c03b 991c 65ba
00000030: 1a9d 753b e711 c3bc 8e67 633b 308d 013c
-0.0016598161 -0.0033034526 -0.0016167352 0.010257746 0.0019021577 0.014017529 -0.00043062042 -0.007336196
0.0025592186 -0.0039823544 0.0058784713 -0.0008739918 0.0037477673 -0.023812247 0.0034699175 0.007907197

c f4 [64]
00000000: 5d9f f43e 7629 2f3b a704 9c3e de34 963b
00000010: 6cb0 4bbb c121 f03e ed80 b239 fa8c 96bb
00000020: 1cb0 a83e f434 053f 7654 863a f72e 0bbf
00000030: 7930 03bf fbad 273f 45bb a63e e714 06b7
00000040: ddb1 ed3e 2f3e 12bf b3b0 84bc a735 683a
00000050: faf5 1b3f 2897 01bf 354c edbe a678 3cba
00000060: 4bf5 fcbe 2719 49bc 3fbd ddbe e1a6 f73e
00000070: 2097 db3e fd74 d13e 4f87 723c 9355 853e
00000080: d0e5 39bc adeb eabe 64ac 123c 371f cc3e
00000090: bc79 083f 7078 3dbc d9ea ee39 9cab c839
000000a0: 9936 b4be 6e18 dbbb c081 d3be 0259 a03e
000000b0: e8e3 d93e 1cb1 fcbe 697f 1d3c 4887 d33e
000000c0: fc8f a8be ae08 153f a0de 123f 11ae d93a
000000d0: c029 113f 586c ed3e 7889 f8be 751c 0a3e
000000e0: 9e59 1dbe 2857 01bf 85a8 fabe 6455 66b8
000000f0: c04c c3be 74a8 fa3e 2a16 053b 1ce5 1139
0.47777835 0.0026727594 0.304723 0.004583939 -0.0031080497 0.46900752 0.00034046863 -0.0045944424
0.3294686 0.52033925 0.001024856 -0.5436854 -0.5124584 0.6549985 0.3256475 -7.991889e-06
0.4642476 -0.57126135 -0.016197538 0.00088580925 0.60922205 -0.5062127 -0.46347204 -0.0007189609
-0.49405894 -0.012274063 -0.43308446 0.48369506 0.42888737 0.40909567 0.014802768 0.2604185
-0.0113462955 -0.4588293 0.008952234 0.39867565 0.5331075 -0.011564359 0.00045569873 0.00038274832
-0.35197905 -0.006686262 -0.4130993 0.31317908 0.4255669 -0.49353874 0.0096128965 0.4131415
-0.3292235 0.5821637 0.5737095 0.0016607662 0.5670433 0.46371722 -0.4854238 0.13487418
-0.15366217 -0.50523615 -0.48956695 -5.49158e-05 -0.38144493 0.48956645 0.00203074 0.00013913627

conditioner.fc1.weight f4 [64, 1]
00000000: 0d1a 4f3e 89ed 85bd 7691 59bc d657 a3bd
00000010: 1659 21bc 1231 083b 4535 3abf 28f7 a5bc
00000020: db0a 8f3d e03e 5cbe 6fad aa3e 5520 3abf
00000030: 3eca 893f dad8 783d 24be 8cbc 40b7 f1bb
00000040: 3719 12be 60e8 22bd 700d 4d3c 6e05 e63d
00000050: 7e29 4abf 8840 8b3e ac2f 16bc c28f a5bd
00000060: 2ac4 b2be edd0 1fbf d1dd 153f 8d55 bd3e
00000070: 2c3e 6a3f 2867 883f d68d 04bd ce5e 163d
00000080: 9608 cd3d 4efd bebd eabb 8fbb 67d7 c23e
00000090: a07e 48bf ed20 4fbf efca 613c 719e 213e
000000a0: dcd3 21bd c8e3 5fbe 1861 383d 65b7 34be
000000b0: 0e3f 46bf da2e 663f 99bc f93c cc11 6a3b
000000c0: 7ff6 41bf 294b 823d 4202 c8ba eebf 663c
000000d0: cf3a 34bf b123 643d 8f0d eabb a68b c93b
000000e0: 651a 10bc 4440 19b7 48a8 94be 0957 a8bd
000000f0: 9d31 28bc 5068 2dbc 3aed 0bbe 0e14 35bc
0.20224781 -0.06539447 -0.0132793095 -0.07975738 -0.0098479 0.0020781201 -0.7273753 -0.020259455
0.069844924 -0.2150836 0.33335444 -0.72705585 1.0764844 0.06075368 -0.01718051 -0.0073765814
-0.14267431 -0.03977239 0.012515411 0.112315044 -0.7896956 0.2719767 -0.009166639 -0.0808406
-0.34915286 -0.6242817 0.5854159 0.36979333 0.91501117 1.0656481 -0.032361828 0.036711507
0.10011403 -0.09325658 -0.004386415 0.38054964 -0.78318214 -0.80909616 0.013781293 0.15783097
-0.039508685 -0.21864235 0.04501447 -0.17648084 -0.77439964 0.8991524 0.030485438 0.0035716174
-0.7576675 0.06361992 -0.0015259462 0.014083846 -0.70402235 0.0556981 -0.0071427296 0.0061506806
-0.008795355 -9.134474e-06 -0.29034638 -0.08219726 -0.010265735 -0.010583952 -0.13664714 -0.011052145

conditioner.fc1.bias f4 [64]
00000000: ef36 1bbf 55fc 253e 8a65 ab3b 37cc 4f3e
00000010: 0c76 803d 878c 753d 97bf 533f 4297 493d
00000020: 022c 58be ad94 1f3f 5384 67bf f62d 2fbf
00000030: 0ba5 34bf 6ee4 3abe 8428 af3b f219 b13b
00000040: c520 de3e 8d68 cf3d 7e2f eabc f1e9 b3be
00000050: 80c9 6a3f 43ce 44bf 72db 243b be0f 573e
00000060: e3ed ed3e 0d16 713f 7e0a cebe 1cc7 85bf
00000070: 3631 c1be 68e4 d4be 1159 dc3d 8dc5 0abe
00000080: b285 aabe 3339 8a3e dda0 52bb c551 52bf
00000090: 079a d33e 5dd9 853e 8fb8 8fbc 0549 e8be
000000a0: 2a1d 583d 4937 263f 9c58 dfbd 65b1 d83e
000000b0: 170f 7a3f 1ce5 543f 6c0e 13bd 4dfb c2bc
000000c0: c03f 733f 5850 1ebe 352f d03c 2ea5 14bd
000000d0: 36c6 813f a1c6 16be 0718 963c 8765 453c
000000e0: a4c8 6c3c c919 0f3c ea85 4c3f b573 703e
000000f0: 2814 da3c 4e0f 10bb 47c9 c93e 989b c23c
-0.60630697 0.16209538 0.0052306103 0.20292746 0.06272516 0.05994847 0.8271422 0.049216516
-0.21110538 0.62336236 -0.90436286 -0.68429506 -0.70564336 -0.18251202 0.005345406 0.0054047043
0.43384376 0.10127363 -0.0285871 -0.3513942 0.91713715 -0.7687723 0.0025155214 0.21002099
0.46470556 0.9417427 -0.4024238 -1.0451388 -0.37732857 -0.4158051 0.107591756 -0.13551922
-0.33305126 0.26996765 -0.003213934 -0.8215602 0.4132845 0.26142398 -0.01754406 -0.4536821
0.052762188 0.6492811 -0.10905573 0.4232284 0.97679275 0.83162093 -0.035902426 -0.02380147
0.9501915 -0.15460336 0.025413135 -0.03629034 1.0138614 -0.14724208 0.018322004 0.012048132
0.014452133 0.008734175 0.79891837 0.23481639 0.02662094 -0.0021981779 0.39411375 0.023755834

conditioner.fc2.weight f4 [160, 64]
00000000: 73e8 d03d b414 eb3d 58cd 57bf 8b2c 1b3e
00000010: 2423 ef3c 0f14 0fbd c62d 633d 8ada 603d
00000020: b234 ca3c 7955 44bd 055f edbd 8d7f 663e
00000030: c864 0cbd e364 c6bd 0a23 5ebe c770 eebd
00000040: 3131 5ebd 3168 853d dc66 213e 5582 90bd
00000050: 5119 3cbd bc3e 22bd f681 3a3d 71b5 92bd
00000060: 4c87 de3d bc90 773b b05a 82bd ddfe 3b3e
00000070: f183 37bc d770 acbd 8cea b0bd 483a a3bd
00000080: 027d 12be 71da c1bd e6da c53d 7076 98bd
00000090: 0d29 f73d 036a 0e3e ea2d 99bc 1a93 2f3e
000000a0: 339b bf3d 1382 63bd 6433 583c f3f6 4a3c
000000b0: d1b1 9cbd 412c 91be 1b08 1cbe 6401 3b3d
000000c0: 788c ac3c 9695 943d 2448 9f3e 9b3c cbbd
000000d0: eefe 55bc a766 93bc bfb3 dd3d 99b3 203c
000000e0: 438a d8bd e422 533e f3f9 8cbe 6081 9abc
000000f0: c0a7 87bd 8990 4dbe 6caa 883d a6da 2ebe
00000100: eea4 b03c bd32 b33d 37bf ecbd 0f2b b63d
00000110: 75d6 9b3d 6886 d93c 2465 1ebc 1d14 093d
00000120: a991 843d 3cb7 59bc 00e0 273e 547d 673d
00000130: fac8 57be e455 9ebc edcd b83d 1451 03bd
00000140: a8d7 21bd 37f4 8d3d 6d33 8c3e 53a7 9fbd
00000150: bdfe 223d 09e0 b4bc f5c3 193d 6677 033d
00000160: 9052 463e 6df4 593d 2242 16be 7e66 943c
00000170: 39db 68be e30b 4fbe e926 1f3d 7cbf 33be
00000180: 5177 57bc 4fb7 833c 2397 f83d 9d42 9cbd
00000190: 7ea0 b13d d185 ab3d 6e27 983d 8d2b 353e
000001a0: 671c 4cbd 0c9b 1abd ef9c 0cbe 18be 47bd
000001b0: 74da 9ebd b69d d0bd 6014 16bd 96fc 64bd
000001c0: ffcc 10be 8aba 213e da7b e83c f16d 96bd
000001d0: 485c 2cbe c99f 14bd 3f53 1cbe ec9d 263d
000001e0: 32e1 a4bd ac53 75be 4f32 80bd 16be a0bd
000001f0: 7809 9e3c 04cd 143f 0867 683d c18f eabd
00000200: d4c9 133d f4c1 a1bc 9d06 95bd 0fb5 8fbd
00000210: 3812 943a f4d7 21be 2c77 42bd 9b34 65bd
00000220: 5d79 0d3d 0a8d 063d 6946 e63b b0f7 e13d
00000230: 2c84 30be ade5 483e df1a 923d 6034 68bb
00000240: 7ae7 28be fe7e 37be 88d0 433e 6b39 733c
00000250: ba98 a0bd e217 d3bd 1519 4abd e12c e33d
00000260: ccad fd3d 1cfa 3f3d a0c1 00bd 66a5 4abd
00000270: 93f7 8fbd bfe0 33be 4bb1 efbb 7e1f 3dbe
00000280: 5c81 303d 1080 55be 5632 90bd 08a6 9e3c
00000290: cb76 253e 4c00 fd3d 4f0e 1abe a6e8 81bc
000002a0: eea7 b53d 057f 8cbd df60 14be 6a21 c43c
000002b0: 37e2 893c 9fc2 5ebe 4264 0f3d 94d8 e13c
000002c0: b64c 97bd 1225 f83a 7e10 24bf fd1d 19bc
000002d0: 263a ddbd b3c5 b73d 30e6 023e 6d82 643e
000002e0: c2ff 39be 9eb3 a13e f717 77bd 0b93 13be
000002f0: dc58 353d 4efd 28bf ee07 c03d e5e5 75be
00000300: 098f 313d 8cf9 5c3e 234c 0bbf ec04 7ebd
00000310: d9ff 023e ebba b23d 6c00 e33d 0485 42be
00000320: 0ec8 563e 7a80 8abd a85a c73c 2302 a43d
00000330: 0950 bcbd 696c 673e 3951 65be 4585 2fbe
00000340: dace 18be 9172 57bd 997a f6bc 7efc a13d
00000350: 6d50 99bd 0de1 0a3d cb98 ad3c d81d 8abc
00000360: bdcf 3c3d 5540 0cbb c751 dcbd 5e15 573c
00000370: f208 d4bd da21 62bd 7452 4f3d c2e0 6fbd
00000380: 3614 a1bd 7cb0 a7be 4b72 1f3e b178 f6bd
00000390: a57b 603d 7342 573e 7c70 72bd 1fd5 553e
000003a0: f011 e33d 2d07 95bd e4a6 713d 6f43 403e
000003b0: e58a 8cbd 3437 82bd 857d cd3d fecf 1d3c
000003c0: d8e5 3e3d f4be 75bb 7d82 29bd ef84 51be
000003d0: 17e9 813d 6239 8c3c f16b 953c 08be 553e
000003e0: 34b2 583d 0f46 d23d b0b9 35be 5a44 4bbd
000003f0: 36cd 8dbb 36da 0fbe 7f9f 6b3d 98c9 f1bd
0.10200586 0.11478558 -0.84297705 0.1515371 0.029191561 -0.03493124 0.055463575 0.054895915
0.02468333 -0.047933076 -0.11590389 0.22509594 -0.0342758 -0.09687211 -0.21693054 -0.11642604
-0.05424613 0.065140136 0.15761894 -0.07056109 -0.04592258 -0.03961061 0.045534097 -0.071635135
0.108656496 0.0037775477 -0.063649535 0.18358941 -0.011200891 -0.0841996 -0.08638486 -0.07970101
-0.14305499 -0.094654925 0.09660892 -0.07444465 0.12068377 0.13907628 -0.018698651 0.17145959
0.09355774 -0.05554397 0.013195846 0.012387979 -0.07651103 -0.28354076 -0.15237467 0.045655623
0.021063074 0.07255094 0.31109726 -0.09923669 -0.013061268 -0.017993284 0.108252995 0.009808444
-0.10573246 0.20618778 -0.27534446 -0.018860519 -0.06623793 -0.20074667 0.066731304 -0.17075595
0.02156302 0.08749912 -0.11559909 0.088949315 0.07609264 0.026553348 -0.0096676685 0.033466447
0.06473095 -0.013288315 0.16394043 0.056516007 -0.2107276 -0.019328065 0.09023652 -0.032059744
-0.039512306 0.06931346 0.27382985 -0.077955864 0.03979372 -0.022079485 0.037540395 0.03209629
0.19367433 0.05321162 -0.14673665 0.018115278 -0.22739877 -0.20219378 0.038855467 -0.17553514
-0.013151006 0.01607862 0.12138202 -0.07629893 0.086731896 0.08375133 0.074293956 0.17692395
-0.049831774 -0.03774552 -0.1373174 -0.048765272 -0.077565104 -0.10186331 -0.036640525 -0.055904947
-0.141407 0.15793815 0.02837937 -0.073451884 -0.16832078 -0.036285195 -0.15266131 0.04067795
-0.08050765 -0.239577 -0.062595956 -0.07848756 0.019291624 0.5812533 0.056738883 -0.114532
0.03608115 -0.019745804 -0.07276652 -0.07016956 0.0011296934 -0.15805036 -0.047476932 -0.05595837
0.03453957 0.03284935 0.0070274365 0.11033571 -0.1723792 0.19618864 0.071340315 -0.0035431609
-0.16494551 -0.17919537 0.19122517 0.0148452325 -0.0784163 -0.1030729 -0.049340326 0.11092544
0.12386665 0.046869382 -0.031434655 -0.049474142 -0.07029643 -0.17566203 -0.007314836 -0.18469045
0.043092117 -0.20849633 -0.07040851 0.01936628 0.16158597 0.12353572 -0.15044521 -0.015858006
0.08869921 -0.068601646 -0.14490078 0.023941714 0.0168315 -0.2175393 0.035007723 0.027569093
-0.07387678 0.0018931946 -0.64087665 -0.009345529 -0.108021066 0.08973255 0.12783122 0.22315378
-0.1816397 0.3158235 -0.06032559 -0.14411561 0.044274196 -0.6601151 0.093765125 -0.24013479
0.0433493 0.2157957 -0.5441305 -0.062016413 0.1279291 0.08727058 0.11084065 -0.18996054
0.20974752 -0.06762786 0.02433522 0.0800822 -0.09194953 0.22599949 -0.22394265 -0.17140682
-0.14922658 -0.052599493 -0.030087756 0.07909487 -0.07486043 0.03390603 0.021191021 -0.016859934
0.046096552 -0.002140065 -0.10757785 0.013127653 -0.10353269 -0.055208065 0.050615743 -0.058563955
-0.07865183 -0.32751834 0.15570943 -0.12034739 0.054805417 0.21021442 -0.059189305 0.2088208
0.11087406 -0.07276759 0.05899705 0.18775724 -0.068624295 -0.063581854 0.100337066 0.009632109
0.046605915 -0.003749785 -0.04138421 -0.20460866 0.063432865 0.017117206 0.018239947 0.20873272
0.052904323 0.10267269 -0.17746615 -0.049625732 -0.0043274416 -0.14048085 0.057525154 -0.11806029

conditioner.fc2.bias f4 [160]
00000000: dd8c 93bd 0e2c 9bbd cf23 fcbd 0c63 10be
00000010: 39b5 eabd b313 21bd 4d4e 51be b0a0 51bd
00000020: c2f4 53be 3276 87bd cf5c f6bc 53a4 28be
00000030: b571 5bbd ebc9 7b3a 0cbc 4abe c70e 49be
00000040: 750c 6a3d 1965 07be 6c44 c3bd 2fc0 0bbe
00000050: 615b d2bd 8382 bbbd ad0d 3fbd a940 4bbe
00000060: c609 27be 2e95 7a3d b98a 1c3e 54fd 90bd
00000070: f292 abbd fde3 a13d 3fe7 843d b030 18bc
00000080: b897 37bf 7a07 f3bd 53a6 0fbf bd5a 08be
00000090: ed32 3bbe 1774 37bf 6ee2 84be 8ef1 63be
000000a0: 4310 3cbf 55da 7cbf 4188 67be 81a4 523f
000000b0: ed1d 3d3f 5c57 57bf f832 48bf 2855 31be
000000c0: 17f3 24bf 7a8f 283f 5170 7abd 1dd4 30bd
000000d0: 403d 39bf d76f 543f 5c77 3a3f e645 2abe
000000e0: 1bc3 363f 11a6 e5bd 16f2 463f 6993 87bf
000000f0: 2417 3abf 23b6 6dbf 5786 52be 46cb 10bf
00000100: 0875 ff3b 46db 3c3f 83e1 63be f71b 65bf
00000110: 6ca6 6cbf 6bfd 92bd 9b77 0dbe abf7 90bd
00000120: 3514 023f 6a1a 82bd b4e1 233f b3bd 37bf
00000130: 8ab0 2fbf 06a3 0e3f 0d65 29bd a535 6fbf
00000140: 1012 143f 2185 3dbf 772e 83bf 4280 52bd
00000150: 671c 8cbf 51ae 30bf 590b 413f 00ae 61be
00000160: b2c3 eb3e 3bce 5f3f 6a68 293f f930 6abe
00000170: 4a84 143f 522b 2cbf 7975 38be bd7d 59be
00000180: e8a5 c9be 1aab 9cbe 286e e3be 12f8 85be
00000190: d628 46be d5d2 01bf f6cf 0dbf ad5a 10bf
000001a0: 2bc9 15bf 6a8f 55be 3794 dbbe f22f 9ebe
000001b0: 796a 46be 54f8 c0be 30d3 babe f0e3 d7be
000001c0: 3cfa b4be c35d d3bd c3ae 67be 1d05 96be
000001d0: 5ec4 5dbe d64c 92be 060a 81be 4090 cdbe
000001e0: 1afb 68be cd0f 95be a4a3 b7be b1b5 bebe
000001f0: c317 9fbe ccab f3be 1775 4fbe 7a3f ccbe
00000200: 54a0 363b 123c 8ebe 6b0d 32be 3789 b7be
00000210: 765d 9abe 39ce 99be 045b a2be 8bb2 d3be
00000220: a7d8 c2be 67fb bebe beb4 afbe 65ba edbe
00000230: 99bf dfbe fa47 91be 2e33 a4be 6b84 b5be
00000240: 1125 bebe 914d bebe 5794 85be cf5c 58be
00000250: 7a5a 69be d251 debe afeb babe fa0f 6dbe
00000260: d2c9 1fbf a9d0 4bbe 8f3c 82be 44e2 97be
00000270: 9c52 d5be ce93 edbe 82be 87be a50f b6be
-0.07204602 -0.07576762 -0.123115174 -0.14100283 -0.11460347 -0.039325427 -0.20440026 -0.051178634
-0.20698836 -0.06614341 -0.030073551 -0.16468935 -0.053575236 0.0009604978 -0.19798297 -0.19634543
0.057140786 -0.1322216 -0.09534535 -0.13647531 -0.102713354 -0.091557525 -0.0466439 -0.19848885
-0.16312322 0.061177425 0.15287293 -0.070795685 -0.08377637 0.079048134 0.06489419 -0.009288952
-0.7171588 -0.118666604 -0.56113166 -0.13315864 -0.18281145 -0.71661514 -0.25954002 -0.22260115
-0.73462313 -0.9877065 -0.2261057 0.82282263 0.7387379 -0.84117675 -0.7820277 -0.17317641
-0.64433426 0.6584393 -0.06114227 -0.043171037 -0.72359085 0.82983154 0.7283838 -0.16628227
0.7139146 -0.11213315 0.77713144 -1.0591861 -0.7269156 -0.92856044 -0.20559059 -0.5656017
0.0077959336 0.73772085 -0.22253995 -0.89495796 -0.9244144 -0.07177242 -0.13815157 -0.07078489
0.50812083 -0.06352694 0.6401627 -0.71773833 -0.6862875 0.55717504 -0.041356135 -0.9344123
0.5784006 -0.74031264 -1.0248555 -0.051391847 -1.0946168 -0.69015986 0.7540794 -0.22039032
0.4604774 0.8742406 0.6617495 -0.22870244 0.5801436 -0.672536 -0.18013562 -0.21239372
-0.3938439 -0.3059929 -0.4441998 -0.26165825 -0.19351515 -0.5071233 -0.5539545 -0.5638836
-0.5851008 -0.2085549 -0.42886516 -0.30895954 -0.19376554 -0.3768946 -0.36489248 -0.4216609
-0.35347164 -0.10320618 -0.2262526 -0.29300776 -0.2165694 -0.28574246 -0.2520296 -0.40149117
-0.22752038 -0.29113618 -0.35867035 -0.37247995 -0.31072816 -0.47592008 -0.2025951 -0.3989218
0.002786656 -0.27780205 -0.17387931 -0.35846874 -0.3014943 -0.30040148 -0.31710064 -0.41347155
-0.38055918 -0.3730118 -0.34317583 -0.4643127 -0.43700865 -0.28375226 -0.32070297 -0.3545259
-0.37137654 -0.37168553 -0.26089737 -0.21129154 -0.2278842 -0.434218 -0.36507937 -0.23150626
-0.6241733 -0.19903816 -0.25436828 -0.29664814 -0.41664588 -0.4640183 -0.26512533 -0.3555881
