parametric_qst_single/tfim_4x4_multi_suscept/models_viet/hyprbm_tfim_4x4_20000_suscept_seed50_20260123_014433.pt (torch, 51418 bytes, 7 tensors)

W f4 [16, 64]
000000 66 6f de 3c f2 7f 9f be 42 e2 2a 3d a7 f5 06 3f
       0.027152728 -0.31152302 0.041719683 0.52718586
000010 40 96 56 3e 81 00 6c bd df 02 a6 3c e5 de 6a 3e
       0.20955753 -0.057617668 0.02026504 0.2293659
000020 fb 89 27 3f 9c 2f 42 3c 52 3f 4b 3e 88 86 95 3f
       0.65444916 0.011852171 0.19848374 1.1681681
000030 34 e1 06 bd ea 66 0d be 83 26 86 3e bd cb b5 bc
       -0.032929614 -0.1380879 0.26201257 -0.022191877
000040 71 bd 53 3c 53 61 48 bc f6 92 69 3e 78 ac fe 3c
       0.012923584 -0.012230235 0.22809967 0.031088099
000050 eb 74 fe 3b 1f a3 3c 3f 27 56 df be 8c db 4b 3c
       0.0077654026 0.73686403 -0.43620417 0.012442481
000060 c0 31 c5 3b a4 62 6d 3c 93 aa a8 3c 02 19 c0 bb
       0.0060178936 0.01448885 0.020589149 -0.005862356
000070 b5 d5 80 3c be 99 ad bc 6c c9 8f bd ea b2 68 bd
       0.015726903 -0.021191474 -0.0702084 -0.05681125
000080 4b ef 4d 3c 1b 4c 79 bd 5f 29 2e 3f 92 03 a7 3c
       0.012569259 -0.060863595 0.6803188 0.020387445
000090 47 e0 68 3c cf c9 05 be 40 48 b9 3c 9d 5a 59 3f
       0.014213628 -0.13065265 0.02261746 0.8490389
0000a0 30 f8 74 3c 85 fa 0c 3c 5b 0c 8e 3f dc 08 20 bd
       0.014951751 0.00860465 1.109752 -0.03907095
0000b0 c4 a1 4f bc 89 44 a8 3c 0e 6b 91 bd ca 2e 3b be
       -0.012672845 0.020540493 -0.07100497 -0.18279567
0000c0 08 80 96 be 8f 7f 73 3e d0 6e 1b 3d 07 31 93 bd
       -0.29394555 0.23779128 0.037947476 -0.071870856
0000d0 08 b0 dc bd 9e 88 f4 3d 88 98 10 3c f7 77 89 bd
       -0.10775763 0.1194012 0.008825429 -0.067123346
0000e0 5b 69 96 be 83 e8 e2 3c d1 6a 44 3d 3b 35 99 3c
       -0.29377255 0.02769876 0.04795343 0.01870214
0000f0 c0 9e 8e bc 88 e7 09 bf 10 64 58 bd 83 5f 0c be
       -0.017409682 -0.53868914 -0.052829802 -0.1370831
000100 d7 1c 6f 3c c3 16 5a bd 81 32 9b bb d2 0d c9 3e
       0.014594278 -0.053244364 -0.004736245 0.39268357
000110 2d df 61 bc 8f 2c 4a 3c dc 8f 08 bb 40 31 38 3f
       -0.013786119 0.012339725 -0.00208377 0.7195015
000120 b5 b3 92 3f 9c 4b ef 3c 7e b4 4d 3e 5a 1b 26 3f
       1.1461092 0.029210858 0.20088384 0.64885485
000130 4f 06 ec bc fa 69 50 3d c7 f2 18 3f ed 7c ca bc
       -0.028811602 0.050882317 0.5974545 -0.024717772
000140 4d da 7c bc 03 f3 26 3d 12 94 34 3e 0f e6 58 bb
       -0.015432906 0.040759098 0.1763461 -0.003309611
000150 32 7f 8b bc 37 78 b9 3d bc 01 82 3f 07 15 ba ba
       -0.017028425 0.09056132 1.0156779 -0.001419694
000160 c9 89 8b bc 1f 5a 46 b8 8f aa cc 3b 55 32 58 3c
       -0.017033475 -4.729081e-05 0.006245918 0.013195594
000170 bc 55 20 bc 64 50 73 3c 46 12 68 bd d5 70 f1 bc
       -0.009786066 0.01485071 -0.056658052 -0.029472748
000180 60 e4 a8 b9 63 a6 19 bc 4d 9c 82 3f 50 55 02 3d
       -0.0003221361 -0.009378049 1.0203949 0.03181964
000190 61 a2 24 bc 24 68 1e bd 44 93 94 3c ed ff b0 bc
       -0.01004848 -0.038673535 0.018136628 -0.02160641
0001a0 be 12 89 3c e0 3d 04 bd ea 96 3e 3f 3a 81 42 3d
       0.01673257 -0.03228557 0.74449027 0.04748652
0001b0 76 58 cb 3b 33 60 00 bb b2 f3 be bd 55 99 fd bd
       0.0062056137 -0.001958859 -0.09323825 -0.123827614
0001c0 62 5f af be f9 f9 c9 3c fe 8c 86 ba 35 4c c9 3d
       -0.3425246 0.024655329 -0.0010265408 0.098289885
0001d0 03 b2 a5 3e ee f6 8d be 0f 29 2b bc c8 60 45 bd
       0.32362375 -0.27727455 -0.010446801 -0.048188
0001e0 64 bb d4 3e 4a ee 65 bc 60 28 00 be b9 e9 4f 3c
       0.41549218 -0.014033863 -0.12515402 0.012690001
0001f0 ba f7 d9 3c bd de 44 be 8b 82 9a bc 46 d4 36 be
       0.026607383 -0.19225593 -0.018861076 -0.17854413
000200 aa ac 08 3d 3c 84 0c bf 44 f8 2b 3d 2a 8f f5 3d
       0.03336779 -0.54889274 0.04198481 0.11990197
000210 af 60 57 3f df f0 1d 3f 98 10 2d 3d 08 54 a7 3e
       0.841319 0.61695665 0.042252153 0.32681298
000220 b4 c6 33 3f 39 39 61 3d ea 16 16 be 82 0a 80 bd
       0.7022507 0.054986212 -0.14657179 -0.06252004
000230 11 21 35 3d 9c 37 d4 3d 95 db 2f 3f 46 81 1f 3d
       0.044220988 0.10362169 0.6869443 0.038941644
000240 b1 2b 22 3d 89 46 9d 3d 62 ae 7f 3d 8a 2c 01 3d
       0.03959245 0.07679469 0.062422164 0.031536616
000250 26 ea 01 3d 21 50 c1 3e c3 45 01 3f 8e 67 41 3d
       0.031717442 0.37756446 0.5049707 0.047217898
000260 85 11 f1 3c fe c8 21 3d 01 34 08 3d 5d fb 70 3d
       0.0294273 0.03949832 0.03325272 0.05883347
000270 81 f5 2c 3d a0 aa 67 3d 8e 57 a7 3d 81 0a 1f 3d
       0.04222632 0.056559205 0.081709966 0.038828377
000280 9a 4a f9 3c a9 37 9e 3d 8f 66 ef 3e e8 40 9a 3d
       0.03043108 0.0772546 0.46757933 0.07531911
000290 2e fe 14 3d 04 29 8f 3d b5 53 2f 3d 0d 98 39 be
       0.036375217 0.06990245 0.04280444 -0.18124409
0002a0 b7 54 45 3d ce 79 6b 3d 58 c8 0e 3f c6 80 b6 3d
       0.048176493 0.05748921 0.5577445 0.0891128
0002b0 07 d9 34 3d eb 67 ad 3c 41 dc 7a 3d 16 8d 80 3e
       0.044152286 0.021167716 0.061245207 0.2510764
0002c0 8d b4 67 3c f0 e8 64 3d fd c1 1f 3d fd fe cd 3e
       0.014142168 0.05588621 0.03900336 0.40233603
0002d0 01 ee 89 3f 15 53 e4 bd 05 24 e9 3c 92 d5 88 3d
       1.0775758 -0.11148659 0.028459558 0.0668136
0002e0 6e 50 b3 3e 74 c0 04 3d 80 ae ca bc 5f ae 12 3d
       0.350223 0.0324101 -0.024741411 0.035810824
0002f0 74 bb 78 3d 73 27 5c 3d cb e3 4d 3d 8c d8 22 3f
       0.060725644 0.05374856 0.05026607 0.63611674
000300 ba 39 60 3d 8b c0 39 bf 38 4a cf 3d a1 22 a2 3d
       0.054742552 -0.7255942 0.10121578 0.07916761
000310 18 e4 b3 3f 41 57 f6 be cd 5a bc 3d 68 5e b6 bc
       1.4053984 -0.48113444 0.091970064 -0.022261813
000320 a6 3c 18 3f a5 6a 2d 3d e2 74 29 3e 2e 9d 63 3e
       0.5946754 0.042338032 0.16548494 0.22227928
000330 8f aa 90 3d 24 9a ac bd 37 4d a5 3e 55 15 82 3d
       0.070637815 -0.084278375 0.32285473 0.06351725
000340 b4 e5 ce 3d 8c 71 3a 3d 81 05 a5 3d ce a9 ce 3d
       0.10102406 0.045518443 0.080576904 0.100909814
000350 b6 f6 c2 3d 87 43 bb 3f 7b 17 0e be 71 cb 97 3d
       0.095197126 1.4629983 -0.13876145 0.0741185
000360 26 78 41 3d a0 32 e2 3d e2 62 cd 3d 2c 8d 4f 3d
       0.047233723 0.11044812 0.10028626 0.05067174
000370 a9 91 8c 3d 99 cc 2b 3d 1b bd 15 3d 18 05 4f 3c
       0.0686372 0.041943166 0.0365573 0.012635492
000380 7d 60 bc 3d 3b b1 08 3d ae 4e 3f bd 60 98 a7 3d
       0.09198091 0.033372145 -0.046705894 0.0818336
000390 38 c1 9f 3d 85 84 32 bd 0d a3 2d 3d 99 c0 7d 3d
       0.078005254 -0.04358341 0.042391825 0.061951254
0003a0 50 62 a0 3d 4b de 03 3e a5 81 3a 3f d9 7d 11 bc
       0.078312516 0.12877767 0.7285407 -0.008880102
0003b0 ca 72 48 3d d4 62 a8 3d cd 36 8d 3d bf 48 54 3e
       0.048937596 0.08221975 0.06895218 0.20730875
0003c0 26 be b9 3d 17 db 10 3e 13 86 b5 3d 65 08 e0 be
       0.09069471 0.14146076 0.08863463 -0.43756405
0003d0 f4 4f 13 3e 6f 94 7d 3e eb d2 bc 3d ff 2c d5 3d
       0.14385968 0.24763654 0.09219917 0.10408973
0003e0 3e ca 9c be fc a0 07 3e 46 98 23 3e 3a 85 91 3d
       -0.3062305 0.13245004 0.15976056 0.07105489
0003f0 49 36 a2 3c 64 c4 fc 3d 36 c7 0e 3d bd f2 00 3f
       0.019801276 0.12342146 0.03485795 0.5037039

b f4 [16]
000000 50 91 a7 b9 3b f0 7d bc 33 9d 4a 3b 68 75 2c bb
       -0.00031960988 -0.01549917 0.0030916452 -0.0026315097
000010 38 5f 69 3c 9e d4 ea 3b b1 32 af bc c5 5c 6a bc
       0.014243893 0.007166459 -0.021386476 -0.014304345
000020 ef 8d c5 3b c9 c0 04 3c b1 14 65 bc 58 85 31 3b
       0.0060288827 0.008102604 -0.013981984 0.0027087536
000030 51 7e d8 bb 11 f1 97 bc 5e f7 93 3b 4c f2 bd ba
       -0.006606855 -0.018547567 0.0045155725 -0.0014491766

c f4 [64]
000000 b4 bd f1 be 05 f2 25 3a db 4a c2 be f3 56 d4 bb
       -0.47215044 0.0006330314 -0.37947735 -0.0064800917
000010 6f be 43 b9 4d 16 d7 bc fa f6 00 bf 0f a8 56 3e
       -0.00018667591 -0.026255751 -0.50376856 0.20962547
000020 1b 2e 07 bb 38 76 0f 3f 5b 0c 8f 3c bb ca a5 bb
       -0.0020626846 0.5603976 0.017461946 -0.0050595677
000030 71 9c b4 be 84 f5 1c bf c6 1a 7c bc 46 00 d6 3e
       -0.35275605 -0.6131213 -0.015387243 0.41797084
000040 d8 41 dc be 25 8d d8 be 25 f0 4d 3d 7b fb 07 3f
       -0.43018985 -0.42295185 0.050277848 0.53118104
000050 38 8a 0d 3f bb 45 30 bc a9 b5 81 bc 89 1e 02 bf
       0.5528903 -0.010758813 -0.015833693 -0.5082784
000060 7b 64 0f 3f 62 c8 ef 3e 93 41 0d 3f ae 59 e3 be
       0.56012696 0.46832567 0.55178183 -0.44404358
000070 99 1a 1b 3f 0b 19 cf 3e 97 cd cc be ec 38 cd be
       0.6058746 0.40448794 -0.40000603 -0.4008249
000080 f7 1d 03 3f 32 23 cf be cd e2 09 bc 21 b8 01 3f
       0.512176 -0.4045654 -0.00841589 0.50671583
000090 e8 3e 05 3f 6e 77 ed 3e 54 82 fb be d7 14 13 be
       0.5204911 0.4638018 -0.4912287 -0.14363419
0000a0 21 16 0b 3f 3f c2 06 3f eb 5c ad 3e 4d 52 fd 3e
       0.5433064 0.52640146 0.33859953 0.49476853
0000b0 e1 43 ff 3e 9a 72 0e 3f 76 40 ae be 25 ee ac be
       0.49856475 0.5564362 -0.34033555 -0.3377544
0000c0 f7 16 5f bb 1f ea f8 bc d0 04 e4 be 65 a8 bb be
       -0.0034040788 -0.030385075 -0.44534922 -0.36651912
0000d0 4f c1 6e bc 90 03 08 3d ab 62 11 3f 38 7b b5 3e
       -0.014572456 0.033206522 0.5679118 0.3544557
0000e0 4d e9 3b bd 79 28 08 3f b3 e3 1d 3c f1 66 dc be
       -0.04587679 0.53186756 0.009636807 -0.43047288
0000f0 ed ba e4 be 72 98 f4 3c 9f 49 cf 3e 62 ab 33 3e
       -0.44673863 0.029857848 0.40485856 0.17545846

conditioner.fc1.weight f4 [64, 1]
000000 fe 9c 81 bc 91 c9 19 bf 5f 55 1c 3c 36 7f 0d bf
       -0.01582193 -0.6007319 0.009541838 -0.55272233
000010 c9 da 15 3c 66 2a f0 be f4 1a e0 3d a9 22 cf bb
       0.009146401 -0.46907347 0.10942641 -0.0063212705
000020 2f 5c 71 bd 43 12 18 3f b9 7b 2e bd 4f de 12 be
       -0.058925804 0.59402865 -0.04259846 -0.14342616
000030 8f 67 80 3c 84 77 1d 3d cb 2c f5 bc e4 f3 f8 3d
       0.01567438 0.038444057 -0.029928586 0.121558934
000040 a6 77 9d bc c3 84 5e 3d 7b 3d 5f be 60 0b ea bd
       -0.019222092 0.05432583 -0.21800797 -0.11427951
000050 b9 b3 a8 bd 59 d1 40 bc 89 6b a6 be 9d 13 e8 be
       -0.082374044 -0.011768662 -0.32503918 -0.45327464
000060 71 30 50 bf 62 ad aa be 19 c1 8e be 6a 3f 51 be
       -0.81323916 -0.33335406 -0.27881697 -0.20434347
000070 bd 63 d2 bd f5 6c a0 be ea 04 fc be 06 b8 31 3c
       -0.1027293 -0.31333128 -0.492225 0.010847097
000080 82 98 ce bd 60 76 ec 3c 68 d8 43 3b 9a 94 0f bd
       -0.10087682 0.02886504 0.0029883627 -0.035053827
000090 6d 82 bf 3b 5b 59 31 3e 26 6b 49 bf 97 a7 1c 3f
       0.0058444054 0.17319243 -0.7867912 0.6119322
0000a0 a9 f8 d6 bb 33 89 53 bf 6f 06 81 bb 4d 94 1e 3e
       -0.0065604043 -0.82631224 -0.0039375345 0.1548626
0000b0 2b f8 1b bb 04 c6 69 bf 96 31 26 be 2a f2 83 bc
       -0.0023799043 -0.9131777 -0.16229853 -0.016106684
0000c0 93 98 5e 3d f6 b5 5b bd f8 81 90 be d6 13 96 bd
       0.054344725 -0.05364033 -0.28224158 -0.07328002
0000d0 f9 bd 90 bb ef e5 1c 3f 47 27 13 be 09 1c 56 3c
       -0.0044171778 0.6128835 -0.14370452 0.013068208
0000e0 76 a8 7a bf c6 f7 66 3c 50 44 7e bf ef 2a b2 bd
       -0.979133 0.01409716 -0.99322987 -0.08699595
0000f0 0b d9 0e 3b b2 e4 1a be 48 eb 55 3e 1a 3e e0 3d
       0.0021796848 -0.15126303 0.20890534 0.10949345

conditioner.fc1.bias f4 [64]
000000 c2 59 64 bc ab a9 d5 3e fd 5a 19 3c b9 93 c8 3e
       -0.013937416 0.4173101 0.009360072 0.39175203
000010 3e 62 82 3c 88 15 23 3e 57 21 86 be 92 ed a0 3c
       0.015915986 0.15926182 -0.2619731 0.019644532
000020 f4 9a d1 3d 48 1c 69 3e 66 02 1d 3e f1 90 d5 3e
       0.10234633 0.22764695 0.15332946 0.41712144
000030 28 6b 57 3b 27 c9 37 be 2b 7a 37 3c 2e fa 9f be
       0.0032870267 -0.17947827 0.011198561 -0.3124556
000040 e0 0b 80 bc 1c be c7 bd b6 6d 1b 3f 9d 9a 90 3e
       -0.015630662 -0.09753057 0.6071428 0.2824296
000050 b3 04 5a 3e c0 b9 6e bb 57 d2 32 3f 9a 56 09 3f
       0.21290855 -0.0036426634 0.69852203 0.5364777
000060 a5 5f 63 3f 8f 7a 65 3f 77 54 3c be 6a 1f 05 3f
       0.88817817 0.89640135 -0.18391596 0.5200106
000070 1b ca 7b 3e 54 c9 5f 3e bb 72 56 3f 13 f6 7f 3c
       0.24588816 0.21854144 0.83768815 0.0156226335
000080 7a 9e a1 3e 1d 34 87 3b f9 e2 30 3c 28 51 0b 3d
       0.3156622 0.0041260854 0.010796302 0.034012944
000090 1a b8 8a bd 04 20 05 bf b5 2e 5e 3f 4a 4e 3c bf
       -0.06773396 -0.52001977 0.8679002 -0.7355696
0000a0 8e 0b a7 39 8c 87 90 bb 26 f6 81 3d 79 97 cb be
       0.0003186133 -0.0044106897 0.06345777 -0.39764002
0000b0 24 a1 e7 bb c6 4f 26 3f 6d 04 f5 3e b7 77 0a bd
       -0.00706877 0.64965475 0.4785494 -0.033805575
0000c0 6d 92 ee bd c5 0d aa 3d 63 04 44 3f 2a 70 19 3e
       -0.11649022 0.083034076 0.76569194 0.14984193
0000d0 f2 27 ae ba e7 9f e7 be f8 fd cb 3e ac fb 86 3c
       -0.0013287051 -0.45239183 0.398422 0.016477428
0000e0 b0 cc de 3e 16 d2 8e 3a 59 0b 25 3f 89 a0 88 3e
       0.4351554 0.0010896351 0.6447044 0.2668498
0000f0 82 17 0a 3d 54 5a ca 3e ba b3 22 bf bd 40 c1 3e
       0.033713825 0.3952204 -0.6355549 0.37744704

conditioner.fc2.weight f4 [160, 64]
000000 62 55 96 bd f5 0e 93 bc 42 18 bc 3d a2 d0 f8 3d
       -0.07340504 -0.017951468 0.09184314 0.121491686
000010 56 ba a7 3d d6 b3 a0 3d 22 6a 23 bd ab 7a 55 be
       0.08189838 0.07846801 -0.039896138 -0.20847575
000020 26 04 a3 bd e0 ea 4d be cc 73 51 3d 21 91 5d bd
       -0.079597756 -0.20109129 0.051135823 -0.054093484
000030 57 a2 99 3e 13 b6 ad 3c 2e 79 ca 3c 0c ec 6c 3e
       0.30006668 0.021204984 0.024715986 0.2313692
000040 4f 0b ea bd dd 7a 3c bd ae d7 d0 bc 85 12 13 be
       -0.11427938 -0.04601561 -0.02549347 -0.14362533
000050 18 fc e8 bd 55 a0 75 be a5 a0 a0 3d ee 90 11 3e
       -0.11376208 -0.23986943 0.078431405 0.14215443
000060 e1 34 09 3d 5d 2f 88 be 4a 8f 47 3e 52 5d 81 bd
       0.033497695 -0.26598635 0.19488254 -0.063166276
000070 84 aa 83 bd a1 bc 2f 3e 58 e7 b8 3d 7f ca cb bd
       -0.06429008 0.171618 0.090285 -0.099507324
000080 ca bc d6 3c 7b 68 60 3d 6d c9 9f 3d 0d 91 2c be
       0.026213069 0.05478714 0.07802091 -0.16852207
000090 6c db e8 bd 9c 45 ac 3c 10 4e 57 bc fc 8b e8 bd
       -0.113699764 0.021029286 -0.01314117 -0.11354825
0000a0 78 cd 89 bd ad 36 e0 3d 44 3a 24 bc 99 10 ab 3d
       -0.06728643 0.109479286 -0.010023657 0.08352775
0000b0 7b f2 ff 3a 0b 80 36 bd 52 a2 8d bd b2 d1 99 3c
       0.0019527221 -0.044555705 -0.06915726 0.018776748
0000c0 f4 03 00 3e a5 d1 dd bd cf 8c 31 bd d4 f0 82 3d
       0.12501508 -0.10831002 -0.043347176 0.063935906
0000d0 d5 17 eb 3b 36 24 9d bd b6 40 9e 3c 92 79 07 be
       0.007174472 -0.07672922 0.019317966 -0.13229969
0000e0 3b 6c 57 3d 86 72 7d bd 24 02 2e 3c c0 5e e8 bc
       0.05259345 -0.061876796 0.010620628 -0.028365493
0000f0 62 21 1a 3e ce 65 33 be c1 0c a3 3d 66 3c ca bd
       0.15051797 -0.17519304 0.07961417 -0.09874801
000100 b5 91 0e 3b 11 d6 ac 3d 05 da a0 3d 67 f1 27 3e
       0.0021754329 0.084392674 0.07854084 0.16400681
000110 5b ad ac 3d c3 99 12 3e ca 51 17 3d d1 6d ee bd
       0.084315024 0.14316468 0.036943235 -0.116420396
000120 77 24 03 bd c3 a6 4a 3c cb e9 84 3d 29 b6 1d be
       -0.032017197 0.012368861 0.06489905 -0.1540152
000130 6f ac 70 3e d1 e2 14 3d 02 70 b7 3c 02 86 93 3e
       0.23503278 0.03634912 0.022392277 0.28813177
000140 ae ab 9b bd 2f 2a 2d 3e 48 9e 3b bd 02 cb 8e be
       -0.07601105 0.16910623 -0.045805246 -0.27889258
000150 58 d2 97 bc d3 e7 7a be a8 61 39 3d bc 1c 15 3e
       -0.018532917 -0.24502496 0.045259148 0.14561743
000160 ef 99 1d 3c bd f4 5d be 09 93 6d bd 1a b9 b1 bd
       0.00961922 -0.21675391 -0.05800155 -0.086778834
000170 c7 03 e4 3c 40 da 4d 3d 21 7b ef 3d 52 59 bc 3d
       0.027833832 0.050256968 0.11693407 0.09196724
000180 4d db 79 bc 8f 3b 8e 3d 05 ff 75 bc 19 03 14 bd
       -0.015250039 0.06944954 -0.015014415 -0.036135767
000190 a5 f8 fc bb 2b 9b 0f bd c3 e8 14 3e 1a a2 b5 3c
       -0.0077200704 -0.03506009 0.14541917 0.022172023
0001a0 fb 21 db bb f3 1c 2b 3b 40 1a 9f bd 5d f2 f2 3d
       -0.0066874004 0.0026109784 -0.07768679 0.118626334
0001b0 e3 58 fe 3c 5b 37 7d ba 67 cf c2 3c 92 4b 57 bc
       0.031048244 -0.00096594327 0.023780538 -0.013140576
0001c0 24 28 04 3e 03 35 72 bd c8 11 2f be 77 e8 cb bc
       0.12905937 -0.059132587 -0.17096627 -0.024891121
0001d0 68 3f 99 3c a4 d3 35 bd b4 90 96 bd f3 17 b9 bd
       0.018706992 -0.04439129 -0.07351819 -0.09037771
0001e0 13 0d b4 3d bf 89 1f bd fb a7 2b 3e 1c 52 96 3d
       0.08791556 -0.038949724 0.16763298 0.0733988
0001f0 59 63 f8 3d c3 fb 2c be a4 d9 f7 bd d1 21 17 be
       0.12128324 -0.16892914 -0.121020585 -0.14758994
000200 40 60 21 be cd cf 59 3d 60 bb 52 bc 41 c6 a9 bd
       -0.15759373 0.05317669 -0.0128620565 -0.08289767
000210 42 c7 20 bd 57 ba 28 3d a4 1c cd 3d 37 20 99 3e
       -0.039252527 0.041193333 0.100152284 0.2990739
000220 bc 3e a0 bd 07 f3 bd bd 14 58 1b 3e 72 ad dd 3c
       -0.07824466 -0.092748694 0.15170318 0.027060244
000230 5d 72 77 3e 31 af e2 bc 80 66 0d be 1b 5b 67 3e
       0.2416472 -0.027671428 -0.13808632 0.22593348
000240 d9 a8 20 be 78 f1 3f bd 73 2e 7b 3c ab d8 46 be
       -0.1568941 -0.046861142 0.015330899 -0.1941859
000250 15 5b 7d bb 06 31 23 be 78 5d be 3d 5f b3 ef 3d
       -0.0038659025 -0.1593667 0.092951715 0.11704134
000260 bc a1 e1 3d 3f 7c 64 be 50 8b 4e 3d d8 47 14 3b
       0.110171765 -0.22313021 0.050425828 0.002262583
000270 f8 82 a6 bd 93 45 24 3e fb fd 38 bd b1 97 73 bc
       -0.08130449 0.16042165 -0.04516409 -0.014867709
000280 c0 95 39 3d 21 9b 55 bd b5 48 d2 3a 88 48 33 3d
       0.04530883 -0.052149896 0.0016043397 0.043770343
000290 83 8e ce bd ee 7e 49 bd 8e 2b 1c 3d d0 78 18 3c
       -0.10085776 -0.049193315 0.038127474 0.009306148
0002a0 5c e5 ee bc 9b 9f d7 3d 97 38 46 bd cd 47 a5 bd
       -0.029162101 0.10528489 -0.048393812 -0.080703355
0002b0 0a 72 c8 bd 31 46 84 bd f8 1f 9d 3d 2d 86 fb 3d
       -0.09787376 -0.064587004 0.07672113 0.122814514
0002c0 28 57 21 bd 4a e3 ad bd cb 1a 32 be ae 8c b9 bd
       -0.03938976 -0.084906176 -0.17393033 -0.09060036
0002d0 5b 81 60 3d 85 bb 02 be 22 5f 27 be a8 a2 15 3e
       0.054810863 -0.12766846 -0.16344884 0.1461283
0002e0 2b da 19 3e 0c 1a c4 3d 4a 1a d1 3d 54 17 e8 3c
       0.1502463 0.095752805 0.10210092 0.028331436
0002f0 d6 cd cd 3c dc c5 5e 3c cc 70 41 bc cf ce 91 bd
       0.025122564 0.013596978 -0.011806678 -0.07119524
000300 c3 b2 ac 3d 29 e2 0b 3e 4e 9a ac 3d b0 66 a2 3d
       0.084325336 0.13660492 0.08427869 0.07929742
000310 e3 d7 09 bc fd 94 6b 3d a3 9f 5b 3e 82 f0 be 3e
       -0.008413288 0.057515133 0.21447615 0.37292868
000320 1b 01 44 bd 67 fe 04 bc 07 0f 9c bc 16 8d b7 3c
       -0.047852617 -0.008117295 -0.019050134 0.022406142
000330 fa 0c 05 3e 81 c0 9f 3d 76 e6 b8 3d 2f 78 06 3e
       0.12993231 0.07800389 0.09028332 0.13131784
000340 d4 27 d2 bd be 28 55 bc 6a ab a8 3d f4 d5 f2 bd
       -0.10261503 -0.013010202 0.0823582 -0.118572146
000350 8d 28 67 3d 15 09 86 3e 1b b2 ba bd 30 e1 16 bd
       0.056435157 0.26178804 -0.09116002 -0.03683585
000360 0a 7e 2e 3e 5d 8c 83 be 6f a8 11 3c 09 a6 f8 bc
       0.17040268 -0.25693026 0.008890255 -0.03035261
000370 98 72 29 3d 5a e2 e4 3d c8 07 57 3d 56 87 a7 3d
       0.04136905 0.11175986 0.052497655 0.0818011
000380 62 f4 c9 bd 2f 4e 8c 3d 72 e0 f2 bb 43 d1 f6 bc
       -0.098610654 0.0685085 -0.00741201 -0.03012908
000390 bb c0 cd 3d 44 98 cb bd 23 4b 5d 3d 1e c5 b0 3c
       0.10046526 -0.09941152 0.054026734 0.021578368
0003a0 2c d1 fd bc d1 b2 15 3e f5 6a da bd d6 3c 81 bd
       -0.03098353 0.14618994 -0.10664932 -0.06310432
0003b0 56 6b 26 3e c3 b8 93 3d c1 8f 2f 3d b7 80 d1 3c
       0.16251883 0.07212975 0.042861704 0.025574071
0003c0 bb 55 95 3d 66 83 b7 bd 0a ab 12 be 64 4c 2f bd
       0.072917424 -0.08960609 -0.14323059 -0.04279746
0003d0 e4 b8 0b bc d8 23 69 3c 2d ba 97 bd 5c bc e6 bd
       -0.008527968 0.014229737 -0.07408557 -0.112663954
0003e0 5a 28 f5 3c 84 2a 8c 3d ad 7f c2 3d 40 58 b6 3d
       0.029926468 0.06844047 0.094970085 0.08903551
0003f0 66 bb f4 3b 13 74 31 be 4f e5 d4 bd af 41 32 be
       0.0074686287 -0.17329435 -0.103953 -0.17407869

conditioner.fc2.bias f4 [160]
000000 a0 5c ba bc 02 ca 08 be 76 67 55 be ea 18 32 be
       -0.022749245 -0.1335831 -0.20840248 -0.17392316
000010 fc 24 f2 bd d8 8d ab bd d4 02 09 bd a6 4c c7 bc
       -0.118234605 -0.08376664 -0.033449963 -0.024328541
000020 48 82 24 be 07 64 c7 bd a3 88 ed ba 8e 43 a3 bc
       -0.16065323 -0.097358756 -0.0018122386 -0.019929674
000030 a6 72 3d bd 2c 39 2d bd 68 5a 04 bd 32 bc 45 be
       -0.046251915 -0.04229085 -0.03231278 -0.19310072
000040 0a c4 c2 3c fa fc 00 be aa d4 8b be 0f 0b 04 be
       0.02377512 -0.12596503 -0.27310687 -0.12894844
000050 8a 56 99 bd 8a 33 ac bd ce fc 56 be 34 9b 3d bc
       -0.07487209 -0.08408268 -0.20994875 -0.011572648
000060 cb 9e 98 3c 1d 9b c6 bd bc 3c 1d bd 49 35 03 be
       0.018630406 -0.09697554 -0.038388 -0.12813295
000070 2c 4a aa bd 0f 04 ae bd bd 91 e2 bd 85 37 92 bd
       -0.083149284 -0.08496868 -0.110629536 -0.07139496
000080 12 ab 1b 3f af bb f1 bd e8 17 48 3f 5c 74 48 be
       0.6080791 -0.11803376 0.7816148 -0.19575638
000090 21 a2 35 be ea 60 d8 bd eb 05 2f 3f 2c 5d d6 be
       -0.17737629 -0.1056536 0.68368405 -0.4186796
0000a0 1e 09 46 be 22 2a 86 bf ef a6 d6 bc 75 c2 ac bd
       -0.19339415 -1.0481608 -0.026202647 -0.08435527
0000b0 5a 79 21 3f 53 0f 4e 3f f5 e8 d8 bd 62 fe 6f bf
       0.6307579 0.8049213 -0.10591308 -0.9374753
0000c0 a8 c3 28 3f a0 b6 35 3f d4 e4 e3 bd 63 59 5c bf
       0.6592355 0.7098179 -0.1112763 -0.86073893
0000d0 ea 34 3a bf 72 19 18 be 38 ae 30 be 3c ac 33 3f
       -0.7273699 -0.14853457 -0.17253959 0.70184684
0000e0 04 a7 89 bf 4b aa 5c bf 40 63 53 bf 87 0c 5b 3f
       -1.0754094 -0.86197346 -0.8257332 0.8556599
0000f0 91 f6 7d bf 56 5a 71 bf bf 7a 2f 3f c6 09 58 3f
       -0.99204355 -0.94278467 0.6854667 0.84389913
000100 0c ef 52 bf 0d 66 46 3f bc 15 d8 bd 98 32 5c bf
       -0.82396007 0.7749947 -0.105510205 -0.860147
000110 0a 90 87 bf 05 05 39 bf 6d a1 81 3f fb 4d 61 3e
       -1.0590832 -0.72273284 1.0127388 0.22002403
000120 fa b4 54 bf aa c1 65 bf b1 73 b1 be 41 1f 8a bf
       -0.8308865 -0.8974863 -0.34658578 -1.0790788
000130 6b 21 71 bf 7d b3 82 bf 0a 7c db 3e 92 d4 ce 3d
       -0.94191617 -1.0211025 0.42868072 0.10099138
000140 d3 f0 20 be ad 8d ab 3c d9 24 30 3f 75 44 05 bf
       -0.15716867 0.02094158 0.68806225 -0.5205758
000150 89 b6 a1 bd 91 a0 1b bd bc 2b 77 bf ea ed 75 bf
       -0.07896144 -0.037994925 -0.9655111 -0.96066153
000160 f8 f8 a9 bd 35 27 56 bf f4 79 e2 3c 66 d9 72 3f
       -0.0829944 -0.83653575 0.027646042 0.94862974
000170 bc 45 70 3f 25 26 a4 3d 8a d9 6e bf 4b 3a 96 be
       0.93856406 0.08015088 -0.9330069 -0.2934135
000180 e6 71 98 be dc 7e 28 be 2a 79 ec be 41 b6 45 be
       -0.29774398 -0.16454643 -0.4618619 -0.19307806
000190 b6 8e ae be 84 9c b1 be 76 2c 9c be ac 02 bf be
       -0.34093255 -0.34689724 -0.3050267 -0.37306726
0001a0 f3 13 d2 bd 51 46 b0 be dc 19 11 be a1 77 25 be
       -0.10257711 -0.34428647 -0.14170021 -0.16158916
0001b0 d9 c3 cc be 8f d9 a5 be ba 32 09 be 93 31 dd be
       -0.3999317 -0.32392547 -0.13398257 -0.43201885
0001c0 65 89 52 be 10 f6 91 be df c3 c4 be 41 ee 9e be
       -0.20560224 -0.28508043 -0.38430688 -0.31041148
0001d0 4f bc 42 be 48 b1 a4 be c0 b8 ba be 94 cf 94 be
       -0.19017147 -0.32166505 -0.36469078 -0.2906462
0001e0 64 b7 24 be ef da c0 be fc 0b 75 be 5d 61 2c be
       -0.16085583 -0.37667033 -0.23930353 -0.16834016
0001f0 70 06 bb be 5a cf 5e be 51 f8 84 be c9 a0 9a be
       -0.3652835 -0.21758786 -0.259707 -0.30200794
000200 25 9a ac be 00 33 5c be 2b e4 a0 be 7d 8f a7 be
       -0.33711353 -0.2150383 -0.31424078 -0.3272666
000210 79 29 55 be 07 30 f4 be e6 b6 93 be 34 99 f6 be
       -0.20816602 -0.47692892 -0.28850478 -0.4816376
000220 eb 4f bd be e8 7a af be 42 14 82 be 2b 0d 8b be
       -0.36975035 -0.34273458 -0.2540608 -0.27158484
000230 6e 6b 87 be 96 c3 66 be 3e 23 cf be 27 eb 5b be
       -0.2644915 -0.22535548 -0.40456575 -0.21476422
000240 0f 2f 0a be 4c 89 ce be c0 7d 9a be 67 e8 19 bf
       -0.13494514 -0.40339124 -0.30174065 -0.6012024
000250 27 95 a9 be 47 19 a5 be 86 1e d2 be 37 66 a7 be
       -0.33121607 -0.32245848 -0.41038913 -0.3269517
000260 7b d2 6e be 23 28 e3 be f1 68 d8 be de a5 83 be
       -0.2332248 -0.4436656 -0.42267564 -0.25712484
000270 71 37 97 be 06 52 19 be 3f fc a7 be 25 8b c4 be
       -0.29534486 -0.14972696 -0.32809636 -0.3838741
