parametric_qst/tfim_4x4_multi_suscept/models_viet/hyprbm_tfim_4x4_20000_suscept_seed44_20260123_014450.pt (torch, 51418 bytes, 7 tensors)

W f4 [16, 64]
00000000: 3cb0 26bd dca1 43be d4e1 d5be b9fd 83be
00000010: 904f 03bf 2627 3d3e 91db fdbe 6c8f c03e
00000020: 3815 bcbe 881a 82bd 981c c33d 3fd7 f6bd
00000030: b4b3 23be 91aa 58bd 1b0a 8abd 662c 27be
00000040: b2a8 e5bd 8c8d 99bd 7949 53be 8d13 9bbd
00000050: ac27 bebc 8880 24bf b693 a6bc f9e7 8bbd
00000060: 88f5 0cbe e614 d9bd 255b 16bf e85e d0bf
00000070: dd0e 40be 5d05 b9bd 3c84 a2bd 0dab 0abe
00000080: 90b1 9b3c 339d 2cbe 25a3 bcbe bd6d c23e
00000090: 32eb 13be 39b9 a4bd 7ff7 5fbd e08a 12be
000000a0: 8421 a0bf 03b3 eebd e5a0 ec3e 8d51 20ba
000000b0: 1638 26bf f7aa 49bf fb31 96be 5e9b 34be
000000c0: 1437 9dbd 71b9 ccbd 8d9c bfbd 4bd7 ddbd
000000d0: c26e 43bf 8bcd a8bd fd5a 9cbd 0977 0d3f
000000e0: a11d dabd ad11 b7bd 036e 90bd 32b1 233f
000000f0: 8355 64be e8d7 30be 8a73 ccbe eefe 04be
00000100: 4952 f9bd 26ee 3bbe e1dd acbe a1b5 1dbe
00000110: 946f d6be f155 90bd e0d8 36bf 5702 7e3e
00000120: 1453 8bbf 6a94 e9bd 9d78 8d3d 6fb3 3ebe
00000130: a267 41be ff19 9fbd 4467 80bd 0eae dfbd
00000140: ed82 6abd 2370 f43c b344 823e 50df d3bd
00000150: 6ecf 7cbd a90a 34be a97f 16be 1f59 1ebe
00000160: e3f4 34be 3fc6 25be 3007 9dbf 50e9 4ebf
00000170: d73b cebd 3005 05be a209 36be 728b babd
00000180: ac4f 0e3d 261e 00be fc1c de3c 513b 7c3e
00000190: 8301 5dbe a9cd d0bd f7be 843d 2e4c 2e3d
000001a0: 439a 6c3d 3c72 3ebe da77 9e3d 6a6d 6dbd
000001b0: 920d 34bf 8314 3dbf aaf8 20bf 40d3 c2bd
000001c0: 3f3e d8bd acdf 01be b609 39be a049 69bd
000001d0: 30d5 be3e f0f3 aabd 5466 3ebe 0791 213f
000001e0: 6217 13be a77a 48be 4766 20bd daaa 5ebf
000001f0: 43b0 1abe 3f11 59be 34af f2bd ca94 32be
00000200: 0c9e 07be be1a 00be d183 46be 15f1 c63b
00000210: e890 e2be 0e11 9dbe b59a d8bf 2755 e03e
00000220: 8321 98bd 0959 49bd b80d b6be 8fc9 67be
00000230: 0054 ecbd 4e62 36be 463f 86bd 03df 10be
00000240: c3b5 98bd 031a f8bd 7df9 9a3e 69e4 e5bd
00000250: 60a0 5bbe ab8c 11bf 7dd0 27be ff61 37be
00000260: e31d 13be 0814 2dbe 233f 23bf 529d d93c
00000270: 72b8 56be 4ff0 42be 6ad8 40be e6a0 c9bd
00000280: 0811 32be 7efe 16be b090 c33d bd0a 30be
00000290: 4e90 7abe b8f9 a3bd 2980 8fbe 6ec4 8bbe
000002a0: f091 533f 43a3 0cbe 2f11 16bf 7b4e a2be
000002b0: e8b0 54be d177 0cbf 4eb9 da3e e376 54be
000002c0: afd3 e4bd a253 f2bd 68f1 31be 7cda 1fbe
000002d0: 476c 48bf b150 4cbe ea02 57be ce1d 7cbe
000002e0: d3ff 36be 5061 03be 5771 0cbe c232 6dbf
000002f0: 51fb 4fbe 2f5e 01be 0d86 eabd bf13 00be
00000300: ac25 ecbd 158c 07be b304 4bbe beec 41be
00000310: 28c3 cfbe 7934 3dbe d47b 72bf 76e6 ad3e
00000320: 0549 e13e 5a4f 48bd 83a0 42be 6b65 b2bd
00000330: f54b 08be 4ee2 afbd 9bd2 51bd 3c93 b3bd
00000340: 76df 28be 3be7 84bd 9ee9 e8be a284 36be
00000350: 6e8b 1cbe 8f4c fabf 6b75 87bd 360e dabd
00000360: 2b54 0fbe 9945 c7bd 9205 15bf 54d5 dbbd
00000370: a036 5dbd dc02 39be 641a 1fbe ecd8 9bbd
00000380: 97b0 45be 8b6d 62bd 4b02 2abe 936c 57be
00000390: 3f3e 3cbe da6d a9bd 7836 92bd eca0 92bd
000003a0: 267a b0be 7930 bcbd 45a2 5dbe 428c 82be
000003b0: 3a21 623d 2514 25be 33f6 22bb e967 64be
000003c0: dea6 c3bd f87b d5bd c425 1dbe 4304 20be
000003d0: 0781 da3c be0a 21be fa8f 27be 02c5 89be
000003e0: 257c 19be b43f 00be c2c8 2fbe 2032 3d3f
000003f0: 71ac abbd 1fbe c4bd fc57 3fbd 56ce 3cbd
-0.040695414 -0.19104713 -0.41773856 -0.25779513 -0.5129328 0.18471965 -0.49581578 0.37609422
-0.3673494 -0.06352717 0.09526938 -0.12052774 -0.1598652 -0.05289704 -0.06740209 -0.1632553
-0.11213817 -0.07497701 -0.20633496 -0.075720884 -0.023212276 -0.64258623 -0.020334106 -0.06831355
-0.13765538 -0.10599689 -0.58732826 -1.6278963 -0.1875567 -0.09034226 -0.07935378 -0.13541813
0.019005567 -0.16856842 -0.3684322 0.3797435 -0.14445189 -0.08043141 -0.05467939 -0.14310789
-1.2510228 -0.116552375 0.46216503 -0.00061156676 -0.6492933 -0.78776497 -0.29335007 -0.17637393
-0.07676521 -0.09996308 -0.093560316 -0.108320795 -0.7634088 -0.08242329 -0.07634542 0.5525976
-0.106501825 -0.08938918 -0.07052233 0.63942254 -0.22298245 -0.17269862 -0.399319 -0.12987873
-0.12173898 -0.18352565 -0.3376303 -0.15401317 -0.41882002 -0.07047642 -0.71424675 0.2480558
-1.0884728 -0.11405261 0.06907771 -0.18623136 -0.18887189 -0.0776863 -0.06269696 -0.1092187
-0.057253767 0.029838627 0.25443038 -0.10345328 -0.061721258 -0.17582192 -0.14697136 -0.15463684
-0.17671542 -0.16188906 -1.2267818 -0.80824757 -0.10070007 -0.1299026 -0.17777112 -0.09108628
0.03474395 -0.125115 0.02711343 0.24632002 -0.21582608 -0.101954766 0.06481736 0.04255312
0.057764303 -0.18598264 0.077377036 -0.057965674 -0.70333207 -0.73859423 -0.6287943 -0.09512949
-0.105587475 -0.1268298 -0.1807011 -0.05695498 0.37272024 -0.08347309 -0.18593723 0.6311192
-0.14364389 -0.19578038 -0.03916004 -0.8697945 -0.15106301 -0.21197985 -0.118498236 -0.17439571
-0.13243884 -0.12510201 -0.19386221 0.0060712197 -0.4425118 -0.30677074 -1.6922213 0.43814966
-0.07428267 -0.049157176 -0.35557342 -0.22635482 -0.11539459 -0.17810938 -0.06555037 -0.14147572
-0.07456543 -0.12114336 0.3026847 -0.112252064 -0.21447897 -0.5685527 -0.16388126 -0.17908476
-0.1436687 -0.16902173 -0.63768214 0.026564274 -0.20968798 -0.19036983 -0.18832555 -0.09845142
-0.1738931 -0.14745519 0.09549081 -0.17191596 -0.2446911 -0.080066144 -0.28027466 -0.272983
0.8264456 -0.13734154 -0.5861997 -0.317005 -0.2077061 -0.54870325 0.427195 -0.20748477
-0.11173188 -0.11832358 -0.17377245 -0.15610689 -0.7829022 -0.19952656 -0.20997205 -0.24620745
-0.17871027 -0.1283009 -0.1371511 -0.92655575 -0.20310713 -0.12633584 -0.114513494 -0.12507533
-0.11530623 -0.13237031 -0.19826011 -0.18937966 -0.4057858 -0.18477048 -0.94720197 0.3396489
0.44001022 -0.0489038 -0.19006543 -0.0871075 -0.13310225 -0.08588086 -0.05122624 -0.08768317
-0.16491494 -0.06489416 -0.45490736 -0.17824033 -0.15287563 -1.9554614 -0.066141926 -0.10647242
-0.13996951 -0.097300716 -0.58211625 -0.107340485 -0.054007173 -0.18067497 -0.15537411 -0.07609734
-0.19305645 -0.05528025 -0.16602437 -0.21037512 -0.1838312 -0.08272906 -0.07139295 -0.071596
-0.34468192 -0.09188933 -0.21643932 -0.25497633 0.05520747 -0.16120966 -0.0024865984 -0.22305264
-0.09553312 -0.10424036 -0.15346438 -0.15626626 0.026672853 -0.15726754 -0.16363516 -0.26908118
-0.14988764 -0.12524301 -0.17166427 0.7390461 -0.083825 -0.09606575 -0.046714768 -0.046095215

b f4 [16]
00000000: bc43 e6bb d162 e8bb df9f 0ebd fd72 3f3b
00000010: aecf 44bc d291 d73b a8d0 e7bc 6f1d 38bc
00000020: b64c 753b 4df0 bfbc 7325 7fbb a826 8eb9
00000030: 4591 1e3a 6db8 31bd bd3d 21bc 53f8 58ba
-0.0070271175 -0.007091858 -0.034820434 0.0029212825 -0.012012405 0.0065786624 -0.028297737 -0.011237486
0.0037429756 -0.023430014 -0.0038932234 -0.00027113152 0.00060488685 -0.043388773 -0.00984138 -0.0008276749

c f4 [64]
00000000: c314 893c c08b 643c e475 673c 6d03 923c
00000010: fff7 233e 7b42 1d3c 7ea9 913c c8fa 40bc
00000020: f1d5 0dbc 186d 963c 4e85 f83b f5b0 af3c
00000030: 8a35 803c 2440 713c 4b00 2abf 86cc 9c3c
00000040: 453f 893c d295 00bf ffc9 a6bc cf11 593c
00000050: 329c 653c 50eb 1a3e 0f1e 653c 4844 4a3c
00000060: 183b 7cbe f705 543c b83d 373e 5a5c 1abc
00000070: 9605 8a3c af14 1c3c c778 1a3c 0862 b43c
00000080: fedd 183c 5fb5 4b3c af51 d73c cf94 333c
00000090: d295 7a3c 6d4b f53e 1868 04bf aa6a 273c
000000a0: 9941 fcbb cbf6 913c 6e0e 443c ff3b 533c
000000b0: 4849 0c3f 5e6f a13c 7cd3 a2bb 46ea b03c
000000c0: ae45 e73e b619 5e3d ec4a d43b ff8d 5b3c
000000d0: 260a 593a c95e 8d3c 2cf9 913b e735 e7bb
000000e0: a65b 333c 5251 7c3c 39cd 863c b265 2cb9
000000f0: bee6 893c 6971 723c b846 ad3c be9b 2e3c
0.016733533 0.013949335 0.014127228 0.0178239 0.16012572 0.00959837 0.017781015 -0.011778541
-0.008656965 0.018362567 0.0075842505 0.021446684 0.01565053 0.014724765 -0.664067 0.019140493
0.016753802 -0.5022861 -0.020359991 0.013248875 0.014014291 0.15128827 0.013984217 0.012345381
-0.24631917 0.012940875 0.17894638 -0.009421432 0.016848367 0.009526416 0.00942821 0.022019401
0.009330271 0.012433379 0.026284067 0.010960772 0.015294509 0.47909108 -0.51721334 0.010218302
-0.0076982495 0.017817875 0.011966331 0.012892722 0.5479932 0.019706424 -0.0049690586 0.021596085
0.4517035 0.05422374 0.006478658 0.013400554 0.00082794053 0.017257111 0.0044547524 -0.007055986
0.010947144 0.015400248 0.01645528 -0.00016441083 0.01683366 0.014797547 0.021151885 0.010657249

conditioner.fc1.weight f4 [64, 1]
00000000: 6564 91bd 4f01 e4ba b79c 42bd f330 7c3d
00000010: d171 453b 4c47 423c 1039 a4bc 488a f63b
00000020: edca 8c3e 73f2 52bd 744c e9bb 648d 2f3c
00000030: f476 243f 80d3 31be 7f97 133f 5646 583c
00000040: ea0f 663d 5e23 65bc a42c cdbc 5087 01bf
00000050: 3715 2abe 6701 933a cfb0 23be 33b4 a4bd
00000060: f772 993c e90d 333b b405 9cbf 9033 c23c
00000070: 186f f23b 0e66 f0bb fbda ae3d 2b49 353b
00000080: dda2 a2bc 9ef6 28be a25b 533c 4ab6 ea3c
00000090: a42f 92bd e8c1 d43c 74cc a03e 621d 14be
000000a0: 471f 43bf 37ce b03d b5b7 9f3c 3467 a9ba
000000b0: 6894 e4bd d532 113c 482e 813c fbab 0abd
000000c0: cf48 4d3b e7c7 15bd 0221 463e 24ee 1d3e
000000d0: 517c bcbc 3669 313d 1ea0 343c d1d2 47bc
000000e0: 2271 cfbc 8df5 a1b8 dd85 1c3f 3457 79bc
000000f0: 51d2 cebd b7ca ffbb fb93 033b ed96 cfbd
-0.07099227 -0.001739541 -0.047512736 0.06157012 0.0030127654 0.011857819 -0.02004674 0.0075238086
0.2749857 -0.05150075 -0.0071197096 0.0107148625 0.6424401 -0.17365837 0.5765304 0.013200363
0.05616752 -0.013985483 -0.0250457 -0.50597095 -0.16609655 0.0011215628 -0.15985416 -0.08042183
0.018731577 0.0027321524 -1.218924 0.023706228 0.0073984973 -0.0073363846 0.08537861 0.002766202
-0.01985305 -0.16500327 0.012900265 0.028651375 -0.07137993 0.025971368 0.31405985 -0.14464334
-0.762196 0.08633082 0.019496778 -0.0012924434 -0.11161119 0.008862217 0.015769139 -0.03385542
0.0031323915 -0.036567595 0.19348529 0.15422875 -0.023008497 0.043313228 0.011024503 -0.012196259
-0.0253225 -7.722816e-05 0.6114176 -0.015218545 -0.100987084 -0.007806148 0.0020077217 -0.10136209

conditioner.fc1.bias f4 [64]
00000000: d61e 643e 18e4 ffb9 d648 3d3e 8617 7dbe
00000010: d30a ef3c 8451 043d fe2d fb3c a690 3abd
00000020: 40ed 4ebf 24db 493e 67e3 d33c ec74 0a3c
00000030: ba2f 9ebf db31 ef3e 6f3c 86bf 0f97 16bd
00000040: 6e8d 2ebe a830 1a3c 19a9 973d 0563 893f
00000050: 3324 1b3f a58e f43a a8ce 0c3f 8db1 833e
00000060: d145 d2bc b24f bb3a 954c 5e3f c89b 56bd
00000070: e1d7 ad3a 1b25 30bc 63dd 96be 5372 523c
00000080: 9f22 433c fde6 063f 0735 23bc 1102 eabd
00000090: ae49 4b3e ecc6 72bd 9ac0 62bf d991 f83e
000000a0: d152 433f bd0c 80be 478f 3ebc 1ba6 dbbb
000000b0: afeb b33e 15bb 34bd fe46 233c e416 423d
000000c0: 628c c7bc 8b2d ee3d 4935 30bf 6738 ecbe
000000d0: c476 883d 9e68 18be 8262 03bd 4ce6 433d
000000e0: 1828 693d b484 d93c 7548 95bf cceb 6aba
000000f0: 72c5 883e c3cd b13c 0f36 5b3c 45c5 b13e
0.22277388 -0.00048807333 0.18484816 -0.24716005 0.029179966 0.0323043 0.03066158 -0.045548104
-0.80830765 0.19712502 0.02586527 0.008450728 -1.2358315 0.46717724 -1.0487193 -0.036765154
-0.17046139 0.009411015 0.074053 1.0733343 0.6060211 0.0018658234 0.5500283 0.25721398
-0.025668057 0.0014290719 0.86835605 -0.05239466 0.001326319 -0.010751034 -0.2946578 0.01284464
0.01191011 0.5269621 -0.009961373 -0.114261754 0.19852325 -0.059271738 -0.88575137 0.48548773
0.7629824 -0.2500972 -0.01163084 -0.006703151 0.3514075 -0.044123728 0.009965656 0.04738511
-0.024358932 0.116297804 -0.68831307 -0.46136782 0.06663278 -0.14883658 -0.032076366 0.04782705
0.056923002 0.026552536 -1.1662737 -0.0008961528 0.2671314 0.02170456 0.013379588 0.34720817

conditioner.fc2.weight f4 [160, 64]
00000000: 6d93 bbbd f042 613e 9582 d5bd 484c 74bc
00000010: ed4a 63be 03c7 e23d 4fac 34bd 91b0 91be
00000020: ff1f c03d 6e4f d8bd 1daf 24be 610e a3be
00000030: 7fc9 cabd b82f 78bc 8912 ecbc b311 22bd
00000040: d180 3c3e fecf 0fbe b649 17be 6154 863c
00000050: 4b82 1dbe 08b8 debc 7d93 6fbe a242 4abe
00000060: 669c 85be af20 3a3e 04b5 b63e e09a 9ebc
00000070: 112e 29be e0c9 503e 0a6b 0b3e aa59 763d
00000080: 5ee2 f5bc e614 3bbd 7130 69bb 7eac 5e3d
00000090: 91c5 53be 7ed0 bd3d dc05 6f3d cfcd 40be
000000a0: 1452 823e 4143 103e 8f17 b73d e9d7 ab3d
000000b0: f311 3dbe 963c 9b3c 30a8 96be f613 733d
000000c0: 1447 3c3c 322a 10be 5127 713e 4d14 8cbd
000000d0: 9656 06bd 921f 913d c00c d03d 67cb 123e
000000e0: c47f 4f3e bfdc 583d de7e 0abe 049d d3bd
000000f0: 8808 4ebd c24f 82be 2a41 263e 7813 8abd
00000100: 01ac d3bc b1e1 a8bd 0e66 57bd 9e1b 593d
00000110: 7fef 143e 935a 75bc 7950 8b3d 8ff2 89be
00000120: d3fb 0f3d 7602 8dbd 2cb3 32be 0f2e f4bd
00000130: 9466 f9bd 2514 573d 7e30 f2bd c47c 433d
00000140: a1ab a73d d50a a93d d8b2 22bd c808 203e
00000150: 7fc4 0bbe 1e6a 9b3d 68fc 9bbe b485 0dbe
00000160: 4cca dc3d fcec 02be 5c8b 8f3e 7e50 11be
00000170: 41fa 85be e599 97bd 9a1c 843e 0a3b cbbd
00000180: 276b a83e a487 14be bd76 46bc cc71 8c3d
00000190: 5c05 b0bd ab2a 343d e33b 7cbd 43e8 9abe
000001a0: 1aa3 1b3e da26 fb3c 3ee0 ecbd 9ff2 8c3d
000001b0: 24f7 e6bd 8a33 e63d 2e0b fd3d f1fc afbc
000001c0: 3b2e bf3c f6e2 2f3d d2fb 9f3e a64e 703d
000001d0: 615e 64bc c9f7 9c3d cdbe 873d 0d63 5d3e
000001e0: 193c 033d 9af3 ee3d 1415 aabc 5a44 813d
000001f0: ba0c 4d3d e2da bcbe 15f4 1c3e 109d e9bc
00000200: d16e 11bd 13b3 05be bc7d c63c 990f 7f3d
00000210: b998 85be b2d7 9c3d 1e8f bc3c ae7d 873c
00000220: add7 e53d a853 8fbd 4e73 e2bd 5e2e e93d
00000230: b1ab 20bc b5ca 4f39 fc74 1cbe ae55 10bc
00000240: 2d0f 303e e277 76bc 594f bebd 41b2 023d
00000250: def2 a5bd aee5 673e d49b 1bbe c3a5 95be
00000260: 6f2d 3e3c d12e ad3d 12b7 a63e 2452 4bbb
00000270: 6c47 c93d 3306 02be 41ea 1f3e 266f 98bd
00000280: e812 0bbe 4d24 3dbe 32a9 453d 73b6 863d
00000290: bc7e e2bd be5e 5abd f299 903d 4aeb 70be
000002a0: fbbd 5c3e 72a6 db3d da53 f43c 68f8 5e3d
000002b0: 4f8e 76be a26e abbd dbe8 a4bd a9a2 383d
000002c0: a16d ca3d c215 9dbd 7e8c 583e 40dd 3d3d
000002d0: cb8f d73d df49 6d3d b9ef 33be 3a06 fabd
000002e0: e225 583e aee5 80bd df0a 38be f5aa 453e
000002f0: 5afd 97bd 0e72 ad3e fa48 59be aa96 01be
00000300: 6989 d4bd 410a a9bd d56d 1abe 7596 853e
00000310: 553a e03c 9086 f73d 548a 803e 1855 cfbb
00000320: fc29 05bd cb15 bebd da86 573c 2d3e 983d
00000330: bae5 9dbd 8cac 93bd 1223 e4bd 5bee ddbc
00000340: 9249 e83d 5b73 583d d58f b2bd 6177 563c
00000350: 6ad8 43be 2877 2bbe dd96 02be 6fc6 48be
00000360: c6a9 d43e 3106 e7bd c12f 493e 1987 ca3d
00000370: 2efd eebd a41f 8cbc 4d52 753e 34a8 3cbe
00000380: e4e3 cd3c aab8 7cbd f47b c3bb fab2 f1bd
00000390: eff2 64be 6c18 f4bd 979e 3abe 1872 99be
000003a0: 601d ff3d bac0 aa3c 776b 853c f8c4 a73d
000003b0: 4462 25be b427 54bd 6244 0a3e 3e10 72bc
000003c0: 8375 e3b9 9876 ab3c fe35 853e 643d 5f3d
000003d0: 9788 543d 3d75 96bc fb41 3dbe 337f e13d
000003e0: e10f 173e cba0 e7bd b22c 25be e4fc 88bd
000003f0: 9db9 f5bb 10c6 94be 8403 febd 98e8 8abd
-0.091589786 0.21998191 -0.10425297 -0.014910765 -0.2219655 0.11073115 -0.04410964 -0.28455022
0.09381103 -0.10562025 -0.16082425 -0.31846908 -0.099017136 -0.015148096 -0.028817432 -0.03956766
0.18408515 -0.14044186 -0.14774212 0.016397657 -0.15381734 -0.027187362 -0.23396106 -0.19751981
-0.26095885 0.1817653 0.3568498 -0.01936096 -0.16521479 0.20389509 0.13615051 0.060144104
-0.030015167 -0.045674227 -0.0035581852 0.05436372 -0.20680834 0.09268282 0.058355197 -0.1882851
0.25453246 0.14088155 0.0894004 0.08390791 -0.18463878 0.018949788 -0.29425192 0.059345208
0.011491556 -0.14078596 0.23550154 -0.068398096 -0.03279742 0.070861 0.10158682 0.14335404
0.20263582 0.052944895 -0.13524958 -0.10332683 -0.050301105 -0.25451475 0.16235796 -0.067419946
-0.025838854 -0.08246172 -0.05258756 0.053004853 0.14544486 -0.014975208 0.06802458 -0.2694287
0.035152268 -0.06885235 -0.17451161 -0.119228475 -0.12177768 0.052509446 -0.118256554 0.047726408
0.081870325 0.08254019 -0.03972134 0.1562835 -0.13649176 0.075885996 -0.30466008 -0.13820535
0.107807726 -0.12785715 0.2803601 -0.14190862 -0.2616749 -0.074024 0.2580307 -0.0992337
0.3289425 -0.14504868 -0.01211327 0.068576425 -0.08594772 0.043986004 -0.06158055 -0.30255327
0.15198937 0.030658174 -0.11566208 0.06882214 -0.11277607 0.11240299 0.12355648 -0.021482917
0.023337474 0.042941056 0.3124681 0.058668755 -0.013938517 0.07664449 0.06628189 0.21619816
0.032039735 0.11667557 -0.020762004 0.06311865 0.050060965 -0.36885744 0.15327485 -0.028517276
-0.035506073 -0.13056593 0.024229877 0.062270734 -0.2609308 0.07658328 0.023017462 0.016539421
0.112227775 -0.06998378 -0.11057149 0.11385797 -0.009806559 0.00019816573 -0.15279001 -0.00880949
0.17193289 -0.015043231 -0.09292478 0.031908277 -0.08102964 0.2264621 -0.15196162 -0.2922803
0.011607512 0.08456195 0.32561547 -0.0031024301 0.09828076 -0.12697677 0.15616705 -0.07443075
-0.13581431 -0.18470879 0.04825706 0.06577768 -0.11059329 -0.05331301 0.07060613 -0.23527256
0.21556847 0.10725106 0.02982514 0.054436117 -0.24077724 -0.08370711 -0.08052226 0.045077
0.09884191 -0.076701656 0.21147344 0.04635358 0.10525473 0.057931777 -0.17571916 -0.12208219
0.21108201 -0.06293808 -0.17972897 0.19303496 -0.0742137 0.3387608 -0.21219245 -0.1265513
-0.103777714 -0.08253909 -0.1508096 0.26091352 0.027371565 0.12086213 0.25105536 -0.0063272826
-0.032510743 -0.092815004 0.01315471 0.07433734 -0.077098325 -0.07210645 -0.11139502 -0.027091196
0.113421574 0.052844387 -0.0871884 0.013089986 -0.19125524 -0.16744673 -0.12752862 -0.19606946
0.41535777 -0.11280478 0.19647123 0.09889049 -0.11669384 -0.017104931 0.23957177 -0.1842354
0.02513308 -0.061699547 -0.005965704 -0.11801715 -0.22358297 -0.119187206 -0.1822456 -0.2996986
0.12456775 0.020843852 0.016286595 0.08191866 -0.16150767 -0.051795676 0.13502648 -0.01477438
-0.00043384367 0.020930573 0.26017755 0.054501906 0.051888075 -0.01836645 -0.18482201 0.110105895
0.14752151 -0.11309966 -0.16130331 -0.0668886 -0.0074989335 -0.2905736 -0.12403014 -0.06782645

conditioner.fc2.bias f4 [160]
00000000: 0f9b 39be 1133 9cbe 4ab4 7fbe 25e3 c8be
00000010: 1fae d3be eb5c 43be 4969 70be 79a2 afbe
00000020: 7186 99be 705a abbe 42e2 99be 1235 edbe
00000030: 0fb3 a7be 7508 58be 607f e7be 5f38 ccbe
00000040: 34e1 afbd 5cfb a4bc fa8f a1bd 7c68 18be
00000050: 4c38 b1bd d2e4 e8bc f3b2 9bbd ba53 e0bd
00000060: 4dd1 463d e2b4 00bd 24ba 30be 2b79 8abd
00000070: 3361 323d ec4b 0c3d a4e1 8abe ea8a 70bd
00000080: 7c60 a0be 8f20 cfbe b369 85be 064c ddbe
00000090: 34fc 67be 3814 7ebe 37ef d1be 4606 d1be
000000a0: b627 86be ad9d aabe bb70 e9be c33d 8cbe
000000b0: 8528 e0be 9df9 dcbe 4901 4a3f 6d4e e5be
000000c0: 4ad3 d9be 981e 103f e2fa 9abe 7c59 edbe
000000d0: 1f1d fcbe 8623 e3bd 68ba c2be 7157 f9be
000000e0: 18c9 5f3e 2c32 dfbe d481 aebd 1cce 6fbe
000000f0: e784 f4be 267f 0cbf a487 d9be 5c50 f3be
00000100: 3ab3 eebe 3208 f5be bf90 e1be f4be d8be
00000110: 0505 dabe e84f 90bf 3a03 313f 4a3b 06bf
00000120: 6d85 adbe e5d8 cabe b044 0abf c8a7 a9be
00000130: 74fa 27bc 7c95 d6be 6e42 c6be 4c3f acbe
00000140: 4263 6dbf d7cb b3be 4e25 c5be a3a3 f3be
00000150: dcc1 e3be 748e cabe 272e c4be 9df3 c5be
00000160: dd30 fbbe 5798 f6be a584 dbbe 9c86 85be
00000170: 8aeb e8be 9ce1 ecbe ebdd 9bbe 089b d5be
00000180: 2107 57bf 45de 4ebf c2cf d5be edf0 ffbe
00000190: da63 fd3e d8ba 16bf 4446 243f f664 a03e
000001a0: 261b c53e ee03 57bf d7c3 46bf 6263 47bf
000001b0: 81cc 52bf f613 3ebf ab74 11bf 6744 20bf
000001c0: c051 3fbf 10af 46bf 0bbe 123f 7938 4bbf
000001d0: 4e77 2dbf 7115 e53e f7ed 5cbf 913e 45bf
000001e0: ab50 5ebf 04cf 48bf 1c89 e73e 8df4 16bf
000001f0: e803 7ebf 5d52 47bf cf08 50bf 0a18 2cbf
00000200: 9002 46bf eb52 36bf bb58 42bf d175 163f
00000210: 524c 16bf ba13 2bbf f232 1dbf e29b 6abf
00000220: 0dfd 8b3e 2072 4bbf f0b3 bc3e 1889 a7be
00000230: 4e08 033e ce91 0c3f 82c6 a8be d9fe 39bf
00000240: c948 30bf acbf 42bf 709e 50bf 6410 57bf
00000250: 6a32 b7be b378 34bf 3e7d 42bf f505 d3be
00000260: 1642 27bf fd5b 47bf fca1 34bf 3c8d b1be
00000270: 9ef3 41bf babe 21bf fc23 3abf 5d18 4ebf
-0.18125556 -0.3050771 -0.24971119 -0.39235798 -0.4134378 -0.19078414 -0.23477663 -0.34303644
-0.29985383 -0.33467436 -0.30055434 -0.46329552 -0.32753798 -0.21096976 -0.45214367 -0.39886758
-0.08587876 -0.020139389 -0.078887895 -0.14883608 -0.08653316 -0.028429423 -0.07602491 -0.109534696
0.04853945 -0.031422503 -0.17258507 -0.06761392 0.043549728 0.034252092 -0.27125275 -0.05872623
-0.31323612 -0.40454528 -0.26057205 -0.43222064 -0.22654802 -0.248124 -0.4100282 -0.408251
-0.26202172 -0.33323422 -0.4559382 -0.2739087 -0.43780914 -0.4315919 0.7890821 -0.44786397
-0.42544013 0.5629668 -0.30269533 -0.46357334 -0.49240968 -0.1109076 -0.38032842 -0.48699525
0.21854055 -0.43592966 -0.085208565 -0.23418468 -0.47757646 -0.54881513 -0.42486298 -0.47522247
-0.46621114 -0.47857815 -0.44055745 -0.42333186 -0.42581955 -1.1274385 0.6914555 -0.5243422
-0.33890858 -0.39618602 -0.5401106 -0.3313582 -0.010252584 -0.41910923 -0.38722557 -0.33642042
-0.9272958 -0.35116455 -0.38505024 -0.47585782 -0.4448384 -0.39561808 -0.3831646 -0.38662425
-0.49060717 -0.481631 -0.42874637 -0.2607926 -0.45492202 -0.46265876 -0.30442747 -0.41719842
-0.8399525 -0.80807906 -0.4176007 -0.499885 0.49490243 -0.5887885 0.64169717 0.31327027
0.38497275 -0.8399037 -0.7764258 -0.7788602 -0.823433 -0.7424921 -0.56818646 -0.62604374
-0.74734116 -0.77610874 0.5732123 -0.79383045 -0.6776017 0.4474292 -0.86300606 -0.77048594
-0.8684184 -0.7844088 0.45221794 -0.58966905 -0.9922471 -0.7786005 -0.8126344 -0.6722418
-0.7734766 -0.7122027 -0.7591664 0.58773524 -0.58710206 -0.66826975 -0.6140586 -0.9164411
0.273415 -0.79471016 0.3685603 -0.32721782 0.12796137 0.5490998 -0.3296395 -0.7265449
-0.6886106 -0.7607372 -0.81491756 -0.84009385 -0.3578065 -0.7049667 -0.75972354 -0.41215482
-0.65335214 -0.7787474 -0.7055967 -0.34678066 -0.75762355 -0.6318165 -0.7271116 -0.80505925
