parametric_qst/tfim_4x4_multi_suscept/models_viet/hyprbm_tfim_4x4_20000_suscept_seed51_20260123_014445.pt (torch, 51418 bytes, 7 tensors)

W f4 [16, 64]
-0.07552784 -0.11486012 -0.030613054 -0.017779121 -0.04424211 -0.16496424 -0.020670047 0.5899391
-0.0953022 -0.28282586 0.01829254 -0.03402305 -0.06727438 -0.045958154 0.3988799 -0.10018914
-0.07887706 0.027470084 -0.2064467 -0.014715321 -0.0059086853 -0.018660918 -0.023620479 0.21785577
-0.052758206 0.052132957 -1.0249972 -0.053666335 -0.027235368 0.466143 -0.024351377 -0.0325282
-0.017224563 -0.12881547 -0.03099036 -0.035599366 -0.004887757 0.8414204 0.4357713 0.5004986
-0.03481418 -0.055281576 -0.06635646 -0.03766421 -0.1595117 0.80317557 0.014071093 -0.047369312
-0.06361397 -0.52925074 -0.11849599 -0.011518243 -0.059982657 -0.016172903 -0.0034027975 -0.0023188663
-0.021751285 0.44190776 -0.008041587 -0.0561653 1.6507533 0.08176331 -0.040678684 -0.020781545
-0.091946796 -0.044131316 -0.0030215012 0.00056155166 -0.008468517 0.23555474 0.020026498 0.07023315
-0.043933786 0.58630353 0.012004188 -0.010588562 -0.031040378 -0.011759646 0.55255634 -0.02404459
-0.022987612 0.34742063 0.13796645 -0.0031033827 0.022636408 0.0076805004 0.009216103 0.43116647
-0.014787265 0.17056325 -0.12495592 -0.012731334 -0.04888584 0.27922547 -0.011754755 -0.028918799
-0.0095049115 -0.17154336 -0.0062100547 0.0032692933 0.028302321 0.38871315 0.8485869 0.5497555
-0.0017525029 -0.005302095 0.0013455594 -0.030835167 -0.04463101 -0.12795927 0.033207536 -0.0016592473
-0.28962883 0.30316156 0.8078512 -0.007522925 -0.041656252 0.026837228 0.024723714 0.007337116
0.010853062 -0.29243296 0.003280025 -0.020724392 1.272915 -0.62025106 -0.02942746 -0.008975979
0.034955714 0.04432275 0.016417686 0.019122388 0.02966491 0.3517864 0.03581312 -0.06852238
0.031057646 0.02232595 -0.022377636 0.0014495997 0.0485607 0.061968986 0.50359315 0.094282754
0.03901921 0.43837193 0.13452883 0.012751531 0.043150455 0.021600729 0.02258977 1.2891572
0.0029038456 0.2938379 -0.016766788 0.020211749 0.011307253 0.7182178 -0.011563389 -0.003670672
0.0125166355 -0.025779681 0.008865377 0.031084688 0.058344033 -0.013291153 0.953134 1.3687044
0.023624958 0.032666173 0.013096921 0.0020327556 0.16150115 -0.59865564 0.04460337 0.060022596
-0.22524768 0.5687103 -0.028352737 0.006342367 -0.015169349 0.088416435 0.025502793 0.0056931777
0.09321693 -0.5728546 0.029210595 0.03783598 0.25303495 0.4515505 0.0065744757 -0.019462481
0.034787953 0.040663596 0.02660721 0.040136598 0.03357404 -0.06014564 0.038154684 0.7463051
0.027819542 -0.40285075 0.059977815 0.023268005 0.02863297 0.068613224 0.061748657 0.044594124
0.028323516 0.035661887 -0.053354263 0.03577928 0.05680642 0.036738552 0.028116278 0.5680322
-0.0018782159 0.28413358 0.15231574 0.029000957 0.056092568 0.91297275 -0.0055638948 0.026866626
0.026162941 -0.15255079 0.02091942 0.045620512 0.053926647 0.090285346 0.26887897 1.5416594
0.03594519 0.04108605 -0.014483877 0.009360147 0.088834524 1.0440731 0.055978756 0.052313507
0.299753 -0.6379508 -0.036500566 0.027443727 0.016933339 0.07899446 0.026612014 0.034877528
0.036733378 -0.32535338 0.041714486 0.019064106 0.15248986 0.35045505 0.012638345 -0.004762726
00000000: 57ae 9abd c83b ebbd 3ac8 fabc 85a5 91bc
00000010: 3737 35bd 63ec 28be 3b54 a9bc 4006 173f
00000020: cd2d c3bd 8dce 90be 3dda 953c c15b 0bbd
00000030: 26c7 89bd 9e3e 3cbd fc39 cc3e f72f cdbd
00000040: 4c8a a1bd f108 e13c c466 53be 8818 71bc
00000050: a59d c1bb c8de 98bc bc7f c1bc 9515 5f3e
00000060: fd18 58bd 5e89 553d 1c33 83bf 3bd1 5bbd
00000070: b51c dfbc 4caa ee3e 8a7c c7bc 4a3c 05bd
00000080: 871a 8dbc 34e8 03be 7fdf fdbc a4d0 11bd
00000090: 7a29 a0bb 5467 573f 6a1d df3e ad20 003f
000000a0: 5099 0ebd ef6e 62bd e5e5 87bd c945 1abd
000000b0: 0957 23be ea9c 4d3f 718a 663c 5306 42bd
000000c0: 0b48 82bd fa7c 07bf 07ae f2bd 03b7 3cbc
000000d0: 60b0 75bd 097d 84bc 7801 5fbb 1ff8 17bb
000000e0: c02f b2bc bc41 e23e dcc0 03bc 960d 66bd
000000f0: e24b d33f 8673 a73d b19e 26bd 0f3e aabc
00000100: 9a4e bcbd 0ac3 34bd 6104 46bb 1835 133a
00000110: 89bf 0abc 4335 713e 9c0e a43c 66d6 8f3d
00000120: eaf3 33bd fd17 163f 37ad 443c a67b 2dbc
00000130: 6448 febc 88ab 40bc 5574 0d3f 29f9 c4bc
00000140: 8450 bcbc 1ee1 b13e 1447 0d3e 1f62 4bbb
00000150: fd6f b93c b5ac fb3b 23ff 163c dac1 dc3e
00000160: 4946 72bc 22a8 2e3e e4e8 ffbd 1697 50bc
00000170: 853c 48bd a4f6 8e3e 0497 40bc 1ee7 ecbc
00000180: 7dba 1bbc 10a9 2fbe b77d cbbb a441 563b
00000190: 45da e73c 6905 c73e fe3c 593f c7bc 0c3f
000001a0: 3db4 e5ba 32bd adbb 7b5d b03a 089a fcbc
000001b0: 02cf 36bd c107 03be a004 083d 1a7b d9ba
000001c0: 3b4a 94be fe37 9b3e 56cf 4e3f de82 f6bb
000001d0: bf9f 2abd bfd9 db3c 6389 ca3c 316c f03b
000001e0: 0bd1 313c c6b9 95be b0f5 563b 33c6 a9bc
000001f0: e1ee a23f c6c8 1ebf db11 f1bc fc0f 13bc
00000200: b92d 0f3d c68b 353d 627e 863c 8ea6 9c3c
00000210: d303 f33c 591d b43e c7b0 123d 7655 8cbd
00000220: 9b6c fe3c e9e4 b63c 4e51 b7bc 7f00 be3a
00000230: 96e7 463d 31d3 7d3d 7beb 003f 5117 c13d
00000240: 9bd2 1f3d 4972 e03e edc1 093e cceb 503c
00000250: 88be 303d 03f4 b03c 2e0e b93c 1a03 a53f
00000260: 724e 3e3b ec71 963e 815a 89bc 1c93 a53c
00000270: 0e42 393c 1fdd 373f 5e74 3dbc a88f 70bb
00000280: 9312 4d3c e92f d3bc 1640 113c 51a5 fe3c
00000290: 27fa 6e3d 23c3 59bc 9700 743f b531 af3f
000002a0: 2189 c13c f7cc 053d 7894 563c fb37 053b
000002b0: 8f60 253e 7f41 19bf 06b2 363d 41da 753d
000002c0: 54a7 66be 0097 113f 0044 e8bc a1d3 cf3b
000002d0: dc88 78bc ad13 b53d 3ceb d03c d68d ba3b
000002e0: 85e8 be3d 99a6 12bf 0f4b ef3c e7f9 1a3d
000002f0: cc8d 813e a131 e73e b36e d73b c86f 9fbc
00000300: d07d 0e3d df8e 263d 5df7 d93c 4666 243d
00000310: ef84 093d 465b 76bd 1648 1c3d da0d 3f3f
00000320: cfe5 e33c 7442 cebe 4cab 753d 8b9c be3c
00000330: b18f ea3c 1785 8c3d 29ec 7c3d 54a8 363d
00000340: b806 e83c 3312 123d 008a 5abd 4b8d 123d
00000350: d9ad 683d 2a7b 163d 1c54 e63c 8f6a 113f
00000360: 782e f6ba f579 913e a8f8 1b3e 6a93 ed3c
00000370: 52c1 653d 95b8 693f 5551 b6bb 6617 dc3c
00000380: aa53 d63c 4636 1cbe 345f ab3c 93dc 3a3d
00000390: 30e2 5c3d 86e7 b83d 81aa 893e 1855 c53f
000003a0: 433b 133d d949 283d c94d 6dbc 4d5b 193c
000003b0: e0ee b53d 30a4 853f fb49 653d b046 563d
000003c0: 3a79 993e be50 23bf 9e81 15bd abd1 e03c
000003d0: c9b7 8a3c d9c7 a13d 7001 da3c bddb 0e3d
000003e0: bd75 163d b894 a6be cfdc 2a3d 542c 9c3c
000003f0: 4d26 1c3e d86e b33e 1011 4f3c a410 9cbb

b f4 [16]
-0.0018685014 -0.012715343 -0.012343941 -0.009456718 0.0033368336 0.00584314 -0.0031768125 -0.029157013
0.0056196353 -0.0022552824 -0.0133561315 -0.023519242 0.025370847 -0.0052981046 0.004005498 0.0072126975
00000000: 81e8 f4ba 0454 50bc 3e3e 4abc 5af0 1abc
00000010: c7ae 5a3b d077 bf3b 1232 50bb b0da eebc
00000020: eb24 b83b 5ccd 13bb add3 5abc 6dab c0bc
00000030: 86d6 cf3c b99b adbb 8d40 833b 7e58 ec3b

c f4 [64]
0.39515385 0.32392102 0.42728707 -0.64510727 -0.53321016 -0.004610301 -0.527762 0.0024293251
-0.3918447 0.0003516734 0.0022262656 0.5445533 -0.4721332 -0.47921732 -0.00952488 0.33430105
-0.57233226 0.3644318 -0.07736429 -0.50931877 -0.50032794 -0.50279975 0.52789396 0.016499963
0.45839226 -0.0011098284 -9.949285e-05 0.5151604 0.67487943 0.10275699 -0.5408046 -0.56989557
-0.5075429 -0.016437566 0.40373534 -0.48845172 -0.529795 0.037889972 0.000605484 -0.022563545
-0.35483417 -0.4921922 0.4112771 0.36443892 -0.40087917 -0.006462413 -0.5417377 -0.53003925
-0.010616725 -0.02050354 -0.03463569 -0.5036269 0.47736928 -0.5475823 -0.53124887 -0.5406217
-0.5295129 -0.0017298765 -0.5479988 0.53677607 0.0005326332 0.07814262 -0.46756274 0.5404816
00000000: 9b51 ca3e fad8 a53e 5fc5 da3e c025 25bf
00000010: 7680 08bf 0212 97bb 691b 07bf 5035 1f3b
00000020: de9f c8be ce60 b839 8ae6 113b d867 0b3f
00000030: 71bb f1be f95b f5be 3e0e 1cbc 8229 ab3e
00000040: 5e84 12bf ce96 ba3e 2b71 9ebd b762 02bf
00000050: 7e15 00bf 7cb7 00bf 0f24 073f ee2a 873c
00000060: 64b2 ea3e a977 91ba d1a6 d0b8 8de1 033f
00000070: e6c4 2c3f 4272 d23d 2c72 0abf ade4 11bf
00000080: 55ee 01bf 13a8 86bc 66b6 ce3e 5816 fabe
00000090: a5a0 07bf 8432 1b3d 58b9 1e3a 2fd7 b8bc
000000a0: d3ac b5be 9e00 fcbe e992 d23e bd97 ba3e
000000b0: 0940 cdbe a6c2 d3bb 52af 0abf a7b0 07bf
000000c0: c6f1 2dbc 0af7 a7bc 27de 0dbd b1ed 00bf
000000d0: bf69 f43e 5b2e 0cbf edff 07bf 2f66 0abf
000000e0: 288e 07bf 06bd e2ba a649 0cbf 286a 093f
000000f0: 69a0 0b3a 3d09 a03d 6264 efbe 015d 0a3f

conditioner.fc1.weight f4 [64, 1]
1.1428107 0.3365458 0.02250454 -0.006697919 0.18173282 -0.094160266 0.5962332 0.13300481
-0.114935875 -0.008939832 -0.35131484 0.013732029 0.013282235 -0.037395824 -0.1593144 -0.0055405213
-1.0293405 -0.0012603631 0.56068593 0.15980975 -0.030048696 0.838981 0.22954395 0.19177692
-0.005717506 -0.04922492 -0.039245423 -0.17969961 -0.14669025 0.0031384288 0.09675452 -0.6756964
0.20528531 0.0112424195 0.6134303 0.083009176 -0.1445493 0.0037963714 -0.009093166 0.20532468
0.026330497 -0.7199823 -0.0023019952 0.29807922 0.21695772 -0.28361365 -0.012405663 -0.18107796
-0.80972826 -0.08116066 0.3489537 -1.024827 -0.016216224 0.09859086 -0.017883942 -0.0065116403
0.05296753 -0.019855814 0.007332912 0.74194735 -0.003572818 -0.82874346 -0.67386955 0.3916611
00000000: 9f47 923f bb4f ac3e 715b b83c 387a dbbb
00000010: 2b18 3a3e 19d7 c0bd bda2 183f 6a32 083e
00000020: 8063 ebbd 6078 12bc 8adf b3be 4efc 603c
00000030: bb9d 593c 5d2c 19bd 5023 23be 438d b5bb
00000040: 6ec1 83bf c532 a5ba 1d89 0f3f 2ba5 233e
00000050: af28 f6bc 75c7 563f 920d 6b3e 2b61 443e
00000060: eb59 bbbb 12a0 49bd cfbf 20bd 2d03 38be
00000070: f835 16be 19ae 4d3b 3c27 c63d 70fa 2cbf
00000080: 5036 523e 2032 383c c509 1d3f b700 aa3d
00000090: bb04 14be 8bcc 783b 81fb 14bc a240 523e
000000a0: 0eb3 d73c c350 38bf 12dd 16bb d79d 983e
000000b0: 2a2a 5e3e cf35 91be 1f41 4bbc 806c 39be
000000c0: 5a4a 4fbf 8f37 a6bd 0faa b23e 882d 83bf
000000d0: e3d7 84bc 01ea c93d 5881 92bc 995f d5bb
000000e0: 7bf4 583d a9a8 a2bc ed48 f03b 43f0 3d3f
000000f0: f025 6abb 8828 54bf b782 2cbf ce87 c83e

conditioner.fc1.bias f4 [64]
-0.7593909 -0.90270126 -0.0072088796 -0.0079614045 -0.5325753 0.30557123 -0.06747792 -0.36767626
0.2820947 -0.02105393 -0.12237063 0.0025696182 -0.00095542875 0.038229533 0.46221226 -0.00084971794
0.66998297 0.0039111213 -0.6414686 -0.4674883 0.07307412 -0.6949692 -0.119560406 -0.5822113
-0.0041259793 0.078598216 0.06872576 0.52091944 0.24350604 0.00025792903 -0.2487536 0.6710714
-0.59202605 -0.00258478 -0.8385723 -0.26854858 0.29540476 -0.032164566 -0.011585184 -0.5868198
-0.061589394 0.90939677 -0.024362287 -0.84496385 -0.61538 0.21180515 -0.026963573 0.53196865
0.402022 0.21339889 -0.97554165 0.31142 -0.009002533 -0.27372283 -0.017689925 0.008314315
-0.1659895 0.0022838947 -0.0032360107 -0.95983195 -0.019469181 0.7362476 0.8535186 0.14754577
00000000: 7167 42bf 6e17 67bf 7738 ecbb 8d70 02bc
00000010: db56 08bf d573 9c3e dd31 8abd 1040 bcbe
00000020: b76e 903e 4b79 acbc 749d fabd 0a67 283b
00000030: bd75 7aba 9296 1c3d 16a7 ec3e 9bbf 5eba
00000040: 0184 2b3f dd28 803b 4937 24bf a05a efbe
00000050: e2a7 953d 80e9 31bf 16dc f4bd cd0b 15bf
00000060: 3933 87bb 1af8 a03d 17c0 8c3d fa5a 053f
00000070: a659 793e a63a 8739 44b9 7ebe 56cb 2b3f
00000080: 058f 17bf 6a65 29bb adac 56bf 337f 89be
00000090: 4b3f 973e febe 03bd c9cf 3dbc d339 16bf
000000a0: 2945 7cbd 3ace 683f 6b93 c7bc 8d4f 58bf
000000b0: 8b89 1dbf 73e3 583e b6e2 dcbc 192f 083f
000000c0: d4d5 cd3e 3d85 5a3e 19bd 79bf 7172 9f3e
000000d0: 5c7f 13bc 6625 8cbe 76ea 90bc c438 083c
000000e0: 27f9 29be 65ad 153b 4013 54bb 8cb7 75bf
000000f0: d57d 9fbc b97a 3c3f 3280 5a3f 3d16 173e

conditioner.fc2.weight f4 [160, 64]
-0.009236284 0.06397235 -0.053411726 -0.021154014 0.020359557 -0.0049196896 -0.037696607 0.147285
0.0863825 -0.123488255 0.18899012 0.04397541 -0.1095964 -0.09817509 -0.09503593 0.09759592
-0.031133141 -0.02084964 0.0021859535 0.17046075 0.028339775 -0.09570642 -0.05660687 -0.11381652
0.11746494 0.11905712 0.013956389 -0.019607004 0.1441474 -0.031431187 0.13451988 0.085255384
-0.08422544 -0.014686485 0.050975658 -0.09782117 0.046793614 -0.057429254 -0.49127677 0.25480422
0.04176072 -0.07728534 -0.030368857 -0.024342805 0.20178531 0.18843485 0.103338964 -0.0011439259
0.14828072 0.06281348 0.1938358 0.17634062 0.059678506 -0.039887637 0.10306059 0.056336544
-0.10665092 -0.049440823 -0.012429636 0.06619753 0.029094828 0.20254163 0.013363565 0.024879929
-0.03611424 0.04879131 -0.08873878 -0.10834478 -0.0022507482 -0.05927213 -0.052614827 0.2076726
-0.055887084 0.090221524 -0.0046259146 0.058461968 -0.17056006 -0.12958066 0.058244582 0.025321763
0.013293916 0.1789695 -0.0016372808 0.11721642 -0.06189908 -0.020884218 0.008536868 0.032859594
-0.0548267 -0.16988257 -0.050755803 0.0018270252 0.1588087 0.46282247 0.036162857 0.03955055
0.10756375 0.013156991 -0.06591709 -0.022507746 -0.039337706 0.079671465 -0.017212642 0.16909692
0.11856949 0.031619906 -0.20968561 -0.08248592 0.25643796 0.17960362 0.018537514 -0.02367639
0.21653132 0.038949247 0.30836284 0.12038847 -0.05631992 -0.089942336 0.17454451 0.030368354
-0.06462307 -0.029429203 -0.052147552 -0.07353347 0.09448511 0.11890566 0.0466094 -0.008266591
-0.00048982416 0.022575494 0.05179571 0.14428432 0.01376089 -0.045377586 0.008005585 0.20834398
0.025281807 -0.0742041 0.040166758 0.051631853 0.10938111 -0.07479531 -0.104304545 -0.145974
0.112413056 0.06016299 -0.09292421 0.10206527 -0.011435084 -0.01868931 -0.14936024 -0.013322589
0.012872114 -0.17801815 -0.12896793 0.07158895 0.086012304 0.06156904 0.037446365 0.14036836
-0.06218871 0.0397742 -0.093571335 0.06025586 0.095972754 -0.060131717 0.25341344 0.18968405
-0.064313516 -0.004375405 -0.047934562 0.13921794 0.14695308 0.09344197 -0.051878087 -0.03635795
0.017016824 -0.11712616 0.16982748 0.1084232 -0.08089253 -0.004567876 -0.10301588 -0.010166584
-0.022815252 0.05268956 0.07637801 0.036335144 0.15053296 0.1510053 -0.033826403 -0.09967183
-0.14561701 0.066686675 -0.04737228 -0.01207843 0.052877385 -0.053606916 0.0071288208 0.04492743
-0.12053377 0.20096324 0.03341847 -0.032931995 0.12326783 -0.11295883 -0.08769671 0.0020266904
0.07890949 0.18615168 0.004743127 0.13869172 0.041625634 -0.17252469 -0.08742126 -0.0895168
-0.09583837 -0.08004642 -0.090416774 -0.07528425 0.14183007 0.40888757 0.13504423 0.10234819
0.019876169 0.04076592 -0.005649725 -0.09893015 0.00049557484 -0.041226663 0.1334721 0.3009352
0.1578289 0.09706464 0.037141636 -0.008453226 0.15222181 -0.0061191837 0.062905885 -0.03563011
0.06014306 -0.08041226 0.27012107 0.07514867 0.05170906 -0.0026950801 0.027025733 -0.030463219
0.061172467 0.005831559 0.0770487 -0.05722288 -0.19328992 -0.008905638 0.13423803 -0.0021899873
00000000: c853 17bc ef03 833d 41c6 5abd 2f4b adbc
00000010: 16c9 a63c 5935 a1bb c267 1abd e1d1 163e
00000020: 4fe9 b03d 69e7 fcbd a086 413e 8f1f 343d
00000030: 1474 e0bd 0610 c9bd 33a2 c2bd 5fe0 c73d
00000040: ee0a ffbc ddcc aabc 3742 0f3b 438d 2e3e
00000050: d128 e83c ba01 c4bd 9bdc 67bd a318 e9bd
00000060: 7591 f03d 38d4 f33d 57a9 643c de9e a0bc
00000070: 609b 133e fdbd 00bd 94bf 093e 609a ae3d
00000080: 637e acbd 959f 70bc dacb 503d 7756 c8bd
00000090: a9aa 3f3d f03a 6bbd a188 fbbe b375 823e
000000a0: 4a0d 2b3d c747 9ebd 1cc8 f8bc 906a c7bc
000000b0: cfa0 4e3e 11f5 403e 61a3 d33d c9ef 95ba
000000c0: e7d6 173e 5ba4 803d e47c 463e a392 343e
000000d0: 7371 743d 3861 23bd 6e11 d33d 26c1 663d
000000e0: cc6b dabd 7682 4abd aca5 4bbc 9292 873d
000000f0: 4758 ee3c 1367 4f3e dbf2 5a3c fed0 cb3c
00000100: 86ec 13bd 66d9 473d adbc b5bd dee3 ddbd
00000110: 4a81 13bb 55c7 72bd a582 57bd 20a8 543e
00000120: dbe9 64bd 10c6 b83d fc94 97bb d175 6f3d
00000130: 4ca7 2ebe cbb0 04be df91 6e3d 966f cf3c
00000140: bace 593c c843 373e 079a d6ba 2a0f f03d
00000150: e489 7dbd 6115 abbc 38de 0b3c c897 063d
00000160: f691 60bd b2f5 2dbe 51e5 4fbd cb78 ef3a
00000170: bf9e 223e 11f7 ec3e 811f 143d c2ff 213d
00000180: 624a dc3d 6c90 573c 8aff 86bd 2a62 b8bc
00000190: 9320 21bd cb2a a33d 8701 8dbc be27 2d3e
000001a0: 90d4 f23d e083 013d d3b7 56be 61ee a8bd
000001b0: d64b 833e 03ea 373e fcdb 973c fdf4 c1bc
000001c0: 63ba 5d3e 3f89 1f3d bce1 9d3e 3b8e f63d
000001d0: b7af 66bd b033 b8bd ccbb 323e 0ec7 f83c
000001e0: 1a59 84bd 8315 f1bc ac98 55bd b798 96bd
000001f0: 6981 c13d d084 f33d 80e9 3e3d 9870 07bc
00000200: 8b67 00ba 3ef0 b83c bd27 543d 45bf 133e
00000210: 5b75 613c d9dd 39bd db29 033c 2058 553e
00000220: cb1b cf3c 52f8 97bd e685 243d ec7b 533d
00000230: 3403 e03d 492e 99bd 9f9d d5bd 357a 15be
00000240: d138 e63d 786d 763d 0c4f bebd 9907 d13d
00000250: 385a 3bbc 531a 99bc e4f1 18be fd46 5abc
00000260: 8fe5 523c 644a 36be 2b10 04be 3a9d 923d
00000270: 3827 b03d d12f 7c3d 5c61 193d b9bc 0f3e
00000280: 97b9 7ebd 46ea 223d 54a2 bfbd d9ce 763d
00000290: 5d8d c43d ad4c 76bd 68bf 813e 893c 423e
000002a0: ceb6 83bd 8f5f 8fbb 0857 44bd 268f 0e3e
000002b0: de7a 163e 815e bf3d 1e7e 54bd 13ec 14bd
000002c0: de66 8b3c d7df efbd 41e7 2d3e fc0c de3d
000002d0: fcaa a5bd 1fae 95bb fdf9 d2bd be91 26bc
000002e0: 0de7 babc 02d1 573d 136c 9c3d 29d4 143d
000002f0: 5025 1a3e 22a1 1a3e 8e8d 0abd bf20 ccbd
00000300: a01c 15be 0693 883d 7009 42bd 9be4 45bc
00000310: f595 583d ed92 5bbd e298 e93b d305 383d
00000320: 69da f6bd 4fc9 4d3e cee1 083d b3e3 06bd
00000330: d873 fc3d f656 e7bd 559a b3bd 39d2 043b
00000340: 4c9b a13d 8c9e 3e3e 3c6c 9b3b 3405 0e3e
00000350: a47f 2a3d 50aa 30be eb09 b3bd 9654 b7bd
00000360: e846 c4bd 61ef a3bd 6e2c b9bd a12e 9abd
00000370: e73b 113e b659 d13e 0949 0a3e ee9b d13d
00000380: 59d3 a23c 2afa 263d 5421 b9bb e49b cabd
00000390: 77e9 013a 4add 28bd e9ac 083e 2e14 9a3e
000003a0: e69d 213e d3c9 c63d d421 183d 667f 0abc
000003b0: 09e0 1b3e 6f83 c8bb cdd4 803d e1f0 11bd
000003c0: 9258 763d 2faf a4bd 4f4d 8a3e 8ce7 993d
000003d0: e1cc 533d f19f 30bb 1265 dd3c 008e f9bc
000003e0: fb8f 7a3d aa16 bf3b b5cb 9d3d 8a62 6abd
000003f0: cbed 45be f4e8 11bc b275 093e e485 0fbb

conditioner.fc2.bias f4 [160]
-0.20823474 -0.13371438 -0.102886155 -0.10083075 -0.17442079 -0.19456625 -0.16132304 0.011236306
-0.12367234 0.005015355 -0.029645853 0.01661794 -0.1292816 -0.116982475 -0.22408989 -0.035557408
-0.018970683 -0.18236093 -0.18924955 -0.17679054 -0.2580263 -0.28574857 -0.07881116 -0.2070814
0.036022928 -0.04352581 -0.02150496 -0.11431109 -0.012983086 -0.21900566 -0.15005375 0.049011864
-0.8423654 -0.6933887 -0.77806735 0.8052762 0.7880492 -0.13471156 0.79733104 -0.030977992
0.8065649 -0.20820859 -0.19905998 -1.075397 0.61392695 0.8040364 -0.0492986 -0.8929597
0.5807205 -0.36451077 -0.055370513 0.819799 0.6781505 0.6876113 -0.878955 -0.14651309
-1.0193957 -0.037121966 -0.16327666 -0.90599436 -0.7736058 -0.28921843 0.79557896 0.83269846
0.76390016 -0.03550649 -0.78152305 0.8984859 0.9343126 -0.17744231 -0.13913907 -0.15505128
0.64024895 0.8572042 -0.75489116 -1.0538033 0.50175345 -0.013323964 0.7975533 0.8447313
-0.09803369 -0.19568123 -0.16687961 0.7298118 -0.82633233 0.7559447 0.4610472 0.71004933
0.80547667 -0.21178001 0.88698894 -1.0462534 -0.07442483 -0.117388174 0.87796485 -1.0554776
-0.3886355 -0.3159745 -0.4285878 -0.12748048 -0.36979383 -0.23798314 -0.26063213 -0.25464427
-0.47008196 -0.07453073 -0.33108017 -0.20602052 -0.3841802 -0.32191578 -0.1428297 -0.44480968
-0.25331596 -0.20883583 -0.4070158 -0.24665755 -0.2969471 -0.33163014 -0.29141945 -0.3110883
-0.29571494 -0.21169624 -0.37012583 -0.22497788 -0.34610012 -0.25709552 -0.1225201 -0.3218204
-0.25819117 -0.28184596 -0.35107213 -0.37977573 -0.27126172 -0.1488379 -0.32908794 -0.17530513
-0.35709986 -0.15270786 -0.36299583 -0.47231752 -0.34091014 -0.26461726 -0.19183934 -0.33914354
-0.29683697 -0.26675418 -0.18927681 -0.26899028 -0.4117397 -0.18298566 -0.21397981 -0.23329505
-0.4319988 -0.20982516 -0.22876139 -0.36532846 -0.17571676 -0.06621836 -0.16296893 -0.14643562
00000000: 7d3b 55be 6cec 08be fab5 d2bd 5a80 cebd
00000010: 5d9b 32be 603c 47be de31 25be 7c18 383c
00000020: ec47 fdbd d957 a43b dcdb f2bc 5922 883c
00000030: 6562 04be 8294 efbd d277 65be a5a4 11bd
00000040: 6868 9bbc d3bc 3abe a2ca 41be 9408 35be
00000050: 061c 84be a34d 92be bf67 a1bd 260d 54be
00000060: c78c 133d 1f48 32bd 2b2b b0bc ef1b eabd
00000070: 02b7 54bc 0543 60be b1a7 19be aac0 483d
00000080: 42a5 57bf ec81 31bf 6c2f 47bf 9526 4e3f
00000090: 98bd 493f d4f1 09be e31d 4c3f 8fc5 fdbc
000000a0: 0a7b 4e3f a234 55be 61d6 4bbe 9ca6 89bf
000000b0: 512a 1d3f 54d5 4d3f 54ed 49bd 0299 64bf
000000c0: 19aa 143f 28a1 babe 31cc 62bd 59de 513f
000000d0: 459b 2d3f 4b07 303f 3203 61bf 8707 16be
000000e0: 8f7b 82bf 340d 18bd ff31 27be 3fef 67bf
000000f0: 080b 46bf 7014 94be 10ab 4b3f ba2b 553f
00000100: f68e 433f 416f 11bd e511 48bf 2c03 663f
00000110: 1c2f 6f3f 70b3 35be 797a 0ebe c3c5 1ebe
00000120: 5be7 233f bc71 5b3f 8c40 41bf 07e3 86bf
00000130: ea72 003f c14c 5abc 742c 4c3f 4f40 583f
00000140: e3c5 c8bd a960 48be 7de2 2abe f2d4 3a3f
00000150: 848a 53bf 9885 413f 610e ec3e cbc5 353f
00000160: b833 4e3f dcdc 58be b511 633f a2eb 85bf
00000170: 0c6c 98bd 3669 f0bd 4ec2 603f e419 87bf
00000180: 3bfb c6be 69c7 a1be dc6f dbbe 3e8a 02be
00000190: 9e55 bdbe dab1 73be 9371 85be bc60 82be
000001a0: 95ae f0be 91a3 98bd 5783 a9be 0bf7 52be
000001b0: 44b3 c4be 25d2 a4be f341 12be 18be e3be
000001c0: a1b2 81be 0fd9 55be 6064 d0be cc93 7cbe
000001d0: 7309 98be 6dcb a9be ee34 95be f746 9fbe
000001e0: f367 97be e6c6 58be 2281 bdbe 9a60 66be
000001f0: 0934 b1be 06a2 83be d1eb fabd a5c5 a4be
00000200: a231 84be 1d4e 90be babf b3be f771 c2be
00000210: d1e2 8abe f668 18be 377e a8be 3083 33be
00000220: cbd5 b6be 735f 1cbe 97da b9be 9ad3 f1be
00000230: c68b aebe ea7b 87be 8871 44be 39a4 adbe
00000240: 04fb 97be 0194 88be c8d1 41be 18b9 89be
00000250: 8ccf d2be 9860 3bbe 861d 5bbe e6e4 6ebe
00000260: f22e ddbe 68dc 56be 6d40 6abe 550c bbbe
00000270: 18ef 33be 7e9d 87bd 54e1 26be 38f3 15be
