parametric_qst/tfim_4x4_multi_suscept/models_viet/hyprbm_tfim_4x4_20000_suscept_seed48_20260123_014432.pt (torch, 51418 bytes, 7 tensors)

W f4 [16, 64]
-0.00014610721 -0.028325103 -0.008309152 0.29011017 -0.004104735 -0.008025671 -0.0036725341 -0.023792736
-0.0117164375 -0.008077513 0.014896799 -0.0035413094 0.0010221004 -0.23733985 1.9642684 0.71113133
-0.052192673 -0.012098911 0.002734452 0.4448622 0.013079879 -0.015872547 0.044594403 -0.0016399474
0.36415336 0.0271209 0.3517029 -0.09607574 -0.008281844 -0.013679897 0.0052144285 -0.21004085
-0.1552866 -0.022004368 0.38074157 0.013719584 0.11009981 -0.1592686 0.03652593 -0.4443645
-0.42898262 0.012358788 -0.02766467 0.00715203 0.22016534 -0.056574937 0.012841471 -0.01311632
-0.04448312 -0.163284 0.039378315 -0.3339597 -0.18722543 -0.011293778 0.19344486 0.38937655
-0.028491657 -0.017641477 0.007130254 0.61868465 0.18837777 -0.020491011 -0.011900748 -0.03306951
0.08436355 0.01998326 0.06198949 1.045643 0.006454443 0.005521371 0.048816964 0.06264209
0.017847411 0.059569724 0.021969965 0.06241717 0.077533744 -0.12326573 1.2392386 0.7802789
-0.0942161 -0.0003992497 0.07225536 0.74939895 0.06423042 0.024774404 0.040523995 0.053622767
0.11879284 -0.056818146 -0.69808006 0.35056403 0.030700715 0.047422152 0.07151647 0.19404513
0.043246057 0.04858647 0.40086797 0.07023533 0.2566891 -0.019197814 0.07665676 0.42557427
0.49446777 0.055870954 0.03400698 0.033357285 -0.6733446 -0.039398912 -0.088902585 0.03295618
-0.014117707 0.10343215 -0.23196572 -0.0021076018 0.016398882 0.0041685062 -0.4324682 0.23225799
0.047683284 0.044693097 0.0706342 0.26645413 -0.24185485 0.036996286 0.047305807 0.030268058
0.050725758 0.054709926 0.057056744 -0.012661836 -0.03447825 -0.014725176 0.037490092 0.06386647
0.009623642 0.029002536 -0.0030291188 0.038979627 0.052609723 0.04955928 0.38893998 0.6934685
-0.09682317 -0.043921802 0.048712377 1.210614 0.04770518 0.0066794683 0.04059119 0.018349433
0.22780061 0.8242291 0.056765754 -0.26234972 0.023986671 0.023432968 0.04094485 0.25558028
0.37396386 0.021794774 0.26133642 0.041152757 0.38161987 -0.054929554 0.050722145 0.3559466
0.89897436 0.032742374 0.011004838 0.021871557 -1.2876841 -0.06592684 -0.090369195 0.02507782
-0.016738448 0.51013356 0.024318531 0.10101722 0.38136137 0.0066165323 -0.12546852 0.16432858
0.033532165 0.031090282 0.039031785 0.41659734 0.4860499 0.048502095 0.036981225 0.005457276
0.054218654 -0.05341384 0.009375693 -0.31343603 -0.004159043 -0.0062543713 0.014011668 0.015863884
0.0015097762 -0.010073623 -0.01002096 0.051332694 0.06521247 -0.13772956 0.7424281 0.4312702
-0.027742941 -0.045215286 0.057311665 0.67144704 0.057054922 -0.0034917786 0.047650978 0.022010531
0.21853805 1.3563824 0.19918837 0.43866798 -0.046238963 -0.019015357 0.05651471 0.009476814
-0.57087713 -0.02560033 0.15735161 0.034081046 0.12345359 0.05773337 0.07666582 -0.10284099
-0.42778683 0.03303142 -0.03443264 0.016234243 -0.055026237 -0.035581212 -0.07739155 -0.008656252
-0.024907595 0.19831365 0.308522 -0.15599099 -0.2588418 -0.0024902583 -0.19002485 0.25998482
-0.03263555 -0.018736796 0.03958005 0.94297206 0.98383707 -0.0096201245 0.011350846 -0.029677793
00000000: 5b34 19b9 0c0a e8bc 1c23 08bc 5289 943e
00000010: 0381 86bb 1b7e 03bc e6ae 70bb fce8 c2bc
00000020: 4df6 3fbc 8c57 04bc b411 743c 5015 68bb
00000030: 00f8 853a 3809 73be 266d fb3f b40c 363f
00000040: fcc7 55bd 833a 46bc 7e34 333b fac4 e33e
00000050: fd4c 563c 2507 82bc 9fa8 363d 81f3 d6ba
00000060: 4f72 ba3e a62c de3c 6712 b43e 5cc3 c4bd
00000070: 92b0 07bc a621 60bc ccdd aa3b f314 57be
00000080: 7303 1fbe 8142 b4bc 8ff0 c23e 1bc8 603c
00000090: 027c e13d 4f17 23be 379c 153d be83 e3be
000000a0: 9ca3 dbbe 847c 4a3c 05a1 e2bc 935b ea3b
000000b0: 0673 613e 1fbb 67bd 0865 523c d5e5 56bc
000000c0: ef33 36bd ec33 27be 284b 213d c4fc aabe
000000d0: 06b8 3fbe 8a09 39bc 6916 463e 5d5c c73e
000000e0: 5667 e9bc dc84 90bc e8a4 e93b 1e62 1e3f
000000f0: 1ae6 403e c4dc a7bc 5bfb 42bc e573 07bd
00000100: ccc6 ac3d efb3 a33c b1e8 7d3d a1d7 853f
00000110: cb7f d33b 9eec b43b 4cf4 473d 7f4a 803d
00000120: bc34 923c 62ff 733d 5bfa b33c 25a9 7f3d
00000130: 03ca 9e3d be72 fcbd 5f9f 9e3f 5cc0 473f
00000140: 5ff4 c0bd 6352 d1b9 9efa 933d 9cd8 3f3f
00000150: 3d8b 833d b1f3 ca3c 7dfc 253d 8ca3 5b3d
00000160: a949 f33d 25ba 68bd 60b5 32bf 217d b33e
00000170: 1180 fb3c bb3d 423d 3a77 923d c4b3 463e
00000180: c722 313d 9b02 473d 913e cd3e 8ad7 8f3d
00000190: c16c 833e bc44 9dbc 38fe 9c3d dfe4 d93e
000001a0: e12a fd3e f1d8 643d e74a 0b3d a6a1 083d
000001b0: 5060 2cbf c160 21bd 8f12 b6bd 0ffd 063d
000001c0: f44d 67bc 3cd4 d33d 6c88 6dbe b11f 0abb
000001d0: f356 863c f797 883b 796c ddbe 0ad5 6d3e
000001e0: 8c4f 433d 1c10 373d aaa8 903d ad6c 883e
000001f0: cca8 77be 6b89 173d bcc3 413d b8f4 f73c
00000200: d0c5 4f3d 8417 603d 55b4 693d 9773 4fbc
00000210: 1139 0dbd dd41 71bc 368f 193d 6ccc 823d
00000220: 7bac 1d3c ba96 ed3c 2e84 46bb 1aa9 1f3d
00000230: 4b7d 573d acfe 4a3d 2423 c73e 2787 313f
00000240: 3a4b c6bd 59e7 33bd a186 473d 66f5 9a3f
00000250: 8266 433d 71df da3b f342 263d 8d51 963c
00000260: 9044 693e ae00 533f 3583 683d b452 86be
00000270: b27f c43c 7ff6 bf3c c9b5 273d 6bdb 823e
00000280: 3178 bf3e f48a b23c e3cd 853e cb8f 283d
00000290: ae63 c33e d0fd 60bd 06c2 4f3d a23e b63e
000002a0: 2f23 663f de1c 063d a34d 343c fb2b b33c
000002b0: d5d2 a4bf a704 87bd 7c13 b9bd 0070 cd3c
000002c0: 121f 89bc 1d98 023f a837 c73c 1ee2 ce3d
000002d0: cc41 c33e 7fcf d83b d27a 00be c045 283e
000002e0: 0659 093d 0cb1 fe3c cbdf 1f3d 3f4c d53e
000002f0: 88db f83e 22aa 463d a079 173d f3d2 b23b
00000300: 6114 5e3d 78c8 5abd 829c 193c b07a a0be
00000310: 9548 88bb 78f1 ccbb 3291 653c faf4 813c
00000320: afe3 c53a d60b 25bc f42e 24bc 3b42 523d
00000330: 1e8e 853d fa08 0dbe c50f 3e3f 73cf dc3e
00000340: 2a45 e3bc aa33 39bd a3bf 6a3d f4e3 2b3f
00000350: 6cb2 693d 53d6 64bb ac2d 433d 6e4f b43c
00000360: 70c8 5f3e f09d ad3f 09f8 4b3e 1799 e03e
00000370: 1165 3dbd 18c6 9bbc f87b 673d a444 1b3c
00000380: 0125 12bf c9b7 d1bc c820 213e 9198 0b3d
00000390: 3cd5 fc3d d479 6c3d f802 9d3d 4c9e d2bd
000003a0: e006 dbbe f44b 073d 3d09 0dbd adfd 843c
000003b0: 3163 61bd 9bbd 11bd 767f 9ebd f4d2 0dbc
000003c0: 030b ccbc bc12 4b3e 98f6 9d3e 1abc 1fbe
000003d0: ea86 84be 9a33 23bb e095 42be bb1c 853e
000003e0: dbac 05bd e97d 99bc b11e 223d 9e66 713f
000003f0: bfdc 7b3f ba9d 1dbc e6f8 393c d81e f3bc

b f4 [16]
-0.0034177084 0.00191501 0.007870632 -0.0079194885 0.017639868 0.00039524765 -0.010389566 0.00034991527
-0.0047648693 -0.010956603 0.0015990451 -0.0012256406 0.00019355981 0.0036161386 0.0050617526 0.0015519354
00000000: a2fb 5fbb 1301 fb3a d3f3 003c bec0 01bc
00000010: 7c81 903c 3e39 cf39 0039 2abc d574 b739
00000020: 9f22 9cbb 5383 33bc 0d97 d13a ada5 a0ba
00000030: 51f6 4a39 bdfc 6c3b 0fdd a53b 506a cb3a

c f4 [64]
0.59452015 -0.15871257 -0.37675253 0.00027203702 0.4905245 0.4548206 0.507876 -0.5819014
0.56561035 0.42263123 0.4672208 0.5758041 0.60971117 -0.030221093 0.0016173073 0.39736935
-0.010320544 -0.46009183 0.5545977 -0.0012897798 0.61243665 0.5200994 0.553592 0.5463778
-0.00096316036 -0.0068442803 0.009284121 0.013590472 -0.33138102 0.45155174 0.5773465 0.004257453
-0.02758777 -0.36819708 2.785938e-05 0.66435474 8.5408254e-05 -0.0034018634 0.61284226 -0.0054122237
-0.012462041 0.53646386 -0.37002292 0.5111362 -0.0035134675 0.31815758 -0.0072528915 0.44159806
0.44573694 -0.016472178 -0.0018124343 -0.008863495 -0.0016954129 0.4965418 -0.008707286 -0.021987058
0.35360676 0.38687995 0.5912763 0.0005356832 -0.00011001731 -0.58612007 0.44895962 -0.42522582
00000000: 7932 183f 8c85 22be b5e5 c0be 31a0 8e39
00000010: 0726 fb3e 3fde e83e 2904 023f 7df7 14bf
00000020: d7cb 103f 1f63 d83e 9137 ef3e e667 133f
00000030: 0816 1c3f 3a92 f7bc d4fb d33a ff73 cb3e
00000040: 8017 29bc 2891 ebbe 1dfa 0d3f d40d a9ba
00000050: a6c8 1c3f 3c25 053f 35b8 0d3f 6adf 0b3f
00000060: 997c 7cba fc45 e0bb 6d1c 183c 92aa 5e3c
00000070: c6aa a9be ca31 e73e fbcc 133f 1b82 8b3b
00000080: bfff e1bc 5484 bcbe 90b3 e937 2713 2a3f
00000090: 351d b338 ccf1 5ebb 3be3 1c3f 0659 b1bb
000000a0: 972d 4cbc b255 093f a573 bdbe d2d9 023f
000000b0: 3442 66bb 8de5 a23e aaa9 edbb 2419 e23e
000000c0: a237 e43e a9f0 86bc 348f edba 3138 11bc
000000d0: 9e38 deba ba3a fe3e 01a9 0ebc 341e b4bc
000000e0: f20b b53e 2115 c63e e25d 173f 176d 0c3a
000000f0: 18b9 e6b8 f70b 16bf 09de e53e 33b7 d9be

conditioner.fc1.weight f4 [64, 1]
0.011038834 -0.5634727 -0.61300963 -0.09475613 0.93236536 0.23708159 0.31889313 0.0038833537
-0.023945382 0.058822118 -0.82233787 0.005588177 0.015579299 0.12060114 -0.015049096 0.15398441
-0.010889169 0.031399675 -0.265903 -0.004918531 0.13754879 -0.8517765 0.019770859 -0.02718442
0.62985677 0.029544525 -0.0030047975 0.008842673 0.69239527 0.2810013 0.11942661 0.077907786
0.052847337 -0.7308023 -0.19763467 -0.075800866 0.90609914 0.78039646 -0.0029923012 -0.027417155
-0.027493123 -0.051817577 -0.045187175 -0.04581359 0.8315442 1.1142833 0.11688783 -0.0063209194
-0.0095490385 0.27570197 0.013616916 -0.084068015 0.08563551 -0.013668729 -0.7498675 0.057527978
-0.07250641 0.053324323 -0.0058997553 -0.01596851 0.06266137 -0.056328394 0.3439494 -0.6190359
00000000: 3adc 343c bf3f 10bf 33ee 1cbf 800f c2bd
00000010: 7faf 6e3f 84c5 723e f645 a33e dd7f 7e3b
00000020: 1b29 c4bc 76ef 703d bc84 52bf 071d b73b
00000030: 5140 7f3c bbfd f63d 7c90 76bc 17ae 1d3e
00000040: 7c68 32bc f29c 003d 7024 88be a12b a1bb
00000050: 97d9 0c3e 060e 5abf 7ff6 a13c dcb1 debc
00000060: 4b3e 213f 5c07 f23c 23ec 44bb dce0 103c
00000070: d140 313f 67df 8f3e f095 f43d 1e8e 9f3d
00000080: 7376 583d dc15 3bbf be60 4abe 7c3d 9bbd
00000090: 1df6 673f 10c8 473f 7c1a 44bb f199 e0bc
000000a0: 4239 e1bc ab3e 54bd 3016 39bd 08a7 3bbd
000000b0: 15e0 543f d6a0 8e3f e362 ef3d b71f cfbb
000000c0: 9273 1cbc cf28 8d3e 7c19 5f3c da2b acbd
000000d0: ac61 af3d cef2 5fbc 51f7 3fbf 75a2 6b3d
000000e0: 3e7e 94bd 9b6a 5a3d bc52 c1bb 65d0 82bc
000000f0: 9b54 803d 9ab8 66bd 231a b03e 2379 1ebf

conditioner.fc1.bias f4 [64]
0.00986182 0.7180898 0.74088454 0.29772693 0.33884102 -0.64310503 -0.88655245 0.021557674
0.016090538 -0.1501753 0.3046072 0.0010479436 0.00013611648 -0.35215947 -0.018650126 -0.37398788
-0.0011639978 -0.095548645 0.72964305 -0.011473609 -0.3752072 0.9054492 0.023327406 0.035935294
-0.705981 -0.007623752 0.0018091263 -0.010805344 -0.8224426 -0.7661396 -0.34258726 -0.19343369
-0.106271684 0.13707153 0.5389925 0.17045693 -0.43509683 -0.19502582 -0.010861956 0.04458205
0.047632385 0.12023276 0.086381756 0.080425866 -0.27029964 -0.36784086 -0.3047804 -0.0057316935
-0.011093815 -0.11995525 -0.033963222 0.19400483 -0.24869435 -0.02112782 0.9456358 -0.11144621
0.15160622 -0.08697407 0.0005673357 -0.003952778 -0.18875161 0.12939002 -0.69928664 0.7875703
00000000: 7993 213c bcd4 373f 9caa 3d3f aa6f 983e
00000010: 927c ad3e 88a2 24bf 1af5 62bf b899 b03c
00000020: 4ed0 833c 8ec7 19be 7af5 9b3e 275b 893a
00000030: 7dba 0e39 3f4e b4be 26c8 98bc 577b bfbe
00000040: 4991 98ba 02af c3bd e3c9 3a3f cefb 3bbc
00000050: 281b c0be 85cb 673f 1e19 bf3c e330 133d
00000060: 2cbb 34bf abd0 f9bb 3520 ed3a e608 31bc
00000070: 998b 52bf ba21 44bf 9967 afbe 7b13 46be
00000080: f8a4 d9bd 7b5c 0c3e 6afb 093f 438c 2e3e
00000090: 03c5 debe d9b4 47be 58f6 31bc ab9b 363d
000000a0: 2d1a 433d 983c f63d ebe8 b03d 51b6 a43d
000000b0: b764 8abe a355 bcbe 2d0c 9cbe eed0 bbbb
000000c0: d5c2 35bc 19ab f5bd 051d 0bbd 34a9 463e
000000d0: bba9 7ebe 4014 adbc 3015 723f e93d e4bd
000000e0: a93e 1b3e 761f b2bd 41b9 143a 4e86 81bb
000000f0: 1a48 41be d17e 043e 7304 33bf 359e 493f

conditioner.fc2.weight f4 [160, 64]
-0.10766706 0.10688049 0.0698856 -0.012741729 -0.14365324 0.016712375 0.18673582 -0.0025577922
-0.03736767 -0.11481009 0.1234463 0.09807836 0.056558747 -0.18015113 0.06834428 -0.011553987
-0.018489184 -0.08624495 -0.23729156 -0.1417154 0.039753836 -0.010113562 0.022159943 0.042483654
-0.100095086 0.11445391 0.03769499 0.02947112 0.06336507 0.2627608 -0.02861073 0.10796068
0.07191449 0.20411675 0.06594902 0.0023527397 -0.23673312 -0.045984227 0.15471384 -0.062429104
-0.10114357 0.11504428 -0.07957262 0.041212853 -0.0118468655 -0.028576141 -0.056604266 0.049957488
-0.20941167 -0.08336113 -0.046963133 -0.11102776 -0.15020064 -0.15893184 -0.031259764 0.03569377
-0.027406324 0.13416389 0.051383346 -0.0731277 0.010769595 -0.070115216 0.025981493 0.0049427114
-0.23301873 0.0652009 0.24298106 0.071869545 -0.02220156 0.16050486 0.36331335 -0.023099558
-0.09526806 0.009612211 0.17942216 -0.17884097 0.0829637 0.005493002 0.06297037 0.13655163
0.073889636 -0.12191588 -0.38346702 -0.031001732 -0.027428724 0.09380208 -0.08583681 -0.022020224
0.02667351 -0.10779011 0.0880747 -0.14703731 -0.007238148 0.27735355 -0.0735363 0.11016692
-0.059187353 0.058198914 0.07014319 -0.10911108 -0.1364413 -0.080857925 0.22451484 0.0028816913
-0.03160448 -0.03825289 -0.152995 -0.085795015 -0.019648675 -0.035207983 0.014223708 -0.4065108
-0.06876459 -0.20029452 -0.033511702 -0.13138542 -0.09174124 0.045339838 0.028143145 -0.010757957
-0.07012066 0.11434932 -0.6406748 0.020332282 -0.09786195 -0.122869715 -0.1652291 0.041648544
0.24042116 0.056442328 -0.026973737 0.014243882 -0.092410706 0.1668808 0.23726226 -0.15978323
0.0145801455 -0.08066034 0.002413579 0.055291895 0.10350286 -0.018329227 -0.35597333 0.087197736
0.11475733 0.020945378 -0.17755608 -0.06160073 0.038018327 -0.022562332 0.223565 -0.1719434
-0.11168886 -0.037049998 0.0009551004 -0.08802664 0.03518267 0.04626329 -0.015593305 0.11846984
0.015065587 0.14161234 0.04164045 -0.06141773 -0.21296903 -0.19191946 -0.061311446 0.0061623184
-0.1743257 0.056168433 -0.027757337 -0.052921567 -0.2155913 -0.018383125 0.068681814 0.025637068
-0.2248893 -0.100905605 0.040802624 0.010818251 -0.0646691 -0.080155 0.17540781 0.10795522
-0.09010396 0.10594925 0.3050385 -0.051677577 -0.09168032 -0.045595743 -0.03556735 -0.07560954
-0.08790271 -0.06752505 0.1405324 0.1286452 -0.1584471 0.08182432 0.28155962 -0.14407183
-0.14933357 0.02335412 -0.04016637 0.034561224 -0.04877088 -0.06090399 0.055477623 0.016210169
0.020719836 -0.1602128 -0.1984875 -0.026375905 0.07796446 0.033930637 0.048007987 0.05099921
-0.009552188 0.034349326 -0.061151676 -0.09024369 -0.12857719 0.2269315 -0.09187232 0.0375193
-0.05716392 0.09884672 -0.08031472 0.051827494 -0.08431854 -0.09791197 -0.11808707 -0.029093001
-0.13640778 0.084729955 -0.106986016 0.045118507 -0.123478234 0.029835915 -0.026696142 -0.13106094
-0.10579824 -0.19462161 0.035313483 0.07157907 -0.10762005 0.034877237 0.050410096 0.1308382
0.021848347 0.13551687 -0.148155 0.008470772 -0.052291673 -0.20006846 -0.085083745 0.07889656
00000000: 8c80 dcbd 29e4 da3d 2e20 8f3d afc2 50bc
00000010: d619 13be 64e8 883c ad37 3f3e a2a0 27bb
00000020: d80e 19bd 8d21 ebbd 6ad1 fc3d 4fdd c83d
00000030: 25aa 673d 8a79 38be 16f8 8b3d ef4c 3dbc
00000040: a176 97bc 31a1 b0bd 8ffc 72be d81d 11be
00000050: ebd4 223d 5bb3 25bc c588 b53c 5703 2e3d
00000060: a7fe ccbd d066 ea3d 1066 1a3d 6b6d f13c
00000070: 8cc5 813d 9588 863e 0d61 eabc 7d1a dd3d
00000080: e747 933d fb03 513e 4810 873d 6c30 1a3b
00000090: 2b6a 72be f559 3cbd 4e6d 1e3e a9b5 7fbd
000000a0: 5c24 cfbd 569c eb3d f8f6 a2bd cfce 283d
000000b0: 5b19 42bc 8318 eabc e0d9 67bd 39a0 4c3d
000000c0: 0370 56be 3db9 aabd 6a5c 40bd 8662 e3bd
000000d0: 32ce 19be 07bf 22be 3d0a 00bd a133 123d
000000e0: 3a83 e0bc 4262 093e 5877 523d fac3 95bd
000000f0: f572 303c 9198 8fbd 24d7 d43c 78f6 a13b
00000100: 769c 6ebe 0d88 853d 07d0 783e 5730 933d
00000110: 0ce0 b5bc 635b 243e 3504 ba3e 493b bdbc
00000120: e71b c3bd 897c 1d3c 71ba 373e 1622 37be
00000130: dfe8 a93d a4fe b33b 9cf6 803d 31d4 0b3e
00000140: 7353 973d 08af f9bd ca55 c4be 58f7 fdbc
00000150: 34b2 e0bc 4e1b c03d 36cb afbd c263 b4bc
00000160: 6882 da3c 10c1 dcbd 8260 b43d f390 16be
00000170: fc2d edbb 4901 8e3e 339a 96bd 329f e13d
00000180: 706e 72bd fc61 6e3d 3ca7 8f3d a175 dfbd
00000190: 45b7 0bbe d798 a5bd 38e7 653e c2da 3c3b
000001a0: b373 01bd 10af 1cbd b9aa 1cbe 4cb5 afbd
000001b0: 42f6 a0bc 3f36 10bd 8e0a 693c 2f22 d0be
000001c0: 73d4 8cbd 021a 4dbe 9143 09bd e689 06be
000001d0: d5e2 bbbd 44b6 393d 748c e63c 2442 30bc
000001e0: 6c9b 8fbd fa2f ea3d 4403 24bf e38f a63c
000001f0: d96b c8bd 1ea3 fbbd d131 29be aa97 2a3d
00000200: f730 763e 1230 673d 07f8 dcbc 2c5f 693c
00000210: d341 bdbd cde2 2a3e e1f4 723e 379e 23be
00000220: 90e1 6e3c 4031 a5bd 232d 1e3b c179 623d
00000230: 4ff9 d33d 2d27 96bc 2342 b6be ba94 b23d
00000240: e405 eb3d a495 ab3c 43d1 35be 0c51 7cbd
00000250: 1bb9 1b3d a4d4 b8bc 39ee 643e ee11 30be
00000260: 21bd e4bd bdc1 17bd b45f 7a3a 5047 b4bd
00000270: b41b 103d 937e 3d3d 107b 7fbc 51a0 f23d
00000280: a7d5 763c d302 113e 2d8f 2a3d 2891 7bbd
00000290: 8e14 5abe 8986 44be b621 7bbd 46ed c93b
000002a0: 7082 32be df10 663d 5b63 e3bc 49c4 58bd
000002b0: f7c3 5cbe 3598 96bc 0da9 8c3d d404 d23c
000002c0: 6149 66be 99a7 cebd a720 273d 093f 313c
000002d0: 3c71 84bd 4e28 a4bd 1b9e 333e a017 dd3d
000002e0: 6d88 b8bd ecfb d83d 022e 9c3e deab 53bd
000002f0: e4c2 bbbd 9ac2 3abd 12af 11bd 2dd9 9abd
00000300: 5606 b4bd 934a 8abd bae7 0f3e 91bb 033e
00000310: f53f 22be 8293 a73d 9528 903e 9187 13be
00000320: e6ea 18be 2451 bf3c 7e85 24bd 1290 0d3d
00000330: f9c3 47bd 7676 79bd 813c 633d 30cb 843c
00000340: a5bc a93c d30e 24be 4f40 4bbe 4812 d8bc
00000350: d5ab 9f3d dafa 0a3d 06a4 443d 8ce4 503d
00000360: c880 1cbc e1b1 0c3d 2e7a 7abd afd1 b8bd
00000370: bda9 03be bb60 683e 8e27 bcbd d6ad 193d
00000380: b724 6abd 2670 ca3d 0b7c a4bd 1149 543d
00000390: 33af acbd 1286 c8bd a2d7 f1bd 7254 eebc
000003a0: 7bae 0bbe e686 ad3d 7c1b dbbd 2fce 383d
000003b0: 28e2 fcbd 736a f43c deb1 dabc d734 06be
000003c0: bfac d8bd e34a 47be dfa4 103d 0c98 923d
000003d0: e767 dcbd 6fdb 0e3d d17a 4e3d 73fa 053e
000003e0: 4efb b23c efc4 0a3e f2b5 17be fec8 0a3c
000003f0: cb2f 56bd bfde 4cbe 6340 aebd 8594 a13d

conditioner.fc2.bias f4 [160]
-0.12521966 -0.07429883 -0.02174085 -0.17246333 -0.10565163 -0.10401246 -0.10999518 -0.14146936
-0.23018529 -0.14126582 -0.1623782 0.015042677 -0.10238719 -0.037977826 -0.036936685 -0.1448753
-0.040574428 0.009799423 -0.08791198 -0.111538164 0.016961325 -0.0100246295 -0.05726904 0.018713942
-0.22232473 -0.19373739 -0.14113894 -0.1985109 -0.02133568 -0.016688498 0.03235754 -0.10732233
-0.8574059 0.30105403 0.900946 -0.25972658 -1.0551807 -1.1871948 -1.144847 0.7313919
-1.1660964 -0.97927576 -1.0115134 -0.99651444 -0.6702373 -0.059583943 -0.063901134 -0.2958541
-0.12232086 1.1600538 -0.8396617 -0.155232 -0.79072213 -0.9887987 -0.79893243 -1.0535172
-0.13929696 -0.14052708 -0.360664 -0.33310872 0.8666756 -0.8898448 -0.8541198 -0.03914375
-0.16662323 0.8630377 -0.30128637 -0.80156326 -0.0003072329 -0.18721868 -0.7838696 -0.15670374
-0.022164548 -0.99454856 0.5759038 -1.1647682 -0.17787473 -0.75076663 -0.12183574 -1.072885
-1.3649204 -0.025172185 -0.1361421 -0.056824822 -0.28270862 -1.267351 -0.11301937 -0.21547134
-0.90998095 -0.9717357 -0.88468647 0.008382018 -0.06669958 0.8475154 -1.0016135 0.87627304
-0.31934786 -0.4505703 -0.24017192 -0.2916631 -0.42812368 -0.41343 -0.29847527 -0.29616544
-0.25461963 -0.44654787 -0.21602832 -0.21427372 -0.42204517 -0.4143785 -0.29721943 -0.1504418
-0.41524747 -0.22386254 -0.26503757 -0.22246195 -0.37174532 -0.22883768 -0.3928806 -0.32600513
-0.33647043 -0.31225052 -0.2022105 -0.3863016 -0.3718082 -0.3282599 -0.28336716 -0.33568156
-0.48486918 -0.3359534 -0.16306406 -0.39181876 -0.23048663 -0.1705559 -0.34550756 -0.18277872
-0.31234497 -0.33834723 -0.27891868 -0.31572923 -0.20351504 -0.48995653 -0.44444638 -0.3444314
-0.25438246 -0.23877726 -0.25945798 -0.4339504 -0.49171263 -0.34121877 -0.07502586 -0.34235463
-0.30904183 -0.26817396 -0.40342802 -0.32409847 -0.23589617 -0.34250525 -0.32698706 -0.28374052
00000000: 9539 00be fc29 98bd de19 b2bc 3a9a 30be
00000010: e25f d8bd 7c04 d5bd 2745 e1bd 58dd 10be
00000020: b1b5 6bbe fda7 10be 7946 26be 8f75 763c
00000030: 60b0 d1bd a38e 1bbd ec4a 17bd 315a 14be
00000040: 5f31 26bd c28d 203c 320b b4bd 1f6e e4bd
00000050: 7af2 8a3c 583e 24bc f192 6abd fb4d 993c
00000060: 18a9 63be 1863 46be ba86 10be 7146 4bbe
00000070: 2ac8 aebc 51b6 88bc 5789 043d cfcb dbbd
00000080: f47e 5bbf c123 9a3e 66a4 663f e2fa 84be
00000090: 2910 87bf 00f6 97bf 598a 92bf 803c 3b3f
000000a0: a642 95bf d1b1 7abf 4579 81bf 921b 7fbf
000000b0: ac94 2bbf 4b0e 74bd 99de 82bd 307a 97be
000000c0: 5c83 fabd a57c 943f 12f4 56bf 23f5 1ebe
000000d0: c46c 4abf e921 7dbf d686 4cbf a7d9 86bf
000000e0: dda3 0ebe 55e6 0fbe f4a8 b8be 3a8d aabe
000000f0: 74de 5d3f decc 63bf 98a7 5abf 3255 20bd
00000100: 489f 2abe 0af0 5c3f 3542 9abe 4033 4dbf
00000110: 1a14 a1b9 41b6 3fbe aeab 48bf f276 20be
00000120: 6d92 b5bc bc9a 7ebf 6e6e 133f 2017 95bf
00000130: cb24 36be 3e32 40bf 0485 f9bd 4c54 89bf
00000140: b6b5 aebf e635 cebc d668 0bbe 25c1 68bd
00000150: 2fbf 90be 8f38 a2bf b376 e7bd 85a4 5cbe
00000160: 83f4 68bf acc3 78bf d07a 62bf bb54 093c
00000170: ca99 88bd c5f6 583f df34 80bf 6e53 603f
00000180: 9081 a3be 26b1 e6be a1ef 75be de54 95be
00000190: 0733 dbbe 19ad d3be c0d1 98be ffa2 97be
000001a0: 815d 82be eca1 e4be 8736 5dbe 926a 5bbe
000001b0: 4e16 d8be 6b29 d4be 252d 98be 6a0d 1abe
000001c0: 519b d4be 393c 65be 01b3 87be 11cd 63be
000001d0: 6755 bebe 6d54 6abe a527 c9be 25ea a6be
000001e0: da45 acbe 4ddf 9fbe 4510 4fbe 53c9 c5be
000001f0: a55d bebe ae11 a8be 8015 91be 74de abbe
00000200: c640 f8be 1602 acbe 44fa 26be 789c c8be
00000210: b004 6cbe 35a6 2ebe 5ee6 b0be 582a 3bbe
00000220: aeeb 9fbe d93b adbe 6ece 8ebe 43a7 a1be
00000230: 3f66 50be 95db fabe 7a8e e3be 5059 b0be
00000240: 6b3e 82be 0782 74be add7 84be bf2e debe
00000250: c2c1 fbbe 3ab4 aebe 28a7 99bd 1b49 afbe
00000260: bb3a 9ebe 194e 89be 1e8e cebe 3cf0 a5be
00000270: c48e 71be d95c afbe d96a a7be 7046 91be
