parametric_qst/tfim_4x4_multi_suscept/models_viet/hyprbm_tfim_4x4_20000_suscept_seed45_20260123_014421.pt (torch, 51418 bytes, 7 tensors)

W f4 [16, 64]
000000 49 af 2b 3f 35 a8 12 3f 87 98 70 bf 06 98 27 be
       0.6706434 0.57287914 -0.9398274 -0.16366586
000010 f3 9a 19 bd 95 20 4c bd e1 7f 01 bf b9 fa 36 3f
       -0.037501287 -0.04983576 -0.5058575 0.7147632
000020 d6 3c 56 3b 3a a8 ab 3d aa 3d a5 3e 62 6f 13 be
       0.003269007 0.08381696 0.32273608 -0.14397958
000030 e2 44 b2 bc 9a 68 b4 bd 6b 99 51 bd 44 60 c6 ba
       -0.021761362 -0.08809014 -0.0511717 -0.001513489
000040 d7 79 37 bd 06 2b 3a bd 6d ba 86 3e f7 80 c8 3d
       -0.04479393 -0.045451187 0.26314107 0.09790223
000050 91 80 4e be 0a 82 f3 bc 91 41 d3 bc c0 df ab 3e
       -0.20166232 -0.029725093 -0.0257881 0.33569145
000060 c1 7c f6 bd 34 0e 08 bd f2 21 f2 3e 24 45 6a 3e
       -0.12035514 -0.03321667 0.47291523 0.22877938
000070 c0 43 8e bd f4 df 8e 3f e8 f0 08 be bb 4e 5d bd
       -0.06946516 1.1162095 -0.13373148 -0.05403016
000080 ab a3 c0 bc 1d 7b d0 3c 3e ab 92 bd b8 af 5c bc
       -0.023515543 0.02544933 -0.07161568 -0.013469629
000090 6e 84 c3 be 0b 6b e6 bd 34 1c 6b bd 66 7e 02 be
       -0.38186973 -0.112508856 -0.057399943 -0.1274353
0000a0 ea 54 b8 bd e9 f1 2a bd 41 c9 02 3f 9b 7a c9 3e
       -0.09000571 -0.04173461 0.5108834 0.39351353
0000b0 0c f6 69 bd a3 7a ba bb 64 b6 90 3f 51 31 78 bd
       -0.057119414 -0.005690889 1.1305661 -0.060593907
0000c0 2b de a9 bb 4f b0 a9 bc 37 86 63 3c b6 6e 66 be
       -0.005183955 -0.020713953 0.01388698 -0.2250317
0000d0 0d ca bc bd ad fe 78 bc d3 cc ea bc 68 be 48 bd
       -0.09218226 -0.015197438 -0.02866212 -0.04900971
0000e0 c7 7f d8 3b 18 65 d1 3d 73 84 98 bc 51 d5 a7 bc
       0.006607029 0.1022436 -0.018617844 -0.02048746
0000f0 db 06 de 3b cb 16 b9 bd 30 12 55 bc 0a 97 01 3f
       0.0067757196 -0.090375505 -0.0130048245 0.5062109
000100 08 b9 2f 3e c5 fd e0 3e 95 78 cd be 63 04 06 be
       0.17160428 0.4394361 -0.4013106 -0.13087611
000110 5f 0e 83 bb 5d 30 06 bc 33 98 07 3f 15 00 36 3f
       -0.003999516 -0.008190242 0.5296661 0.71093875
000120 3d af 2a 3d 99 27 c1 3d d6 22 2d 3e 9e c0 59 bd
       0.041671026 0.09431381 0.1690782 -0.05316221
000130 8a 57 64 3d c2 e4 23 3c 40 9a f0 bb 40 31 52 3c
       0.055747546 0.010003271 -0.007342607 0.012829125
000140 eb 85 66 3f b0 5d 15 3b 45 89 05 bf 92 c9 4b 3e
       0.9004809 0.0022791438 -0.5216258 0.19901112
000150 7f 70 34 3e e3 57 9a 3b c3 ae a6 ba 1f 17 55 3e
       0.17621039 0.004710184 -0.0012716878 0.20809601
000160 fb ca ca 3c 9e 44 ae 3c 03 f0 98 be 8a fe 33 bd
       0.024754992 0.021272954 -0.29870614 -0.04394392
000170 18 8b d0 3c 1f 16 90 3f f8 c3 ea bb 2d 9f 3c 3c
       0.02545695 1.1256751 -0.0071644746 0.01151256
000180 56 26 ab 3c df 96 ec 3c e3 ba da bc b0 ca 25 3d
       0.020892303 0.028880535 -0.026700443 0.0404765
000190 45 97 ab be 40 33 a3 bc 65 4f 81 3c c4 7a 88 bd
       -0.33513847 -0.019921899 0.015784929 -0.06664041
0001a0 48 88 13 ba ec 42 e8 3c 10 39 19 3f a2 17 51 3e
       -0.00056279125 0.028352223 0.59852695 0.20419171
0001b0 41 26 1e bd c9 7b e9 3c e5 7b 3c 3f f0 28 8c bc
       -0.0386107 0.028501408 0.7362655 -0.017109364
0001c0 a8 2f c6 bc ed c4 2c bb 51 9e 03 3e f3 f6 d1 be
       -0.024192646 -0.0026362494 0.12853362 -0.4100872
0001d0 b3 4b d0 bc 1e f3 3e 3c c3 19 2e bb bc 19 ac 3c
       -0.025426721 0.011654643 -0.0026565648 0.021008365
0001e0 99 b4 03 bf a4 d7 02 3f c8 76 9e 3c 21 91 9c 3c
       -0.51447445 0.5111029 0.019343749 0.019112172
0001f0 ed 14 75 3b 26 87 0b bd 52 20 94 3e 61 1f f5 bd
       0.0037396506 -0.034064434 0.28930908 -0.11968876
000200 bf 3c b5 3e 8f 67 8d 3e 7c 4c 99 3e 09 96 ac bd
       0.35397908 0.2761807 0.29941165 -0.084270544
000210 d4 9f 17 3d 21 f3 85 3c 30 e7 2c 3f b1 11 55 3f
       0.03701766 0.016351284 0.67540264 0.8323012
000220 0a ea 9e 3c 2d be eb bd 2f 73 47 be f4 c4 a8 bd
       0.019398708 -0.115108825 -0.19477533 -0.08240691
000230 ec 09 70 3d b2 8f c9 bc 45 8b 2a bd a1 31 41 3d
       0.058603212 -0.024604652 -0.041636724 0.04716647
000240 38 02 c6 3f 5a 51 8d 3c 91 b2 30 3e 22 ce 12 3e
       1.5469427 0.017250706 0.17255618 0.14336446
000250 25 26 83 3d 6b 1d f4 ba 8e 1b ba bb ce 1e 81 3e
       0.0640376 -0.001862449 -0.0056795543 0.25218815
000260 29 45 ef 3d 67 19 5c bc 22 74 21 bd f8 1b 96 3e
       0.11683113 -0.013433791 -0.039417394 0.29318213
000270 5e 28 bf 3c 5d f9 88 3f 4a c0 8e 3d 9f 28 db 3c
       0.023334678 1.07011 0.0697027 0.026752768
000280 62 90 3d 3c 16 60 3c 3d 84 46 97 3d 1e 6a 29 3d
       0.011570068 0.045990072 0.07386497 0.041360967
000290 b7 f1 b8 3e f8 82 a6 bc e8 aa b0 bc 33 5c 1c 3d
       0.36121914 -0.020326123 -0.02156587 0.038173866
0002a0 f7 b9 14 3d 54 cc d8 ba dd c5 26 3f 2a 85 b2 3e
       0.036310162 -0.0016540387 0.65145665 0.3486722
0002b0 81 71 8d bc d9 ae 8b 3d a8 6d 08 bf 76 a5 5e 3c
       -0.017266037 0.06820459 -0.5329232 0.013589254
0002c0 79 a6 14 3d 2a 05 c5 bc 84 5e 8a bd ef 09 01 bf
       0.036291573 -0.024050314 -0.06756309 -0.5040578
0002d0 72 29 7b bd 0c 48 8b ba ad b9 c0 3c 0e 60 0c bd
       -0.061318822 -0.001062633 0.023526037 -0.034271292
0002e0 0b 8c a7 ba 00 db 49 bd e0 a4 6a 3b be 98 26 3d
       -0.0012782825 -0.04928112 0.003580384 0.04067301
0002f0 1b c9 af 3c a2 39 cb bd a1 3c 92 be cc 35 27 3f
       0.0214582 -0.09923102 -0.2856188 0.6531646
000300 0b e0 42 3f 9e ef 91 3e 89 d9 ef bd 0d 26 c7 bc
       0.7612311 0.28503126 -0.117114134 -0.024310136
000310 14 c8 1e 3d 3e 54 0d bc 37 b1 17 bf 9c b9 4d 3f
       0.038765028 -0.008626042 -0.59254783 0.8036134
000320 4b 0e 20 3d 02 ed 29 bd 45 ae c8 3e 53 bc af bd
       0.03907613 -0.041485794 0.39195457 -0.08580842
000330 d5 60 1e 3d 62 5f 2b bd af 43 28 bd c9 95 92 3d
       0.038666565 -0.04183901 -0.041080173 0.071574755
000340 43 c2 01 3e 80 f0 e1 3c 1b c1 01 be f8 fa 01 3e
       0.12671761 0.0275805 -0.1267132 0.12693393
000350 fc 38 db bd bf 90 aa 3c eb 36 11 3c 24 fa 4e 3e
       -0.10704228 0.020820973 0.008863191 0.20212609
000360 3f cf 04 bd 1e ce 4d bb 22 86 5b 3e 28 e1 a3 3e
       -0.032424208 -0.0031403373 0.21437886 0.32007718
000370 26 37 ee bc b1 19 bc 3f 55 bd f3 3a 25 33 a8 3c
       -0.029079031 1.469534 0.0018595854 0.0205322
000380 00 55 0f 3d 29 22 d2 3d ce f6 0d 3e 7c 16 5b 3d
       0.03499317 0.10260422 0.1386368 0.05348824
000390 13 ef 2f 3f 55 4e 20 bd de 9e d1 bb 05 4f aa bc
       0.68724173 -0.039137203 -0.0063971123 -0.020789633
0003a0 16 36 4e 3c 33 96 23 3c 60 39 bc 3e f2 54 ca 3e
       0.012586137 0.009984541 0.36762524 0.39517933
0003b0 26 85 cd 3c 47 10 87 3d 42 0e f7 be 77 4d b3 3c
       0.025087904 0.065949015 -0.48253065 0.021887524
0003c0 9d 05 c2 3d 07 35 d6 bb 7e c5 12 be a0 f0 28 3f
       0.09473727 -0.006537083 -0.1433315 0.65992165
0003d0 54 28 c0 bc 2b 15 90 3b 40 aa f6 3c a9 8b d8 bc
       -0.02345673 0.0043970547 0.030110478 -0.026433783
0003e0 b3 c1 ae 3e c6 1f ee be c5 a3 a0 3c a3 f5 1d 3d
       0.34132156 -0.46508616 0.019609341 0.038564336
0003f0 d7 64 5b 3d eb ca a6 bd 5c bd 59 3e a9 0b 6d 3f
       0.053562965 -0.08144172 0.21263641 0.92595917

b f4 [16]
000000 46 21 7a bb 69 ff 56 3c 47 5b 7d 3a a9 9e 1d bc
       -0.0038166805 0.013122418 0.00096647855 -0.009620347
000010 c7 13 eb bb 8b a2 65 3b 2d 8a d0 bb 5a bc db 39
       -0.0071739885 0.003503951 -0.006364128 0.00041911268
000020 09 8f 6e bc 2d 7b fc 3a c6 0d 9c bc 0a a2 8f 3b
       -0.014560469 0.0019262783 -0.019049536 0.0043833302
000030 4b 1d b4 3c 48 89 ed b8 9b ab a4 bb 6f 1b 91 bc
       0.021986624 -0.00011326611 -0.00502534 -0.017713277

c f4 [64]
000000 bd 6d 0f bc b4 96 24 ba 5d 7b f7 3d a9 ae 11 bc
       -0.008754191 -0.000627856 0.120840766 -0.00889174
000010 29 01 06 bf 22 81 12 bf fe 33 18 bc 71 2a 9a 3a
       -0.5234552 -0.5722829 -0.00928974 0.0011761916
000020 dc 5e d1 3a 5b 5b 95 3b 00 45 09 be aa 25 95 3e
       0.0015973705 0.0045580096 -0.13405228 0.29130298
000030 e3 66 ff be 7a e2 a3 3e cb 3d e6 be 64 9a 13 bf
       -0.49883184 0.32008725 -0.4496902 -0.57657456
000040 7b a8 e6 ba 70 8e 32 3f ef 01 0f 3c 19 24 c9 be
       -0.0017597819 0.6974859 0.008728488 -0.39285353
000050 2c 5d bb be 5a 4f ff be fb e5 f1 be d2 59 34 3a
       -0.36594522 -0.49865228 -0.47245774 0.00068798393
000060 5d ed fa be 94 1f 2b 3f 42 f1 9b bc 65 8a 9a bc
       -0.4900922 0.6684506 -0.01903594 -0.01886482
000070 b3 38 0f bf 4f d6 25 bb fb e1 c5 be 5a 5a 11 bf
       -0.5594589 -0.002530474 -0.38648972 -0.5677849
000080 ac 73 e9 be 7e 4f 10 bf 75 a9 da be 87 8a 0b bf
       -0.45596063 -0.56371295 -0.4270741 -0.5450825
000090 93 64 58 bc d9 98 cc be b2 de 07 bf 98 7a 05 bf
       -0.0132075725 -0.39960364 -0.5307418 -0.5214019
0000a0 76 c6 04 bf 0a 4b 03 bf 17 f1 e6 3e c6 96 53 bc
       -0.5186533 -0.51286376 0.45105812 -0.012914365
0000b0 c2 02 16 bf e3 77 12 bf f2 b7 a9 3c 78 ea 1f 3f
       -0.5859796 -0.5721418 0.020717595 0.62467146
0000c0 16 cd 16 bf e8 08 07 bf a1 82 35 3a 16 89 fc bb
       -0.58906686 -0.52747965 0.0006924067 -0.0077067716
0000d0 8c 72 1e be d8 39 0f bf b1 2f 15 bf a1 64 ca be
       -0.15473384 -0.5594764 -0.58275896 -0.395299
0000e0 69 86 10 bd aa 47 0f bb 5e fb 41 3f 96 05 1b bf
       -0.035284434 -0.0021862783 0.7577418 -0.605554
0000f0 81 f5 02 bf 9f 05 97 b9 5d 2b ac bb 2b a9 f0 bb
       -0.5115586 -0.00028805152 -0.0052541927 -0.007344385

conditioner.fc1.weight f4 [64, 1]
000000 38 35 97 be b4 3c 29 3e 29 05 38 3e ff 4d 19 3f
       -0.2953279 0.16527063 0.17970718 0.5988464
000010 10 79 23 bf cb 36 37 bb f1 16 40 3f 44 b3 71 bf
       -0.638566 -0.0027956243 0.75035006 -0.9441416
000020 1d 9e 48 3e 67 28 34 bf 65 76 79 bf 86 30 2c bf
       0.19591565 -0.7037415 -0.9744628 -0.6726154
000030 90 88 a9 ba 37 e1 1c bd 5c 9a 86 3e a3 fa 1b 3a
       -0.0012934376 -0.03830072 0.26289642 0.00059501285
000040 80 d5 81 3e 7c 7b dd ba cc 44 a5 bb cb 28 8b 3e
       0.253582 -0.0016897763 -0.0050436016 0.2717956
000050 03 00 83 3b c9 c9 6a bf aa 93 8f 3b 21 70 69 3f
       0.003997804 -0.9171415 0.0043816166 0.9118672
000060 ae f0 87 3e 47 e0 0e 3f 2d b8 46 3c cf db 96 3b
       0.26550812 0.5581097 0.012128872 0.00460384
000070 b6 36 93 be ce a8 7b 3e 1a 91 3f 3c f8 13 31 bb
       -0.2875268 0.24576113 0.01169231 -0.002701996
000080 5c 2a 2f 3f 54 27 fc 3d d0 74 14 3d 9d f1 86 bf
       0.6842401 0.12312189 0.036244214 -1.0542485
000090 8e f5 07 3f b5 b8 52 3a 5a e5 dc 3d 27 66 57 3c
       0.5310906 0.0008038388 0.10785933 0.013146914
0000a0 c8 3d 54 3d ed 60 01 3e 4c bb 2c 3b 32 7f 13 3a
       0.05181673 0.1263463 0.0026356755 0.00056265586
0000b0 95 11 87 be 40 fb 0c 3c e6 ce 0e 3c c1 0f 3c 3e
       -0.26380602 0.008604825 0.008716321 0.18365385
0000c0 05 9b ad be 3e f5 a7 3d f0 77 a7 bd e6 84 34 3b
       -0.33907333 0.08201073 -0.08177173 0.0027545034
0000d0 80 e4 b5 3e c4 cb 02 3b 42 86 fc bc fc 0f 36 3e
       0.35525894 0.001995788 -0.030825738 0.17779535
0000e0 96 d9 51 bc 4e e4 14 bb 43 61 84 3e c1 1a 8f bb
       -0.012808224 -0.0022719088 0.25855455 -0.004367203
0000f0 72 38 8b 3b bb c3 4a bd 8b 7f 95 ba 0a 9e bc be
       0.004248672 -0.04950307 -0.0011405809 -0.36839324

conditioner.fc1.bias f4 [64]
000000 55 1c 49 3f 32 22 08 bf b0 99 07 bf c0 54 92 3e
       0.78558856 -0.5317718 -0.52968884 0.28580284
000010 2d 7c 0d be 7f 14 86 bc 15 42 6a bf 53 8a 18 3f
       -0.138169 -0.016367195 -0.91507083 0.59586066
000020 c5 50 14 bf 1b b4 e6 3e b3 33 19 3f 0c 71 5c 3f
       -0.57935745 0.45059285 0.5984451 0.86109996
000030 72 30 0b 3c dd 07 92 3d 1d 2c 2f bf d1 2a be bc
       0.008495437 0.07130406 -0.68426687 -0.023213776
000040 61 8a 3e bf 79 2d e9 3c 84 34 e2 bc d4 1c 69 bd
       -0.744299 0.028464066 -0.027612932 -0.05691226
000050 fb ea f3 bb f5 92 30 3f fd 58 d6 39 41 f3 59 bf
       -0.0074437833 0.6897424 0.00040883562 -0.851368
000060 bb ab 3e bf f5 b7 29 bf 3d f7 15 bc 68 c7 89 bc
       -0.7448079 -0.6629632 -0.0091531845 -0.016818717
000070 22 a3 42 3f a6 a7 30 bf f0 72 0a bd 17 81 b3 3b
       0.7603017 -0.6900581 -0.03380102 0.005478035
000080 9c 52 36 bf 0e 99 c1 be 7f c2 3f bd f7 dd 3a 3f
       -0.712198 -0.37812084 -0.046816345 0.7299494
000090 ba 18 56 bf 7b 2b e5 bc 33 1e 93 be d4 06 1a bd
       -0.8363148 -0.027974835 -0.28733978 -0.037604168
0000a0 65 b9 a1 bd 7e cb bf be 55 b2 5b bd 68 2d 16 bc
       -0.07896689 -0.3745994 -0.053636868 -0.009166099
0000b0 38 85 88 3e 8e ed 72 bc 3a fd 59 3b a9 72 05 bf
       0.26664138 -0.014827145 0.0033262507 -0.5212808
0000c0 f4 62 72 3f 84 f6 52 be 53 69 60 3e 1f c5 29 bd
       0.9468224 -0.20601851 0.21915178 -0.041447755
0000d0 a1 9e 7c bf a0 30 be 3c 66 c0 fe 3d c1 37 1d 3e
       -0.9867955 0.023216546 0.12439041 0.153533
0000e0 c7 ca 2d 3c ec 09 22 bc 2b e6 39 bf d3 2f 93 3c
       0.010607428 -0.009890061 -0.72616833 0.01796714
0000f0 ef a1 90 bc 0f 67 e3 3d 6c 04 1c bd 6c e4 6a 3f
       -0.017655341 0.11103641 -0.038090155 0.91754794

conditioner.fc2.weight f4 [160, 64]
000000 c1 8f 94 3c ac d7 a1 bd bc d3 08 3e 51 63 54 bd
       0.018134953 -0.07902464 0.1336202 -0.051852528
000010 b7 e9 43 bc c8 04 bb bd 22 6d 4f 3c dd b4 90 3d
       -0.011957577 -0.09131771 0.012660297 0.07065747
000020 6f 6e a4 3d c5 e5 a9 3d 10 57 24 3d 46 ce 4a 3d
       0.08028876 0.08295778 0.04012209 0.049513124
000030 d7 a6 b0 3e a5 cf 8f 3d b9 44 18 bd 1f 46 88 be
       0.3450229 0.07022027 -0.037174914 -0.26615998
000040 ce 45 cd bc 1c ef bb bd 1c 9c b6 3d 1e 56 0a be
       -0.0250577 -0.09176466 0.08916494 -0.13509414
000050 a2 95 82 39 a9 79 09 bb 83 73 6e 3e 08 52 28 be
       0.00024907017 -0.0020977056 0.23286252 -0.16437542
000060 fb f0 35 3e 2e c1 e1 3b 14 d2 e7 b8 ae 11 8c bd
       0.17767708 0.006889484 -0.000110540685 -0.0683931
000070 29 e6 0c bd 52 53 f4 3c 84 50 09 bc d6 18 0a be
       -0.034399185 0.029824886 -0.008381013 -0.13486037
000080 e6 bd e3 bd 24 5d 37 3c 93 88 6f 3d cb 5e 2b 3e
       -0.11120205 0.01119164 0.058479857 0.1673538
000090 c2 8b 63 3d 97 9c 6b 3d 3b 6f 0a 3e 8f 9c c5 bd
       0.055553205 0.057522383 0.13518994 -0.09649002
0000a0 1f ac 0c 3e 6f 36 1a bd e4 da 07 bd c6 4b 9f 3c
       0.13737534 -0.03764957 -0.033167735 0.019445311
0000b0 96 d7 26 3e 4c 3c d8 3d 9c 06 0d bf 21 3e 33 3e
       0.16293177 0.10558376 -0.5508821 0.17504169
0000c0 2d f1 88 3d 58 1a 15 3e 8d e2 95 bd 4a 6a 0a 3d
       0.06686626 0.1456083 -0.07318602 0.03379277
0000d0 7a 74 fe 3d 09 00 0c be 30 a2 0d 3e e2 c5 17 be
       0.1242456 -0.13671888 0.13831401 -0.1482158
0000e0 84 ee 37 3e 09 cd 19 3f ea b0 5e 3e e6 57 b0 bd
       0.1796208 0.60078484 0.21747175 -0.08610515
0000f0 05 15 51 3d 24 ef 8a bd 40 b5 61 bd d5 c0 7a bc
       0.051045436 -0.06783894 -0.055104494 -0.015304764
000100 4d 6a 69 bc 53 6f 63 bd 89 f3 17 3e 2d a8 00 be
       -0.0142465355 -0.05552609 0.14838995 -0.12564154
000110 1d 09 97 bc 80 78 fb bd ae 52 0c be 19 d5 34 3e
       -0.018436963 -0.12278843 -0.13703415 0.17659415
000120 83 57 b0 bd 23 51 6f 3d 35 47 0b 3d 46 35 57 3d
       -0.086104415 0.058426987 0.034003455 0.05254104
000130 3a b6 0c be c8 3d a8 bd 6f 03 3a 3d ed f1 d8 bd
       -0.13741389 -0.08214909 0.04541343 -0.10593019
000140 5d c8 b1 3c 2d 43 d4 bc 87 fb 42 be a3 ff 9d bd
       0.021701986 -0.025910938 -0.19041263 -0.077147745
000150 d5 fb 82 bb 5d e1 98 3d 4c 44 94 bd a8 67 d4 bd
       -0.003997306 0.0746486 -0.07239589 -0.10371333
000160 d4 6c 4b 3d cc 8e 17 3d 9d 33 04 bd a9 77 4d 3d
       0.049664333 0.037001416 -0.032275785 0.050162945
000170 6d ee c2 3d d7 a7 8e 3d b4 f1 d5 3c 04 09 87 be
       0.09518132 0.06965607 0.02611623 -0.26374066
000180 b1 40 d2 bb d4 7c be 3d ff 60 c6 3b b2 2b 4a 3d
       -0.006416403 0.09301153 0.0060540433 0.049358077
000190 c2 4f 2b be 02 73 20 3e 5f be 15 3e 99 86 7e bd
       -0.16729644 0.15668872 0.14623402 -0.06214008
0001a0 56 3a f7 3c 9d a9 5e 3e d0 97 4b 3d 29 bb 64 3d
       0.030179184 0.2174439 0.049705327 0.055842552
0001b0 0a 08 c3 3d ac 0f 6c bb 99 71 62 3e 17 af f4 3d
       0.09523018 -0.0036020083 0.22113647 0.11947458
0001c0 a1 23 c1 bd 7b b0 8a bd b9 cc a2 bc ac ae 2a 3d
       -0.09430624 -0.06771942 -0.01987301 0.041670486
0001d0 ec 01 89 3e 8b f8 92 3c 5e 21 49 3d c0 d3 ae bd
       0.2675928 0.01794078 0.049104087 -0.08536482
0001e0 b1 a8 ae 3d 30 24 9b 3e 89 94 84 3e 1d 54 f2 bd
       0.08528269 0.30301046 0.25894573 -0.118324496
0001f0 e4 8b 07 3d 61 96 03 bb d6 e7 90 bd 74 df 96 3d
       0.033092394 -0.0020078646 -0.07075469 0.07366839
000200 65 e9 bb 3d 08 f7 9e bc 8f 60 25 3e f4 d6 ca bd
       0.09175376 -0.019404903 0.16150115 -0.0990428
000210 b1 4e 5f 3e 07 5f fc 3e b1 eb 4d 3d 0c 90 9a 3c
       0.21807362 0.4929125 0.0502736 0.018867515
000220 72 89 4b bd 80 d3 5c 3d 3e f7 46 3e 9c b6 ff bc
       -0.049691625 0.05391264 0.19430253 -0.031215005
000230 35 af 6c be 8d 8a e0 bd c5 58 10 3d cf f2 4e be
       -0.23113711 -0.109639265 0.035240907 -0.20209812
000240 de 49 5c bd be 27 d6 3a 40 2f 46 be 5d f2 a4 bd
       -0.053781383 0.0016338748 -0.19353962 -0.080540396
000250 f2 b0 37 bc 3d ea e5 bc 4a c4 3b 3e 1e 71 31 bd
       -0.011211621 -0.028065795 0.18336597 -0.043320768
000260 4f ce 3f 3e 72 ba 1d 3c ad 53 dd bc 82 da 82 be
       0.18731044 0.009626972 -0.027017439 -0.25557333
000270 d5 93 a4 3d 51 41 81 bc 2a 97 9b 3d 87 5b d5 3e
       0.08036009 -0.015778216 0.07597192 0.41671392
000280 2f e9 da bd ce 8b 86 bd 99 59 9f 3c 6d dc 97 3d
       -0.106890075 -0.065696344 0.019451903 0.0741509
000290 5a 5a 99 bd 47 f9 da bd 9c f9 1d bd d3 60 0f 3e
       -0.07487936 -0.10692077 -0.038568124 0.1400178
0002a0 e9 67 32 3e 33 f2 a4 3d f9 5f ec 3c 01 28 ba bc
       0.17422451 0.08054008 0.028854357 -0.022724153
0002b0 7f 86 ef 3c ec be 33 3e 3d 17 f6 be cd 8a 82 3e
       0.029238937 0.175533 -0.48064604 0.25496522
0002c0 06 c0 8f 3d 91 2a b4 bd ef 2e 13 3e 5d c1 5d 3e
       0.070190474 -0.087971814 0.14373372 0.21655793
0002d0 87 86 a3 3e 51 ec 83 be 07 42 bd 3d f5 af 9c bd
       0.31938574 -0.25766233 0.09241109 -0.07650749
0002e0 e9 dc 9d 3d 21 21 65 be 41 f4 ea 3d cd 2c 5b 3c
       0.07708151 -0.22375919 0.11472369 0.013377381
0002f0 dc f0 33 3c c9 28 0a bd ae 96 b6 3d c0 70 8e 3d
       0.010982718 -0.033730302 0.089154586 0.06955099
000300 14 6a e6 3c b3 6b c5 3d 7f e3 9e 3c 0e f5 19 bd
       0.028126754 0.096396826 0.019395588 -0.037587218
000310 b7 88 2a bb 94 5b 8b 3e 09 43 e3 3d f0 a6 00 3d
       -0.002602143 0.27218306 0.1109677 0.031409204
000320 99 33 11 bc 44 2d e3 3d 26 3f 0a 3e 62 5c 39 3d
       -0.0088623995 0.11092618 0.13500652 0.04525412
000330 a7 ad 80 3e 24 fd 3a 3d ef 6c 92 3d c9 23 a6 bd
       0.25132486 0.04565157 0.07149684 -0.08112294
000340 cf 3b 66 bd de c3 c8 bd 93 02 60 3d 42 1c 24 be
       -0.05620938 -0.09802984 0.054689955 -0.16026405
000350 69 3f 87 3c 3a ca 16 3e 6b 46 75 3e c0 44 f8 bd
       0.016509729 0.14725581 0.23952644 -0.12122488
000360 43 b6 47 3e af ac ae bd ea 89 4a 3d 17 7c 9b bc
       0.19503121 -0.085290305 0.04944793 -0.01898007
000370 1d e1 cb 3d 7e 55 08 3c 71 6a a6 3d a9 25 69 be
       0.09955046 0.008321164 0.08125771 -0.22768272
000380 f5 0f fa bd 1e 91 89 bb 09 b5 c2 3c b8 c8 e3 3d
       -0.12210075 -0.0041982075 0.023767965 0.111222684
000390 a3 71 c3 3c f2 c0 5b be e9 33 1e 3e 36 a8 85 3d
       0.023857897 -0.21460322 0.1544949 0.06526224
0003a0 92 1b 29 3b d0 e6 c7 3d a2 ec 90 3d 40 11 b0 bd
       0.0025803787 0.09760821 0.07076384 -0.0859704
0003b0 39 1e 00 3d 1b 95 ca 3b 71 cb ab bd af 4f c8 3d
       0.031278823 0.0061823255 -0.08388413 0.097808234
0003c0 d6 48 f2 bd b3 49 0e bc f5 c2 5d 3c 96 c2 ab 3b
       -0.118302986 -0.008684563 0.013535251 0.0052417023
0003d0 1c 09 1c 3e 28 0d 81 be 08 91 5e bd ec 86 bc bd
       0.1523785 -0.2520535 -0.05433753 -0.09205422
0003e0 47 f0 25 3e 9d a9 f4 be 0a 5a 94 3d 1b ba a4 3b
       0.1620494 -0.47785655 0.07243736 0.0050270683
0003f0 a7 22 f5 bd 43 0d f5 bd 47 fa 54 3b 0c b2 a2 bd
       -0.119695 -0.1196542 0.003249781 -0.07944116

conditioner.fc2.bias f4 [160]
000000 d8 b2 32 be b4 7f a5 bd ff 71 4f be ac 6f fa bd
       -0.17451036 -0.08080998 -0.2025833 -0.12228331
000010 ad cf e1 bd f5 b7 4b be bd cd 2e be 11 62 5f be
       -0.11025939 -0.19894393 -0.1707067 -0.21814753
000020 c9 cb f9 bd b8 26 1c be 3e fa b9 bd 71 fc b5 bd
       -0.12197072 -0.15249145 -0.09080933 -0.0888604
000030 b4 eb 6a bc dd 84 40 bd 99 25 17 be c7 eb d2 bc
       -0.014338423 -0.04700171 -0.14760436 -0.025747193
000040 62 9a 2c be 99 37 07 be 54 16 b4 be dc 22 62 be
       -0.16855767 -0.13204803 -0.35173285 -0.2208361
000050 47 0f aa 3b 94 0e ff 3d 3f 19 14 be 91 12 56 be
       0.0051898095 0.124539524 -0.14462756 -0.2090552
000060 b7 5e 07 3d 0f 80 53 3e 23 ac d2 bb bf a5 76 bd
       0.03304931 0.20654319 -0.0064292117 -0.06021666
000070 a6 7c 7d 3d 86 f1 02 bd 53 ea 77 be 4c 69 42 bd
       0.061886452 -0.031968616 -0.24210481 -0.0474637
000080 79 f0 cc bd f5 89 ae bd 9f c1 72 3c 5b bd 5a be
       -0.10006804 -0.08522407 0.014816671 -0.21361296
000090 39 8c 15 3f 80 6f 35 3f 64 77 9f 3a a6 c9 f7 bd
       0.5841709 0.7087326 0.0012166318 -0.12099008
0000a0 6b fe 44 bd 1f ac 35 be 8e 7b 5f 3e 13 28 d3 be
       -0.048094194 -0.1774144 0.21824476 -0.41241512
0000b0 13 cd 12 3f 6c 1c 38 bf 00 d7 1c 3f a0 1d 1a 3f
       0.5734417 -0.7191837 0.61265564 0.60201454
0000c0 62 0a 91 bd 0d 56 5f bf 10 cb 0f be 5d 62 98 3e
       -0.070820585 -0.8724068 -0.14042306 0.29762545
0000d0 14 3f 7e 3e f0 ec 72 3f d9 81 7a 3f 7e bc a4 bd
       0.2482875 0.9489279 0.9785438 -0.080437645
0000e0 bb 80 11 3f 30 ad 8a bf 10 5f 6a bd 73 7a a6 3c
       0.5683705 -1.0834103 -0.057219565 0.02032206
0000f0 87 14 40 3f 35 e5 31 bd 08 69 a9 3e 93 9d 06 3f
       0.7503132 -0.04343148 0.33087945 0.5258419
000100 c6 9e 4c 3f 05 4d fb 3e da 3d 03 3f 35 2b f1 3e
       0.7992977 0.490822 0.51266253 0.47103277
000110 27 3c 08 be 42 c5 4f 3f 37 55 38 3f 28 31 2d 3f
       -0.13304196 0.81160367 0.7200503 0.6765313
000120 2f a6 c8 3e a2 de 7a 3f 4a 63 c4 be 5b 7b a7 bc
       0.39189288 0.9799596 -0.38357002 -0.020444563
000130 ca 1d 2e 3f 3d 48 1a 3f 5c 3e 3e be 3f 82 81 bf
       0.68014205 0.60266477 -0.18578476 -1.0117873
000140 21 a3 1c 3f b5 fd 5f 3f e6 70 45 bd 43 ce 22 be
       0.61186415 0.874965 -0.04820337 -0.15898995
000150 39 9f e5 3d ca 92 69 3f 41 0d 4f 3f 60 6c 0e 3f
       0.1121201 0.9123961 0.808796 0.5563412
000160 9c 73 9f bd d8 ae 46 be 88 91 54 bf 51 34 1b 3f
       -0.077857226 -0.19402635 -0.83034563 0.60626704
000170 c4 98 3a 3f 34 87 29 be 54 ac 2f bd f6 66 3b bd
       0.7288935 -0.16555482 -0.042888954 -0.045752488
000180 b6 6d d8 be bb 82 8a be 3a b6 9a be 45 a5 0b bf
       -0.42271203 -0.27052864 -0.30217153 -0.54549056
000190 b6 c9 b0 be 0f 5a 3f be d0 80 86 be 7c 35 77 be
       -0.34528893 -0.18686698 -0.2627015 -0.24141496
0001a0 c9 7e 08 bf 16 16 ad be 28 37 dd bd 43 0b c8 be
       -0.5331846 -0.33805913 -0.10801536 -0.39071092
0001b0 59 14 39 be c0 48 c4 be e9 2a e6 be 5f 98 a0 be
       -0.18074168 -0.38336754 -0.44954613 -0.3136625
0001c0 c4 71 93 be 05 23 96 be 5b a3 4a bd 4b e3 69 be
       -0.28797734 -0.29323593 -0.049472194 -0.22840612
0001d0 d9 c0 22 be 60 a8 59 be 88 1f a5 be f5 2f 77 be
       -0.15893878 -0.21255636 -0.3225062 -0.24139388
0001e0 96 4d 80 be 2b 30 85 be f0 df 94 be fe 79 da 3d
       -0.25059193 -0.26013312 -0.290771 0.106677994
0001f0 0a 81 b2 be 39 8e e7 be fd 69 e9 be 6d 5f 8c be
       -0.34864074 -0.45225695 -0.45588675 -0.27416554
000200 83 b3 a8 be 64 c5 2d be bd 22 d4 be f6 48 08 be
       -0.32949457 -0.1696983 -0.41432753 -0.13309082
000210 57 9a ae be b7 59 c4 be 8e d2 f7 be 69 2e cf be
       -0.34102127 -0.38349697 -0.48402828 -0.40465096
000220 4f af b1 be b3 a8 8a be 9a 19 d2 be ec 9f e1 be
       -0.34704062 -0.27081832 -0.41035157 -0.44067323
000230 2c 3f 99 be 0c a2 1f be 74 71 f6 bd 57 43 28 be
       -0.2993101 -0.1558916 -0.12033358 -0.16431938
000240 6f fe 9a be 58 a5 a8 be c3 18 db be a9 0e 95 be
       -0.30272242 -0.32938647 -0.4279233 -0.29112747
000250 fe 85 fc be 6b 61 71 be 0e 4b 8d be f5 3d 61 be
       -0.49320978 -0.23572318 -0.27596325 -0.21996291
000260 e8 b9 ad be e3 e2 17 be 07 f4 39 be 3f 14 b1 be
       -0.33930898 -0.14832644 -0.18159495 -0.3458576
000270 ad 40 58 be a8 2f 0d bf e8 b0 57 be 0e dd 37 be
       -0.21118422 -0.5515084 -0.21063578 -0.1795542
