parametric_qst/tfim_4x4_multi_suscept/models_viet/hyprbm_tfim_4x4_20000_suscept_seed49_20260123_014431.pt (torch, 51418 bytes, 7 tensors)

W f4 [16, 64]
00000000: 4027 96bd dfcf cabd ef42 7d3e 013b cb3e
00000010: 067f 4fbf 2fc7 f2bd 38c4 83bd 7faa aebd
00000020: 5600 b3bd 38a8 bebd 4baf e3be 6d0a 07be
00000030: 06b7 f3bd 78e7 b3bd 6c33 1cbe f7ae f0be
00000040: 0107 c4bd 6eee 1abf b36b d8bd f16f c1bd
00000050: 2286 4ebe c08f b6bd b36f fabd 0683 12be
00000060: 6927 39be bfb4 97bd ab9f 90bd 1612 fabd
00000070: d9b3 d9bd fd31 1cbe 7fca d3bd 686c 1cc0
00000080: 5b03 cebd 640d bbbd 7c25 bdbd 8524 6fbd
00000090: 0d7d 2bbd b1da 34be 4a03 37bd 7bb9 febc
000000a0: 5318 e9bd 4d71 a4bd ec27 f1bd 45dd f0bd
000000b0: 001e 43bd f814 99bd 601e cebd 7cdc acbd
000000c0: 4902 c7bd 55db d7bd ad5c 16be 95b1 7abd
000000d0: 09db 9fbd 26d0 ef3e 5b3d e7bd de15 083f
000000e0: e301 51bd 89c6 a1be b898 00be 94a4 3bbe
000000f0: 2fb5 cebe c333 95bd d8e6 a1bd ce7b 02be
00000100: 9b4b 6abe 3a79 c5bd 0251 a6be 88f4 043f
00000110: 5a2e 9dbf e93f 5bbe 513d 33be e930 a7be
00000120: b05a dabd 5842 5fbe 174c b6be d489 68be
00000130: 1c12 b0bd a622 97be a1a8 c53d 029f 4fbf
00000140: b3ea f9bc a446 d5be e58d 0bbe 2483 44be
00000150: 2ad2 82bf 36b1 58be b6a4 22be 2a2b adbd
00000160: 03b8 64bd 6401 5abc b246 59be 3f67 03be
00000170: 8a90 f6bd 9a7b edbd 06b1 32be 414e e9be
00000180: 7b3c 4cbe 6a80 75be b2ca 95be 02c8 b1bd
00000190: c40e 4cbd 57d3 4abf 859b 57be 89a7 00bd
000001a0: 27e2 48be 3219 2dbe dd4c 243d 0308 5cbe
000001b0: 827d 33bd 420e b0bd 3c2a 2cbe 1297 f5b9
000001c0: c400 31be 7ab7 4cbe d2c2 29be ea35 65bd
000001d0: 02e4 f7bc ff49 043e b4f4 1ebe 4384 9a3e
000001e0: 9fd4 2cbd 0374 7b3f d92e 31be afd3 f9bc
000001f0: 3840 913d ef57 adbd c90b 0fbe 868b 6bbe
00000200: 813b 2cbc 138d 9ebd 72d1 0dc0 f65d ef3e
00000210: 6446 c2be 68a6 50be 3662 20be e257 8dbe
00000220: 5029 d4bd 75a5 72be 2444 573e ba59 53be
00000230: 338c 7ebd b781 8dbe 76b4 073b c904 4ebf
00000240: caef ecbd 0b2f 25bf 4436 4cbd 2096 33be
00000250: 08ee 25be 55a2 29be dd9d 7fbd e669 bdbd
00000260: 069a e43e 17c9 003d 0d34 6bbe de33 d5bd
00000270: eef6 bbbd 3bc9 4dbe 410a 21be 51d1 cdbe
00000280: 0e24 2abe 1ed5 4fbe 8c7e 9abe 2671 4fbd
00000290: 9558 d2bc 9416 f7be e68a 81be f956 dfbc
000002a0: ef51 41be 3645 0cbe 31bc 9bb8 3d15 39be
000002b0: 4bbd 5e3d 33bc 5dbd bd06 16be b4e4 70bd
000002c0: c044 2cbd 64f5 12be bbfd f5bd 1107 40bd
000002d0: 798b 7dbc 6744 c7bd 3236 58be 6221 4bbf
000002e0: 9b02 403c 0f25 043f 836e 18be aca4 29be
000002f0: 32dc 143f 742e 67bd 3f90 e8bd ecd1 da3d
00000300: 37bc ba3d 2ec2 c3bd 5d4e 09bf 8b70 24bf
00000310: 069e 4dbe 9d34 66be e2f4 4bbe 497d 64be
00000320: a9ad 95bd 7010 94be e65a 783d cd35 4fbe
00000330: 24b1 12be 30d0 8cbe 404a 76be 4d06 ccbe
00000340: d0ea 6fbd 6c83 08bf 436c 933b 5edd 23be
00000350: 10ba e93d 5f3e 2abe 66a9 1bbd 614c f9bd
00000360: 106d 2e3f af2c 87bc e9c6 60be beb6 f8bd
00000370: 463e c9bd 1f2b 75be 363b 19be f115 97bf
00000380: 40e3 39be 2557 54be a0d1 8ebe 1fe6 9ebd
00000390: 919d 01bd 7c63 0cbf 37d1 a1be b3af 7abc
000003a0: 4030 26be 7658 b2bd 0732 a53d 4958 41be
000003b0: 12b0 81bd a29a a8bd a0fe 12be a4fe adbd
000003c0: fb91 1d3d f472 28be 40fa e2bd cba0 bdbd
000003d0: b7cd 6abd 52a1 503f 6369 39be 8b64 87bf
000003e0: 6040 e2bc c20f 66be 76a7 26be 6f80 7cbf
000003f0: 53a8 b23e 7421 01bd def4 abbd d3aa 043e
-0.07331705 -0.099029295 0.24732564 0.39693454 -0.810532 -0.118543975 -0.0643391 -0.08528613
-0.087402984 -0.09309429 -0.44469675 -0.13187571 -0.11900143 -0.087843835 -0.15253991 -0.47008488
-0.095716484 -0.60520065 -0.10567417 -0.09445179 -0.20168355 -0.08914137 -0.12228336 -0.14307794
-0.1808144 -0.074075215 -0.07061704 -0.12210481 -0.10630006 -0.15253444 -0.103413574 -2.4441166
-0.10059234 -0.091334134 -0.09235665 -0.058384437 -0.041867305 -0.17661549 -0.04468087 -0.031094303
-0.113815926 -0.08029423 -0.117751926 -0.11760954 -0.047636032 -0.074747026 -0.10064387 -0.084404916
-0.09717233 -0.10539881 -0.1468379 -0.06120451 -0.078054495 0.46838492 -0.112909995 0.53158367
-0.05102719 -0.31596783 -0.12558258 -0.183245 -0.40372607 -0.072852634 -0.07905358 -0.1274254
-0.22880404 -0.09642263 -0.3248368 0.51935625 -1.227977 -0.21411099 -0.17503859 -0.32654503
-0.106618285 -0.21802652 -0.35604927 -0.22708827 -0.08597204 -0.29518622 0.09651304 -0.81102
-0.030507421 -0.41655457 -0.13628347 -0.19190651 -1.0220387 -0.2116135 -0.15883145 -0.084554985
-0.05583955 -0.013305996 -0.21218374 -0.12832354 -0.120392874 -0.11595841 -0.17450342 -0.45567515
-0.19944946 -0.23974767 -0.29256207 -0.086807266 -0.04981877 -0.7922873 -0.2105542 -0.031409774
-0.1961752 -0.16904142 0.040112365 -0.21487431 -0.043820865 -0.085964695 -0.16812986 -0.00046842598
-0.17285448 -0.19991866 -0.16578224 -0.05595962 -0.03026009 0.12918852 -0.15523034 0.30179033
-0.04219496 0.98223895 -0.17303027 -0.030496446 0.07092327 -0.084640376 -0.1396934 -0.23002443
-0.010512234 -0.077417515 -2.2159085 0.46751374 -0.3794433 -0.20375979 -0.15662464 -0.27606112
-0.10359442 -0.2369593 0.21022087 -0.20639697 -0.062145423 -0.27638027 0.0020706928 -0.8047605
-0.11569174 -0.64524907 -0.04985644 -0.17537737 -0.16204083 -0.16565831 -0.06240641 -0.09248714
0.4464876 0.031441774 -0.22969075 -0.104102835 -0.091779575 -0.20096295 -0.15726568 -0.40198758
-0.16615316 -0.20296142 -0.30174673 -0.050645016 -0.025677005 -0.48259413 -0.25301284 -0.027263151
-0.18878911 -0.13698277 -7.426029e-05 -0.18074508 0.054379743 -0.05413456 -0.14651008 -0.05881186
-0.042057753 -0.14351422 -0.12011286 -0.04688174 -0.015475147 -0.097298436 -0.21114424 -0.79347813
0.011719371 0.51619047 -0.14885907 -0.16566724 0.5814849 -0.056440786 -0.11355638 0.10684571
0.091179304 -0.09558521 -0.536352 -0.64234227 -0.20079812 -0.22481008 -0.19917634 -0.22313417
-0.07308514 -0.2891879 0.060633563 -0.20235367 -0.14325386 -0.27502584 -0.24051762 -0.39848557
-0.058573544 -0.53325534 0.00449899 -0.16002414 0.11412442 -0.16625355 -0.038003348 -0.12172771
0.68135166 -0.016500799 -0.21950878 -0.1214423 -0.09826331 -0.2394223 -0.14963993 -1.1803571
-0.18153095 -0.20736368 -0.27894306 -0.07758736 -0.031644408 -0.548393 -0.3160493 -0.015300679
-0.16229343 -0.08708279 0.080661826 -0.18881334 -0.06332411 -0.08232619 -0.14354944 -0.084958345
0.038469296 -0.16450101 -0.11082888 -0.092591844 -0.05732509 0.81496155 -0.18106608 -1.0577558
-0.027618587 -0.22466949 -0.16274819 -0.98633474 0.34894046 -0.031526044 -0.08396314 0.1295579

b f4 [16]
00000000: d7ef d83a 5b7d 123a 07b0 cebb 3967 0e3b
00000010: 3d7d 283b f671 ea38 cd14 36bb d5d4 ecbb
00000020: e6f6 1ebb 5f83 adba 4253 c83a 1f80 9d39
00000030: 127f faba 6070 07bc 6fba ef3b ab61 84ba
0.001655097 0.00055881374 -0.006307605 0.0021729006 0.0025709413 0.000111792164 -0.0027783394 -0.00722752
-0.002425605 -0.0013238004 0.0015283602 0.0003004083 -0.0019111356 -0.008266538 0.007315926 -0.0010099908

c f4 [64]
00000000: 791a 77bc 47e4 2ebb 36d6 f13a 7adc ddbb
00000010: 2589 87bb 08dd 25ba 12ec b43e a779 91bb
00000020: d705 79bb f45c 99bd 4984 e63a e5d5 84bb
00000030: 3abe bb39 5e98 15bd cf27 b63d 21a7 2e3b
00000040: 1e80 84ba 3b99 c23c 6014 bebc 0186 bebb
00000050: b4d1 8c39 062a bcbb d672 83bb 5261 1fbb
00000060: 801c 8abc 07cf 09bf 2500 adbd 89b9 f7ba
00000070: 5983 09bb 2123 653e f121 34bc 86dd 503b
00000080: c1a4 3638 5acf a5bb 5474 bebc 81de 113f
00000090: 0ee8 11bf cd05 bebb a764 05bf 38f0 12bb
000000a0: 1d9a ceba 7740 64bb acf4 edbb df4b 81bb
000000b0: eb11 143f f77a 10bf 4ea7 95bc 4c47 ddba
000000c0: 6156 5abc 5748 c1bb b914 a7ba 6873 143f
000000d0: 9e77 18bf 1591 f03b 9f3e 7abc 21e9 88bc
000000e0: d8d7 05bf d8f8 cabb 3d3d 83bb 41eb 71bb
000000f0: ce4d 0bbc 063f f0be 43cc 1cbc b0df 81bb
-0.015081995 -0.0026686357 0.0018450681 -0.0067706676 -0.004136222 -0.0006327187 0.35336357 -0.004439551
-0.0037997866 -0.074884325 0.0017587031 -0.0040538185 0.0003580915 -0.03652226 0.08894312 0.002664991
-0.0010108983 0.023754707 -0.023203075 -0.0058143144 0.00026859122 -0.0057423143 -0.0040114922 -0.0024319482
-0.016859293 -0.53831524 -0.08447293 -0.0018899898 -0.002098283 0.22376682 -0.01099442 0.003187032
4.354562e-05 -0.0050601186 -0.023248829 0.5698014 -0.5699471 -0.0057990314 -0.5210671 -0.0022421014
-0.0015762482 -0.0034828463 -0.007261833 -0.003945812 0.5783984 -0.5643763 -0.018268254 -0.001688221
-0.013326258 -0.005898516 -0.0012747265 0.57988596 -0.5955752 0.007341514 -0.015273719 -0.016712727
-0.52282476 -0.0061942153 -0.004005103 -0.0036913904 -0.008502437 -0.46923083 -0.009570184 -0.003963433

conditioner.fc1.weight f4 [64, 1]
00000000: 76b4 38bf 4b21 82be a116 903d 4b6c bb3f
00000010: 34e4 2dbc f50f 6cbd a0e1 35bd 2714 88bc
00000020: 38b9 1d3f fbbd a63e 43b7 19be 68fd 22bf
00000030: 09a5 56bd 42a1 493c 00ec cdbb 4a2b adbd
00000040: 37ae 2c3d e1b8 a2bd 073b f3bb 94de 2abc
00000050: 89d6 33bc ac16 573c 204a 6fba d456 9d3d
00000060: 42f7 e5bc e9f4 27bf a7c9 5d3c 286c 203e
00000070: fa99 023e 6a75 fe3d 666b 1dbb d00e 343f
00000080: 392b d8bb 416f 893c e730 89bd 4cc7 82bc
00000090: 4203 39be ab53 98bd c95d 25bc 3032 1abb
000000a0: e84c 69bd b098 4e3c 9cc0 ce3b d5bc c8bc
000000b0: 3110 1b3a c6fa 69bd 7fc9 743b a253 5d3c
000000c0: a15c 90bd a3ec 893d d5e8 d0bb 0ed7 2abe
000000d0: 7c74 9bbc e492 c73c d265 0c3a 4efd d4bc
000000e0: fdd2 e93d 3603 163f 2885 8abc 7c87 4dbe
000000f0: 6b64 c83b 72dc e0bd cac5 023d f737 f2be
-0.7215036 -0.25416026 0.07035566 1.4642423 -0.01061349 -0.057632405 -0.044404626 -0.016611172
0.61610746 0.3256682 -0.15011315 -0.6366792 -0.052403484 0.012306513 -0.006284237 -0.08455522
0.04215833 -0.07945419 -0.007422808 -0.010429043 -0.010976442 0.013127964 -0.0009128172 0.07682577
-0.028072003 -0.6560808 0.013536847 0.15666258 0.1275405 0.12424739 -0.0024020313 0.703351
-0.0065969494 0.016776683 -0.066987805 -0.015964173 -0.18067649 -0.074378334 -0.010093161 -0.002352845
-0.05695811 0.012609646 0.006309582 -0.024504105 0.00059151935 -0.05712392 0.0037351546 0.013508709
-0.070489176 0.06734588 -0.006375412 -0.166836 -0.018976443 0.024362035 0.00053557486 -0.025999691
0.11417196 0.5859865 -0.016909197 -0.20071214 0.0061154864 -0.109795466 0.031926908 -0.47308323

conditioner.fc1.bias f4 [64]
00000000: e262 893f 26df 2a3f a614 5abe 9bb0 a83f
00000010: 5186 003d 6e4e 293e 5657 e03d c82e 383d
00000020: 63d0 4c3f 0e1b 58bf c60e cc3e 7ea8 823f
00000030: e808 c23d 502e 2abd 174d 9b3c 568a 933e
00000040: f848 23be bd2a 5f3e 1a62 913c 7c91 aeb8
00000050: 4b62 ee3c 8d49 d8bc 60c3 21bc 597d 04be
00000060: 03c5 a73d da07 893f 93ba 19bd c200 d6be
00000070: ad03 d2be 2576 c0be 0483 1b3b 6edd 90bf
00000080: f720 a63c eb05 74bd f1a9 3b3e 6077 1b3d
00000090: e826 f53e 165f 493e a91a 343d 3ce2 793c
000000a0: 13f0 2b3e 8c09 ebbc fdfc c4bc da2c 8a3d
000000b0: 06c0 a03b 630d 163e b6f8 1fbd f54d 2bbd
000000c0: 07aa 5e3e d8b1 25be 0616 8a3c 7a0f e13e
000000d0: 47c4 7d3d 1ec2 ccbd eb0c 5dbc c76d 823d
000000e0: 9653 a0be a0a5 983f 6b7c 4a3d bf56 0b3f
000000f0: 97db 31bc f894 933e 5254 0ebe da39 963f
1.0733302 0.6674675 -0.21296939 1.3178896 0.031378094 0.16533825 0.10954158 0.04496649
0.8000547 -0.8441628 0.3985502 1.020767 0.09474355 -0.041548073 0.018957658 0.2881648
-0.15945804 0.21793647 0.017746974 -8.324065e-05 0.029099604 -0.02640226 -0.009873241 -0.12938441
0.08191874 1.0705521 -0.037531447 -0.41797453 -0.4101843 -0.37590137 0.0023729214 -1.1317575
0.02027939 -0.059575956 0.18326546 0.03795564 0.47881246 0.19665179 0.043970738 0.015251692
0.167908 -0.028691076 -0.024046415 0.06746836 0.0049057035 0.14653544 -0.03905555 -0.041822392
0.21744548 -0.16181123 0.016856205 0.4395712 0.061954763 -0.099979624 -0.013491849 0.063685946
-0.3131377 1.1925545 0.04943506 0.5442924 -0.010855577 0.28824592 -0.13899353 1.1736405

conditioner.fc2.weight f4 [160, 64]
00000000: 4d90 873d e578 c83d 5c36 3439 b0f9 74be
00000010: 4ad2 2f3e 6f14 b4bd 3238 cd3d 8117 9f3c
00000020: 3968 4abe 8646 933c e367 ab3d e157 d23c
00000030: 8dc5 fc3c 5a38 68bd e081 03be 4851 44be
00000040: e438 e83d 8511 d7bd b85e 923e 12cd 3fbe
00000050: d2fc 083e 2ad1 4dbd 1fb9 23be d122 0bbe
00000060: 153f c4bd f8e3 0b3d f412 0cbe a48c c43d
00000070: 39dc 523e 5f17 423e 15af bc3c b4ca 88bd
00000080: c47f cd3d ed8f d8bd e687 c13d 8073 cabc
00000090: d376 643d 60eb b8bd 93a2 813d a8f0 95bd
000000a0: 84ab 7ebd ba82 873b b845 ae3d 071e 2c3d
000000b0: 3745 1c3e cfb4 5a3d 84ee 8f3c c108 74bd
000000c0: 93b6 53be a944 843d be78 34bd 3e2f 2dbe
000000d0: 0872 1c3d 464c c8bd 4721 2bbe fffa 76bd
000000e0: a445 263d 5543 4cbe 529d a23d 5f2c 36bd
000000f0: 09dc ebbd 1f02 213c 33de 183e 1958 41bd
00000100: dc27 c53c 491b f83d 143e 303e 801c a2be
00000110: 1bf1 883d 07ca 11be 84a9 96bd 4079 193e
00000120: ecd1 47be 773a f63b db3a 323c 3225 c53d
00000130: a55f f3bb a702 23bd 0d87 20be d1b4 96bc
00000140: 7f48 a03a f07d 10be e3d3 733e 9db8 ae3c
00000150: 6f1b 09be 0f2d 3abd d3d3 d43c 0c6c 99bd
00000160: 52fe 0c3e daa2 20bd 916a 853d 7373 523d
00000170: 77af 163d c5fa bc3c e6e0 87bc f09c cd3b
00000180: 715a ddba bea0 c3bc ef0b b2bd c1ce fb3b
00000190: 822e a3bd 5d85 f43d dda2 5e3c 6a93 b9bd
000001a0: fcc9 b0bd 1968 f3bc 1ba4 7ebc 25ee 12bd
000001b0: b8d1 d63d 9bda cd3d d143 6f3d 6eb7 7d3d
000001c0: ba34 5cbe 29e0 bebd fc00 d5bc 0a80 afbc
000001d0: 7eaa c33c eb31 133b d62e 75bd 3661 4fbd
000001e0: 1212 433e 5de4 f8bd 6951 3bbd 25b7 c63d
000001f0: 7304 c8bc 4d95 d4bc 1ef4 783c e106 6b3a
00000200: 2cb5 4c3e dbf8 263d 4b46 003e 1afd 64be
00000210: 6718 a9bd e744 b1bd e901 8e3d 8992 193d
00000220: ca05 c7bd 871e a03d 1c2d bcbd 2e9c 703c
00000230: 618f 333d 79e5 29be 0365 0b3e 668a 47be
00000240: 59da 4f3e c749 2abe 6435 f2bd 7b88 8a3d
00000250: c39c 973e 6e61 0b3e 980d 053d 8327 29be
00000260: 4f6f 8f3d 1cbf f83d 868d 773e c641 0f3e
00000270: ed71 8f3d 2241 b93d 2ff1 fa3c 98cf 0dbd
00000280: dcc6 823e 2cdc aebd 9a28 ec3a 4708 33be
00000290: d278 84bd 44c7 b7bd 957b d8bd 1e14 74bc
000002a0: efe3 b4bd 1485 80be 5474 16bd 3a21 01be
000002b0: 1c4c abbd 6090 17bc 408d a2bd b12f 0f3e
000002c0: 6ae4 ffbd 1fdf c73d 7367 7d3d 4bc2 9fbd
000002d0: ec6f fa3d ab53 d43d a07f 10be f31c e9bd
000002e0: 3d3b c53d e63d 7fbe 9074 4dbe 24ce a53c
000002f0: 92f7 6f3d 6c7b eebd 9567 6e3e bb5c 023d
00000300: 1846 fb3c c0e0 c13c fe72 5bbd f374 f2bd
00000310: 0d2b 083e eb1c 92bc 3138 95bd e54d 7e3c
00000320: 929c a9be b433 48bb 69ee ec3d 0997 ae3d
00000330: 962f 1f3e a101 2dbd f787 77bc 4544 3cbd
00000340: 25c3 323e 281f 55be 568c 2c3e 9cbf b7be
00000350: 71f6 1ebd 5e33 fbbd b68c 253e 6c8a dabd
00000360: 7cdb debd 2ddd 313e 9418 4fbd 5a08 ea3d
00000370: a7aa 333e 4961 2f3e c5cf 96bd 306a f2bd
00000380: 4a95 d3bd 3b7b 853a a404 2cbe e601 b43d
00000390: 6b78 d6bd 45c1 a83d 19b4 46bd e8b1 bf3d
000003a0: 98eb 2bbe 76ba ae3b f2c5 5abe 9529 c2bd
000003b0: 8f0d 453e 5510 93bd 1340 1ebd 13e1 0bbe
000003c0: a9c2 0bbe 4cae a5bd e66a 8e3c 3514 e4bd
000003d0: 2e7b 713c f9c1 00bd 59c2 f43d eef2 1abd
000003e0: d082 973d eb10 46be d700 c93d 9970 ffbd
000003f0: 250a 02bd 05d6 92bd 333a 143e 7e10 abbd
0.0661932 0.09788684 0.00017186388 -0.23923373 0.17170063 -0.0879296 0.10020484 0.019420387
-0.1976632 0.017977964 0.08369424 0.02567667 0.030855918 -0.056694366 -0.12842512 -0.19171631
0.11338976 -0.105013885 0.2858789 -0.18730572 0.13377693 -0.050248303 -0.15988587 -0.135875
-0.095823444 0.034152955 -0.13679105 0.095971376 0.20591821 0.18954228 0.023032704 -0.066792876
0.10034135 -0.10574327 0.09449749 -0.024713278 0.055777382 -0.09029269 0.06329837 -0.07321292
-0.06217529 0.004135457 0.085093915 0.042020824 0.15260778 0.05339509 0.017569788 -0.05957866
-0.20675115 0.064584084 -0.04406046 -0.16912553 0.038194686 -0.09780173 -0.16711913 -0.060297962
0.04059376 -0.1994756 0.07940163 -0.04447591 -0.11516578 0.009827166 0.14928512 -0.047203157
0.024066858 0.12114579 0.17211181 -0.3166237 0.06686612 -0.14237224 -0.07356551 0.1498766
-0.19513673 0.007514294 0.01087829 0.09626235 -0.007427173 -0.03979745 -0.15676518 -0.018396767
0.0012228637 -0.14110541 0.23811297 0.021328265 -0.13389371 -0.045453127 0.025979912 -0.074913114
0.1376889 -0.039217807 0.065144666 0.051379632 0.03678843 0.023068795 -0.016586732 0.006274812
-0.0016887916 -0.023880359 -0.086936824 0.007684559 -0.07967855 0.119394995 0.013588634 -0.0906132
-0.086322755 -0.029712724 -0.0155420555 -0.035871644 0.104892194 0.10051461 0.058414284 0.06194251
-0.21504489 -0.09320099 -0.026001446 -0.021423358 0.023885008 0.0022460173 -0.05985912 -0.050629817
0.19049862 -0.12152932 -0.045731936 0.09702901 -0.024416184 -0.025950098 0.015194921 0.00089655636
0.19990987 0.04076467 0.12526815 -0.22362176 -0.082566075 -0.0865572 0.06933958 0.037493262
-0.09717901 0.07818323 -0.091882914 0.014685674 0.04383791 -0.16591443 0.13612752 -0.19486389
0.20298137 -0.16629706 -0.1182659 0.06764313 0.29611787 0.13611385 0.032483667 -0.16518979
0.07003652 0.12145826 0.2417508 0.13989934 0.070041515 0.09045626 0.030632583 -0.034621805
0.25542343 -0.08538088 0.0018017471 -0.17483626 -0.06468357 -0.08973554 -0.105704464 -0.014897374
-0.088325374 -0.2510153 -0.036732033 -0.12610331 -0.08364126 -0.00925073 -0.079370975 0.13983037
-0.124947384 0.09759354 0.061866235 -0.0780073 0.12228379 0.10367521 -0.14111185 -0.11382475
0.096304394 -0.24925956 -0.20063996 0.020239897 0.05858571 -0.116446346 0.23281701 0.031826716
0.030673072 0.02366674 -0.053576462 -0.118387125 0.13297673 -0.017836055 -0.07286108 0.015521501
-0.33127266 -0.0030548396 0.11568911 0.085249014 0.15545496 -0.04223788 -0.0151081 -0.045963544
0.17457254 -0.20812666 0.16850409 -0.35888374 -0.038809244 -0.12265657 0.16166958 -0.10670933
-0.10881707 0.17369528 -0.05056055 0.11427374 0.17545567 0.17126955 -0.07363848 -0.1183666
-0.10331209 0.001018382 -0.16798645 0.087894246 -0.10472187 0.08239988 -0.0485116 0.09360105
-0.1678909 0.0053322865 -0.21364573 -0.094805874 0.19243453 -0.071808495 -0.038635325 -0.13660078
-0.13648476 -0.08089885 0.017384958 -0.11136667 0.014738841 -0.031434987 0.119511314 -0.037829332
0.073979974 -0.19342391 0.09814613 -0.12472648 -0.031747956 -0.07169727 0.14475326 -0.08352755

conditioner.fc2.bias f4 [160]
00000000: f31d 57be 7561 97be b52c 1fbe 27b1 e3bd
00000010: 1e0e fbbd 7c40 74be 84d7 d3bd 2d6e 72be
00000020: 9e7d 0bbe 2b21 18be 0c52 77be e8c3 a4be
00000030: 776f 58be 5609 68be 4f8a ddbd 2ee0 06be
00000040: 2a9e 3a3d cf4a 8fbd 2481 2fbd e828 df3d
00000050: b851 debd af9f 33be b0d6 d2bc 7601 f6bd
00000060: f184 ae3a 7a21 8a3c e00f 973d 4dd1 26be
00000070: a78d 853c 950f a2bc d16d 8bbd 6358 96bd
00000080: 5607 4dbe 62b1 bfbd b5ff a1be 62d2 55be
00000090: 5da7 52be bfa8 39be 798a 70bf 8b4d 59be
000000a0: ec4a 45be 319b 0c3e 16bc 23be 7279 33be
000000b0: d6cc 9abe 15c1 7ebc 0d19 a3be b7e6 79be
000000c0: 07fb 2bbe b9b5 0abe cd24 17be 6417 64be
000000d0: 7dc9 47be 77fe 4fbe fc11 7cbe 1135 5bbe
000000e0: ff3b a6be 2a7e 1c3f ab91 043e 8a83 55be
000000f0: 258b 73be cc18 12bf 093c acbd 37d6 6dbe
00000100: e3d2 72be f295 4dbe 66f2 3ebe fe52 89bf
00000110: 88d9 373f 6b40 6abe 1d6b 123f 563f 9abe
00000120: 5ea4 49be 2717 8dbe 83e3 a8be 35b1 74be
00000130: 5859 63bf 635c 363f 5440 83be 3985 1dbe
00000140: dd04 22be 28aa 94be bd5f 7abe 14a4 68bf
00000150: ffb5 2f3f 6f00 21be dd17 1dbe 6432 46be
00000160: 31eb 2a3f 28fc 75be e828 31be dde8 a6be
00000170: c5cd 3cbe fe0f c83e 350e 7abe c161 6cbe
00000180: 09fb dabe 4fed 32bf 6ee0 923e 15dd a93e
00000190: 9cb0 e03e faeb 3abf 70fb 22bf 25d1 11bf
000001a0: 7c99 1bbf d75f 58bf b300 1c3f b754 49bf
000001b0: 2ae8 4bbf 53fb 13bf 90e2 31bf f828 0c3f
000001c0: 8bb9 30bf b1e8 013f 655f 0bbf 5f70 19bf
000001d0: e69d 283f 1216 41bf 4844 06bf 43d2 3abf
000001e0: f39b abbe e486 0dbf 262e 54bf f8d2 36bf
000001f0: 1af8 16bf 9570 00bf a280 3abf 38d6 f53e
00000200: 4e18 3ebf cf70 25bf 21a9 10bf 2741 ffbe
00000210: 01b5 9dbe 4396 9ebe da41 3ebf 1f4e 4dbf
00000220: a0a3 2abf 1c23 37bf 0c46 a1be 08e2 37bf
00000230: a9cf 1ebf 5894 babe eb47 30bf 3f3a 1fbf
00000240: 8a44 14bf 439c 16bf 5f76 41bf 1b2a 1cbf
00000250: 56a9 8abe 15e7 523e 809b 2bbf d446 3ebe
00000260: 1013 05bf 2e81 1abd 3fd0 35bf 3320 393f
00000270: 1355 f4be bdae 16bf dfb5 20bf 537d d1be
-0.21007518 -0.2956654 -0.15544398 -0.111177735 -0.12258552 -0.23852724 -0.10343841 -0.23674841
-0.13622138 -0.14856403 -0.24152392 -0.32180715 -0.2113627 -0.22659811 -0.10817396 -0.13171455
0.045560993 -0.069966905 -0.042847767 0.10896474 -0.1085543 -0.17541383 -0.025737137 -0.120119974
0.0013314766 0.016861666 0.07376075 -0.1629078 0.016302897 -0.01978282 -0.06808055 -0.07341077
-0.2002233 -0.09360005 -0.316404 -0.20881036 -0.20571657 -0.18130778 -0.9396129 -0.21220987
-0.19266862 0.13731076 -0.15989718 -0.17526796 -0.30234402 -0.015548964 -0.3185505 -0.24404417
-0.16794978 -0.13545884 -0.14760132 -0.22274548 -0.19510455 -0.20311914 -0.24616235 -0.21406962
-0.32467648 0.6113001 0.12946193 -0.2085096 -0.23783548 -0.5706909 -0.08409888 -0.23226248
-0.2371326 -0.20076731 -0.18647155 -1.0728452 0.718163 -0.22876136 0.5719469 -0.30126446
-0.19691607 -0.27556726 -0.32986078 -0.23895724 -0.888082 0.7123472 -0.25635016 -0.15382852
-0.15822168 -0.2903607 -0.24450584 -0.90875363 0.6863708 -0.15722822 -0.15341134 -0.1935516
0.66765124 -0.24021971 -0.17300761 -0.32599536 -0.1843787 0.390747 -0.24419482 -0.23084165
-0.4276965 -0.69893354 0.2868685 0.33176485 0.43884742 -0.7301632 -0.63664913 -0.56959754
-0.60781074 -0.8452124 0.60938567 -0.7864489 -0.7965113 -0.57805365 -0.6948633 0.54750013
-0.69033116 0.50745684 -0.54442436 -0.5993709 0.65865934 -0.754243 -0.5244794 -0.72977084
-0.33517417 -0.5528395 -0.82882917 -0.7141566 -0.5897232 -0.50171787 -0.7285253 0.48014998
-0.74255836 -0.6462526 -0.5650807 -0.49854395 -0.30802158 -0.30974016 -0.7431923 -0.8019733
-0.6665592 -0.7153795 -0.31498754 -0.7182927 -0.62035614 -0.36441302 -0.6885974 -0.6219825
-0.5791708 -0.58832186 -0.75571245 -0.6100175 -0.27082318 0.20595963 -0.6703415 -0.18581706
-0.5198221 -0.03772085 -0.71020883 0.7231476 -0.47721156 -0.5886038 -0.62777513 -0.40915927
