parametric_qst/tfim_4x4_multi_suscept/models_viet/hyprbm_tfim_4x4_20000_suscept_seed42_20260123_014421.pt (torch, 51418 bytes, 7 tensors)

W f4 [16, 64]
00000000: 2110 89be c9b0 fdbe aae8 3fbd 0546 14be
00000010: ea14 dabd 2ac3 d33d b5ea 6dbd d8d7 dabd
00000020: 8826 a6bf 29fd 6abe b186 c1bd 6dbc 1dbd
00000030: 15b9 93bd c2f2 9fbf 0be3 1d3e d5d6 753f
00000040: aaf7 52bd b9a6 b7bd a65d 293d 0f39 26bd
00000050: 5663 54be 1b91 463d e471 2ebe bc2a 04be
00000060: ab25 aabd 7a30 64be 6aaa 32be f060 333f
00000070: 262b aebe ae0f 84be ef9a 973c 1798 8abe
00000080: 4252 023d 8fd3 7ebd 1704 17be ae8c 00bf
00000090: 11db 46bd 0785 3bbe c7c6 84be 6d25 bebf
000000a0: ee15 cdbd 28ff dfbc 99f2 d7bd 9e87 dbbd
000000b0: 26c5 debe 5aa8 a2be 5cf9 09bc 5f18 eabd
000000c0: 675a 83be ba69 97be 6ff4 e8be cea2 27be
000000d0: 8975 9fbd cdd8 a0be b827 43be d514 96bd
000000e0: 51b9 7bbc e05f 0cbe 60c1 12be a4d3 fcbd
000000f0: 5bc1 10be 4cd5 34be 9fbc edbd de02 4fbe
00000100: 0f6a a2be 6e33 10bf e869 16be 9d86 863d
00000110: 506f 17be 7525 da3e 8117 3fbe b2a9 23be
00000120: b05d 91be f350 edbe c6f0 0abe 1f38 9ebe
00000130: 642e cfbd a785 26be 6a8c 85bf 1f45 633f
00000140: c6b1 d9bd 03ec 9f3e 7f2f 89be def3 25bd
00000150: 0bbf 80be 191e 0abe d97a a4be 0699 44be
00000160: 9b76 e8bd 564e a0be da09 163e 8824 a83e
00000170: 1c78 c2be 7056 3cbf 76ed e4bd 6675 83bd
00000180: 8a74 46bf d016 b2bd 2ddd a9be 6794 17bf
00000190: 61cf 4abe 7673 42be 3198 c5be 5b4c 11be
000001a0: 0b33 c0bd 69e2 02be 1e36 1e3e ba99 37be
000001b0: d567 a9be 124a 383e 3758 04bf 1901 b2bd
000001c0: 1fbf 26be 7f20 fb3c bb56 cabd 12f9 35be
000001d0: c73e c7bd 9032 ffbe e7ee 0abf 9284 fcbd
000001e0: 3052 c4bd da87 66be abb4 8fbd e887 c4bc
000001f0: d480 07be 848f 9fbf 8346 6abe 38b7 67bf
00000200: 412b c4bd 058c edbe 9c03 2dbe 8e8c 33bf
00000210: 782a 4bbe 2f39 da3d 521c 1ebe 7a74 1cbe
00000220: f114 053f 202d c0be 5232 82be edaf 19be
00000230: e76a 9fbe a258 0cbf 93b5 f8be 6e48 1f3e
00000240: 759e 97be 8a98 2d3d 2b54 14be 9e8d 43be
00000250: aadd 56be fdc6 02be 1299 debd e9a6 1ebd
00000260: 657f 4ebe fd96 7abf 3469 72bf f373 9838
00000270: 15a9 0e3e 75b8 f03e a2fa 88be f819 ec3c
00000280: eae9 303d db36 12be dbf1 abbe 4052 43bf
00000290: 9c29 46be 037a f3bd 5388 23bd 775e a03e
000002a0: 3675 64be e4e0 8bbe a162 943d c773 5ebe
000002b0: 4c1a 23bf 7800 11bf 5db6 0dbf d537 94be
000002c0: 5eea c83d 2b8c e73d ae78 993d c1c8 51be
000002d0: 8926 b6bd 72c1 d13d e90e f2be 35f1 31be
000002e0: 3621 51be 6d1e 9d3e 0d72 5fbe 3d0d 5dbd
000002f0: cdea 3cbd e12a d3bf b2be 81be aee9 b53e
00000300: 04eb 133d 9e82 e0be 7f92 eabd a48c 5bbf
00000310: a09d 1bbe f337 2abf 3c16 b1bd db52 aabd
00000320: abbd 3b3e c43d 3fbe b53f 41be e60b 42bd
00000330: 7828 38be 0912 49bf 64cd 1bbe 846f 353f
00000340: 5c0e 8bbe 6e68 57bf 501b f23c 602e 32be
00000350: 9d3f 06bd 8668 37be b5e5 2a3e 0b42 be3d
00000360: f790 3ebe c80e 833e 2126 1fbd 8e96 cabe
00000370: 6884 9cbd 9592 61bd 455d 6ebe 8b54 a7be
00000380: 3fc4 00bc 30f5 02be e626 ebbb 6f88 94bf
00000390: 7f40 b6bd 3e8d 08be 2090 2fbe 7128 63bf
000003a0: 6820 88be 9d68 a5be 09fe ce3d bbc0 bdbd
000003b0: f766 12bf 8a75 dfbe 6b8d 693d f79b 88be
000003c0: 8a0e 063d bc10 19be 878a 7c3e 5c5e 66be
000003d0: 921f c1bd 1c47 69be 188f 353d f3b7 16be
000003e0: b41f 31be b6aa 523d d2bb acbd a5c3 86be
000003f0: c1f3 dfbc 505e a3be 57ea f6bd 83f1 8b3f
-0.26770118 -0.4954894 -0.046852745 -0.14479835 -0.1064852 0.10339959 -0.058085162 -0.106857
-1.2980509 -0.22948135 -0.094495185 -0.038509775 -0.07213036 -1.2495959 0.15418641 0.9603093
-0.051505722 -0.08967347 0.041349076 -0.04058176 -0.20741019 0.048478227 -0.17035633 -0.12906927
-0.08307966 -0.22284117 -0.1744782 0.7006979 -0.34017295 -0.25793213 0.018506495 -0.2706916
0.03181673 -0.062213477 -0.14747654 -0.5021466 -0.04854876 -0.18312465 -0.25932905 -1.4855171
-0.100139484 -0.027343348 -0.10544319 -0.10719226 -0.43509787 -0.31769067 -0.008421268 -0.1143043
-0.2565491 -0.2957285 -0.45498988 -0.16370699 -0.0778609 -0.31415406 -0.1905812 -0.07328192
-0.015364007 -0.13708448 -0.14331579 -0.12345055 -0.1413626 -0.17659491 -0.11608242 -0.20215937
-0.3172154 -0.56328475 -0.14688838 0.06568644 -0.14788556 0.42606702 -0.1866131 -0.15982702
-0.2839179 -0.46350822 -0.1356841 -0.30902192 -0.1011627 -0.16261922 -1.0433476 0.88777345
-0.10629611 0.3123475 -0.2679405 -0.040515773 -0.25145754 -0.13488044 -0.32124975 -0.19198999
-0.11350747 -0.31309766 0.14652196 0.3284037 -0.3798226 -0.73569393 -0.111781046 -0.06418876
-0.77521574 -0.086957574 -0.33176556 -0.5921082 -0.19805671 -0.18989357 -0.38592675 -0.14189284
-0.09384736 -0.12781681 0.15450332 -0.17929736 -0.3308703 0.17997006 -0.51697105 -0.086916156
-0.16283844 0.030655144 -0.09879824 -0.17770794 -0.09728771 -0.49843264 -0.54270786 -0.12329973
-0.095859885 -0.22512761 -0.070168816 -0.023990586 -0.13232738 -1.2465672 -0.2287846 -0.90513945
-0.095785625 -0.4639589 -0.16895908 -0.70136344 -0.1984042 0.10655438 -0.15440491 -0.15278807
0.5198508 -0.37534428 -0.25429016 -0.15008517 -0.31136248 -0.5482274 -0.4857603 0.15554973
-0.2961308 0.0423818 -0.14485233 -0.19096991 -0.20982996 -0.1277122 -0.108690396 -0.038733397
-0.20165785 -0.9788664 -0.9469178 7.269522e-05 0.13931687 0.4701573 -0.26753718 0.028820977
0.043191828 -0.14278738 -0.3358296 -0.7629738 -0.1935181 -0.11888506 -0.03992493 0.3132207
-0.22310337 -0.27320015 0.072453745 -0.21723853 -0.63712 -0.5664134 -0.5535639 -0.28948846
0.09810327 0.11306032 0.07493721 -0.20486738 -0.08894069 0.10241975 -0.47277 -0.1737717
-0.20422825 0.30687276 -0.2182085 -0.053967703 -0.04612236 -1.6497461 -0.253408 0.35529846
0.0361128 -0.43849653 -0.11453723 -0.85761476 -0.15196848 -0.6649162 -0.08646819 -0.08316585
0.18334071 -0.18675905 -0.18871959 -0.04737463 -0.17984188 -0.78543144 -0.15215069 0.70873284
-0.27159393 -0.8414372 0.02955404 -0.17400503 -0.03277551 -0.17910966 0.16689189 0.092899404
-0.18609987 0.25597215 -0.038854722 -0.3956799 -0.07642442 -0.055071432 -0.23277767 -0.3268169
-0.007859289 -0.12788844 -0.007176268 -1.1604136 -0.088990204 -0.1333513 -0.17144823 -0.88733584
-0.26587224 -0.32306376 0.10107047 -0.09265276 -0.5718836 -0.43644363 0.057019632 -0.26681492
0.03272871 -0.1494779 0.24662219 -0.22496933 -0.0942985 -0.22781032 0.044325918 -0.14718609
-0.1729725 0.051432334 -0.084342614 -0.2632114 -0.02733791 -0.31907892 -0.120564155 1.0933079

b f4 [16]
00000000: d25f 1cbb 7d0a 0ebb c8b6 bcbc c094 85b9
00000010: 7f3c f4bb f3a0 c5bb 2d61 11bd 6d2f 38bc
00000020: 75ee 0fbc cfc5 1eba 88ed 90bc db5e 6dbb
00000030: 380a 4ebc f14b 06bc d83b a3ba 22ff b63b
-0.0023860824 -0.0021673732 -0.023036376 -0.00025478564 -0.0074535008 -0.0060311495 -0.035493065 -0.011241776
-0.00878488 -0.00060566975 -0.017691389 -0.0036219868 -0.0125756785 -0.008196817 -0.0012453748 0.0055846134

c f4 [64]
00000000: d203 0bbe 8d62 dd3d faf1 0cbf 3cd2 3fba
00000010: c800 5f3a 0582 b8ba 3ea0 4a3b 77c6 82be
00000020: 8a3e 9abb fc5a d93b 3d11 77be 695b 4f3b
00000030: 8f51 8e3b e43d a93c b594 3dbc 33a3 60bb
00000040: 57d8 053c 03cf 0f3e f0b7 b8be e682 c8be
00000050: c33e 4438 f546 a73e bde9 9c3e f6be 53be
00000060: 817f a63b 138d 283c 89d4 7cbb b4ff d5bc
00000070: 4d3d 2b3b df04 cf3b b9af cb3b f1fc eabe
00000080: c4aa e8bb 853c f8be c75e 9839 ccb3 b0be
00000090: fc8e 1439 7486 793b 3d31 1b3c adb5 2cbc
000000a0: 59e1 5f3b b8da 05bf 47c6 8ebb a374 10be
000000b0: c12f 20bc 0e0d af3e 9458 eabb f025 2b3c
000000c0: 6b5f 38bc 5eb6 a3b7 996f 1ab9 4869 7bbe
000000d0: 3bb1 27bf b13b 78be c902 95bb 4c03 f4be
000000e0: ca26 0c3c 00cd 843a 2e94 083b 46ea d9be
000000f0: 8daf debe 309d 473c ebc6 c93b e3bd f3bb
-0.13575676 0.10809813 -0.55056727 -0.0007317399 0.00085068913 -0.0014076835 0.0030918266 -0.25542042
-0.0047071623 0.0066331606 -0.2412767 0.0031640178 0.0043432186 0.020659395 -0.011571099 -0.0034276962
0.008169255 0.14043812 -0.36077833 -0.39162368 4.6788493e-05 0.32671323 0.30647078 -0.20678315
0.0050811176 0.010287541 -0.003857883 -0.026122905 0.0026129067 0.0063177194 0.006216016 -0.45896104
-0.007100435 -0.48483673 0.00029062314 -0.34512174 0.00014167646 0.0038074525 0.009472189 -0.010541362
0.0034161417 -0.52286863 -0.0043571326 -0.14106993 -0.00977701 0.34189647 -0.0071516726 0.010446057
-0.011253218 -1.9516036e-05 -0.00014728158 -0.2455188 -0.6550481 -0.2424152 -0.004547451 -0.47658765
0.00855417 0.0010131896 0.0020840275 -0.4256155 -0.4349331 0.0121834725 0.006157746 -0.0074384077

conditioner.fc1.weight f4 [64, 1]
00000000: f725 443f eec5 ec3b b513 0fbe e4ef c13c
00000010: 3f18 603c 6ff1 873d 1654 1dbf 4c44 8fbb
00000020: 4ed0 16bc 3332 093e ca21 1e3f 5648 c53d
00000030: c51a 993d fcb5 8bba 24ce 68bc 9b92 62bd
00000040: 03ad 5d3d de0e 283d 0926 80bd 0818 a23c
00000050: acdf 42be 31e3 cabb 5fdb f2bd 1abe c63e
00000060: 24cd 333b e10c d7bb b879 f4bb 1177 8a3a
00000070: f048 cabb 562a 45bd 8dd0 253e 4fbe 533c
00000080: 5394 8abd 3b81 263c c189 a83b 8c0b 173f
00000090: 82a3 e13c 9bb9 ec3b be7e 393c 176d a93c
000000a0: 5220 8f3b 6b07 773c aa4d 0f3f f23d 6b3f
000000b0: 8368 bb3e 759c 033d 14bb bdbc be9d 0f3c
000000c0: d0a1 60bc 30d2 6c3d 418c 99be 1441 54ba
000000d0: 6e1c 8cbc 5066 8b3e c74c bf3c 3d76 e13d
000000e0: 6298 cabb a624 913b 6359 023c 9963 c23c
000000f0: 45aa ac3c 6f71 c03c 8a09 d63c 957e 033d
0.7662043 0.0072257435 -0.13972361 0.02367396 0.013677656 0.06637847 -0.6145643 -0.0043721553
-0.009204937 0.13398056 0.6177031 0.096329376 0.07475809 -0.0010659094 -0.014209304 -0.055315595
0.054120075 0.041029803 -0.06257255 0.01978685 -0.19030637 -0.006191634 -0.11858248 0.3881691
0.0027435506 -0.0065628146 -0.007460799 0.0010564049 -0.0061732456 -0.048136078 0.16192837 0.012923791
-0.06766572 0.010162647 0.0051433747 0.59001994 0.027543787 0.0072242743 0.011321722 0.0206819
0.0043678666 0.015077452 0.5597788 0.91891396 0.36603174 0.03213163 -0.023160495 0.008765636
-0.013710454 0.057817638 -0.29989818 -0.00080968556 -0.0171034 0.27226496 0.02335204 0.1100888
-0.006182716 0.0044294177 0.007955882 0.023729132 0.021077285 0.02349159 0.026127595 0.03210314

conditioner.fc1.bias f4 [64]
00000000: 3777 cb3e 6c34 393d c907 db3e a9aa 89bc
00000010: 9025 423a ad1d 1dbe 082e 8f3f 891b b83b
00000020: 3000 e03c d13d f5be b5a3 abbf 4f37 a0be
00000030: 5092 46be 96d7 68bb 496f 1c3b f13f 253e
00000040: d4d1 02be 6eed ddbd 4103 333e 9574 f8bc
00000050: 06f4 0a3f a471 993c 8811 ad3e 98d8 82bf
00000060: e368 a33b 9b45 dc3c 8fe0 aa3c e5de 52ba
00000070: 346b d53c f99e b13d 301b d7be 02c0 afbc
00000080: 14fd 833e 0618 1fbc 6522 153d 485a 98bf
00000090: a64a a5bd 5b3f 433c 8621 093d f8a6 593a
000000a0: 1f42 afbc 61ee 04bd 63dd 81bf 0dbe 41bf
000000b0: 20b0 74bf 7020 85bd 9268 5d3d ca17 cc3b
000000c0: 1134 6fbb ab02 3dbe 9d0a cebe 2969 9d3c
000000d0: ed92 d43b 724f 3abf f57f 1cbd 1130 a3be
000000e0: 47ec 36bc 7b78 e1bb 1f64 15ba d3b6 75bd
000000f0: 8393 38bd 4130 91bd 7cd3 4cbd d63b 43bd
0.3973939 0.04521601 0.42779377 -0.01680501 0.000740611 -0.15343352 1.1185923 0.005618517
0.02734384 -0.47898725 -1.3409334 -0.31292197 -0.19391751 -0.003552889 0.0023870042 0.16137673
-0.12775356 -0.10836302 0.1748171 -0.030329028 0.542786 0.018730946 0.33802438 -1.0222349
0.0049868687 0.02688866 0.020859031 -0.0008044078 0.026052095 0.086729 -0.4201293 -0.021453861
0.2577902 -0.0097103175 0.036409754 -1.1902552 -0.08070879 0.011916961 0.033479236 0.00083027733
-0.021393834 -0.0324539 -1.0145687 -0.7568062 -0.95581245 -0.065003276 0.054054804 0.006228422
-0.003649954 -0.18458049 -0.40242472 0.019215183 0.0064872415 -0.72777474 -0.038207967 -0.3187261
-0.011164731 -0.0068808175 -0.0005698818 -0.059988808 -0.045062553 -0.07089282 -0.050006375 -0.047664486

conditioner.fc2.weight f4 [160, 64]
00000000: d406 2cbe 124d 00bd ab0c 20be 0333 bc3d
00000010: 2dc5 21bd 02c5 463e 18d2 cbbc 6e71 96bd
00000020: f992 04be 99ba 923d bd68 033e 9c50 523e
00000030: 7c09 2a3d e122 32be 2727 e63d 3b46 7abe
00000040: 00d0 9c3d 67e2 9e3e c67f 613d 7f7a 653e
00000050: c1d6 c23d 6f09 84bd d1c5 5f3a 9a4a 47bd
00000060: 99fa 93ba 1e5f e9bd 0ca9 ed3d 117b 68bd
00000070: f069 753c 89a1 b0bc c18c dcbc 2094 49bd
00000080: e091 4dbb 6d42 ae3d b86d 313b 1adf b9bd
00000090: 0b2c 8d3e e742 07bb 4767 bbbd cb2b 2e3e
000000a0: 4702 76bd 2e03 4f3d 80e9 bcbd 43b5 50be
000000b0: 71aa 403d 82af 023c dbb9 debd 476e a53d
000000c0: eac6 04be 24e2 0c3e 2f17 b73e 1301 23be
000000d0: f798 de3d d092 d6bb 7335 cc3d 9c31 eb3c
000000e0: 104c 67bc b282 08be e87b 993d e5a0 51bc
000000f0: c282 963d 7732 1b3d a623 a23d 9d78 fe3c
00000100: 6ae5 72be 72f7 9b3d 283b ddbe 060c d2bd
00000110: ef8c 943c 0ae2 933e 7fbf 043e ca1b 95bd
00000120: 3de2 23be d3d2 083e 400f fb3c 6859 f63e
00000130: 3ed1 4cbc 1190 03be 69f8 c6bc 27bf b4be
00000140: 2cd0 54bd 2aad 8d3e 0e42 8f3d 6c6b e13d
00000150: 594b c6bd 07b8 e03d 4ddd cebd 7957 2d3d
00000160: 7686 903d 0bfd 233d 0ea5 553d fc4c da3b
00000170: 3d11 2abe f7e3 de3d 6856 1cbe 7621 6f3d
00000180: 592e 68be 4b25 5dbe 198c 803d a6de 56bd
00000190: 2fc8 f13d 60b7 4bbe 4ba9 e4bb dc14 293e
000001a0: 94a4 dabd e1e9 243e cba4 053d 5c56 50be
000001b0: 4104 bbbd 3847 ebbc abaa 0fbe 1d25 053e
000001c0: 2fb4 93bb 796c e23c 00c9 8d3e 6e06 cebd
000001d0: 7aeb 343d d34a 5ebe 2f91 79bd 1a15 063e
000001e0: abe8 1bbe e5da 253e 3cad b4bd 6943 05bb
000001f0: 9822 343e 6b1a 543c b833 e63b 856f 35bd
00000200: 1501 5ebe 94d3 d3bd e5f3 42be 8b6e f23b
00000210: ab09 55bc 9144 6a3d edfe 113e af94 5cbc
00000220: a782 e53c d8b8 a53e 48ed ba3d 7784 253e
00000230: b4b4 253d 66ac 10be 10c0 9d3d 3600 16be
00000240: 87d2 153e efc6 f03d 0c0a 513d 6bd5 a6bd
00000250: 610e 64be 3f96 073e 5312 59bd 2741 15bd
00000260: 39db 1dbb 2444 94bc b181 053d c756 27bd
00000270: 4c0d 8ebc 8745 4dbd 95ff 09be 11b1 283e
00000280: 950d 94bc 41b0 25bd 4071 91bd dec4 3dbd
00000290: 57da 05be 3087 cdbd 7de9 60bc 22cb 29bd
000002a0: bf2d 96bd a8c7 0e3d c89a c3bd 2990 9cbe
000002b0: 6010 183d 2413 4f3c 0039 aebc fc8e 6f3d
000002c0: 87fe 16be 0349 663e d2ca 613e 5587 10bc
000002d0: c9ca 703c 4b85 ffbc 44af 9a3d 4e9f 733e
000002e0: a3ea 91bd f93f 3abe fb1c e73d 81af 9b3d
000002f0: 4b92 353d 3f06 2c3e 706c 84bd 2af7 133d
00000300: a54a acbe 5a14 1cbe baa7 55be 6cb3 283e
00000310: 32b4 5fbe b13f 283e 1996 d0bc e36f 81be
00000320: dd4e f4bd 269f 203e c9da c53d 2f2c 983e
00000330: bce4 78bd e7ed e23c 0a68 433d 1749 b4be
00000340: ff3a a13d cd9f b13e 743a dbbd 3679 143e
00000350: 766f 1fbc 4a72 0d3f 1845 3ebe 5ada 2abe
00000360: ae2b 043e 4096 58bd 5b28 1a3e 1e56 9b3c
00000370: 798f 1dbe 3e09 4dbd ec50 30bd 4328 ec3c
00000380: 3b60 00bc 161b bb3b d466 a93c 60ca c8bc
00000390: 7609 953e 0288 15be bec1 c1be c673 9d3e
000003a0: 57f9 103e cd33 f73c 51c6 2fbe 0e03 13be
000003b0: 81af 83bc 39f9 d43d 119e 8fbd dd05 753d
000003c0: 71a8 3bbe f414 d03d 71f7 b33e 0626 883e
000003d0: 5a92 c03c 6e80 2abe 39fa 283d e63d 7e3d
000003e0: 49b0 943c a3cd 353f b2db 6fbc 6aae cfbb
000003f0: 4745 743e fc11 03bd d027 b53d dbb7 393e
-0.1679948 -0.0313235 -0.15629832 0.09189417 -0.039494682 0.1941109 -0.024880454 -0.07345854
-0.1294669 0.07164497 0.12832923 0.20538563 0.04151295 -0.17396118 0.112379365 -0.24440853
0.0765686 0.31032106 0.055053495 0.2241001 0.09513617 -0.06447112 0.0008536252 -0.04865513
-0.0011289894 -0.11395095 0.11604509 -0.05675799 0.014978871 -0.021561401 -0.026922585 -0.04921353
-0.0031367466 0.085087635 0.0027073454 -0.09075756 0.27572665 -0.0020639242 -0.09150558 0.17008893
-0.060060766 0.05054014 -0.09224224 -0.20381646 0.047037546 0.007976415 -0.10875293 0.08077674
-0.12966505 0.13758141 0.35759875 -0.15918379 0.108690195 -0.006548263 0.09971132 0.028710179
-0.014117256 -0.13331106 0.07494336 -0.012794708 0.07349159 0.037889924 0.07916956 0.031063372
-0.23720327 0.07615556 -0.43209195 -0.102561995 0.018133609 0.28883392 0.12963675 -0.07280691
-0.16004272 0.13361673 0.03064692 0.48115087 -0.012501059 -0.12847926 -0.024288373 -0.35302088
-0.05195634 0.27671176 0.06995021 0.11006817 -0.0968234 0.109726004 -0.101008035 0.04231975
0.070568964 0.040036242 0.05215936 0.0066620093 -0.16608138 0.108833246 -0.15267336 0.05838152
-0.2267393 -0.21596257 0.062767215 -0.052458428 0.1180576 -0.19894171 -0.006978189 0.16511863
-0.10675922 0.16104843 0.032627862 -0.20345443 -0.09131671 -0.028720483 -0.14029948 0.13002439
-0.0045075635 0.027639614 0.27692413 -0.1005982 0.04416988 -0.2170823 -0.060929473 0.13093987
-0.15225475 0.16196783 -0.08822104 -0.002033437 0.17591321 0.012945752 0.0070252083 -0.044295806
-0.216801 -0.1034309 -0.19038351 0.0073984317 -0.013002793 0.057194296 0.14257403 -0.013463183
0.028016401 0.32367587 0.09127289 0.16163813 0.040455535 -0.14128265 0.07702649 -0.14648518
0.14631091 0.117566936 0.051034972 -0.08146175 -0.2227111 0.13240908 -0.05299599 -0.036439087
-0.0024086966 -0.018098898 0.032594386 -0.04085424 -0.017340325 -0.050115135 -0.13476403 0.16473795
-0.018072883 -0.040451292 -0.07101679 -0.046330325 -0.13071571 -0.100355506 -0.013727543 -0.04145349
-0.07332944 0.034858376 -0.095510066 -0.30578735 0.03712499 0.012638841 -0.021267414 0.05848597
-0.14745532 0.2248879 0.22050026 -0.008821328 0.014696785 -0.031191489 0.075529605 0.23791239
-0.071248315 -0.18188466 0.112848245 0.07601834 0.04432897 0.16799258 -0.06465995 0.036124386
-0.336507 -0.15242139 -0.20864764 0.16474694 -0.21846083 0.16430546 -0.025462197 -0.25280675
-0.119291045 0.1568571 0.096608706 0.2972121 -0.060765013 0.027701331 0.04770664 -0.35212013
0.07872581 0.3469223 -0.107045084 0.14499363 -0.009731164 0.55252516 -0.18581045 -0.16684857
0.12907287 -0.052877665 0.15054457 0.018961962 -0.15386762 -0.050057642 -0.043045923 0.028827792
-0.007835443 0.005710016 0.020678915 -0.024510562 0.2910878 -0.14602664 -0.37843126 0.3075239
0.14157616 0.030176068 -0.17165495 -0.14356634 -0.016074898 0.10399098 -0.07012571 0.059820045
-0.18325974 0.101602465 0.3514972 0.2659151 0.023507286 -0.16650555 0.041254256 0.06207075
0.018150466 0.710169 -0.014639782 -0.0063379304 0.23854552 -0.031999573 0.08845484 0.18136542

conditioner.fc2.bias f4 [160]
00000000: f1bc a9be 1942 64be 2247 2fbe ee6f 26be
00000010: 860a 95be 28db d0be 075a 8cbe 927b 9dbe
00000020: 73b6 95be 008c 5ebe 3903 51be 2ea4 4bbe
00000030: 143b aebe 10e0 a3be 7108 9cbe 22b7 5bbe
00000040: 10fd 043e 8bcc 52bd c5b7 8b3a e606 88bd
00000050: 6179 0a3d 65fb fa3b 4fde aabd 8d1d b3bd
00000060: b34d b93a e5a3 a9bd b549 01bd 96b3 0dbc
00000070: 0d4c 72bc c491 78be 6fc3 61be 8d69 14be
00000080: d615 0b3e f660 fdbd 3e47 263f 61b6 8fbe
00000090: a8be 4ebe 4da9 cbbe 2b55 86be 3fe4 853e
000000a0: 755f a5be d3b9 5ebe 5877 863e 3c54 babe
000000b0: b21b c3be c788 35be e37a 8bbe b995 5dbe
000000c0: 6347 70be a740 1cbf aa53 d43e 3ed6 183f
000000d0: f3f3 74be 7670 38bf 5cda 0fbd 91d9 123e
000000e0: 008a 90be 7c7a b6be cf0c 9abe 5642 c13d
000000f0: 2c67 61be d7ce 92be f92b 69be ecb8 c43e
00000100: aeba 40be 44a3 033f 347b d1be 94a4 abbd
00000110: 82b5 83be 65b1 91be 2548 7bbe 8516 82be
00000120: 2086 73be 6adf 203f 2aac a8be 259e 43bd
00000130: 0812 d5be 60ec 3abf fd2f 54be 6efe 95be
00000140: b88c 89be c780 a8be f17d 87be d38c 403e
00000150: 7648 3b3f 97be 0fbc 1421 aebe 4cfc 133f
00000160: 9bac 80be 62f3 c8be cb6a d5be bda6 053f
00000170: 9c76 e43e 9d52 76be d4f0 aabe c423 04be
00000180: df41 2fbf e6b1 b93e 5471 1cbf 35e5 a63e
00000190: fd2e 52bf 88a8 1e3f a49f 24bf ffe7 55bf
000001a0: 1cfb a5bd be69 aabe 2765 52bf 7e3f 3fbf
000001b0: 9a91 38bf 302c 453f e7d5 d9be cddc dc3d
000001c0: 5c81 42bf 053f 05bf 10a0 18bf aa2a 3dbf
000001d0: 2381 07bf f884 3ebf 7b5a 073f b573 2dbf
000001e0: 7614 45bf dd5e 00bf eb46 57bf 2084 11bf
000001f0: bbba 1dbf 89f0 dbbd 0973 68bf 7913 f7be
00000200: 9568 b5be 8cdb 31bf b2bb 18bf 861d 9d3e
00000210: 1fb9 2bbf 6928 0cbf c895 cdbe 123b 2bbd
00000220: f6de 64bf 1cef 4abf 83ee 04bf 3a37 32bf
00000230: fa36 813e bb2a 55bf 9414 14bf 2586 6abf
00000240: 4c55 fdbe 02dc 84be 03fa 11bf 89a4 16bf
00000250: c4ed dfbe e16f 4e3e cb0b 0fbf 9bbe 17bf
00000260: e984 7cbf c5c0 87be 24f7 4ebf fedb f7be
00000270: ba5c f6be 0d0c 303f 34ee fcbe 3146 95be
-0.33151963 -0.22290839 -0.17116979 -0.16253635 -0.2910959 -0.40792203 -0.27412435 -0.3075834
-0.2924076 -0.21733093 -0.20411386 -0.19886848 -0.34029448 -0.32006884 -0.3047519 -0.21456578
0.1298716 -0.0514646 0.0010659626 -0.06641941 0.033807162 0.007659363 -0.08343183 -0.08745871
0.0014137536 -0.082832135 -0.031564433 -0.008648774 -0.01478864 -0.24274355 -0.22047208 -0.1449339
0.13582548 -0.123720095 0.64952457 -0.28068832 -0.20189917 -0.39777604 -0.26236853 0.261507
-0.3229939 -0.21750574 0.26262927 -0.3639239 -0.38107067 -0.17727958 -0.27242193 -0.21639146
-0.23464732 -0.6103615 0.4147008 0.5970191 -0.23921184 -0.720466 -0.035120353 0.14340807
-0.28230286 -0.35640323 -0.30087897 0.09436481 -0.22012013 -0.2867343 -0.2277068 0.38422334
-0.18821213 0.51421 -0.4091431 -0.08381 -0.25724417 -0.28455654 -0.2453924 -0.25407806
-0.23781633 0.628409 -0.3294385 -0.04775824 -0.4161532 -0.7301693 -0.20721431 -0.29295677
-0.26865172 -0.3291075 -0.26463273 0.1880372 0.7315744 -0.0087734675 -0.34009612 0.5780685
-0.25131688 -0.39248186 -0.4168304 0.5220755 0.44621742 -0.24054952 -0.33386862 -0.12904269
-0.68459886 0.36268538 -0.61110425 0.32596746 -0.8210295 0.6197591 -0.6430609 -0.8355712
-0.08104536 -0.332838 -0.82185596 -0.74706256 -0.7209717 0.7702055 -0.42546007 0.10784302
-0.75978637 -0.52049285 -0.59619236 -0.73893225 -0.5293142 -0.74421644 0.5287244 -0.6775468
-0.76984346 -0.5014475 -0.8409259 -0.5684223 -0.61613053 -0.10739238 -0.9080053 -0.48257044
-0.35431352 -0.69475627 -0.596614 0.30686587 -0.6707935 -0.5474916 -0.40153337 -0.04180438
-0.8940271 -0.792711 -0.5192644 -0.6961552 0.25237256 -0.83268327 -0.578439 -0.9161094
-0.4947914 -0.25949103 -0.5702211 -0.5884481 -0.43736088 0.20159866 -0.5587737 -0.59275216
-0.98640305 -0.2651426 -0.80845857 -0.48410028 -0.4811762 0.6876839 -0.49400485 -0.29155114
