parametric_qst/tfim_4x4_multi_suscept/models_viet/hyprbm_tfim_4x4_20000_suscept_seed43_20260123_014449.pt (torch, 51418 bytes, 7 tensors)

W f4 [16, 64]
0.006573439 0.024413751 -0.6423486 -0.3343589 0.010573011 0.008703649 -0.7882481 -0.033363417
-0.013923726 0.020681035 0.02752232 -0.23886923 0.46735623 0.01033152 0.44137183 -0.3739872
0.26112986 0.30444753 -0.018499542 0.017423827 0.74014676 -0.010721404 -0.048281174 0.013467911
0.02935614 0.011958429 0.044556294 0.03556399 -0.17480725 0.035221905 0.028324664 0.058905855
0.6945763 0.010951402 0.01027926 0.031061178 0.068421334 0.019860566 0.0068635996 0.04111511
0.02070935 0.03674471 0.008849015 -0.69282025 -0.21033113 0.04891033 0.33614147 1.1629297
0.034466352 0.008513717 0.021558246 0.08086313 0.018536849 -0.0025281634 0.027195204 0.6646442
0.36582658 0.016115962 0.03752058 0.02531197 0.019133486 0.019879919 0.3653509 0.20406702
0.042493783 0.05102206 0.33632168 -0.4077653 0.012796645 0.07710249 -0.0070640794 -0.018301433
0.096011326 0.03869056 0.037109315 -0.30211103 0.13840747 0.043976996 0.742656 -0.06161113
0.6059084 0.04323406 0.041274667 0.050495286 -0.08975954 0.015565398 0.32731122 0.05288065
0.07431945 0.0707023 0.04594796 0.037557118 0.21368401 0.0449745 0.028075812 0.09020262
0.8624736 0.023540966 0.040437344 0.107047565 0.08289154 0.049813844 0.00089250534 -0.008469652
0.048798706 0.05138738 0.04442403 -0.72182554 -0.46949112 -0.015627904 0.32780656 1.6353383
0.07269031 0.019844467 0.038680226 0.081279136 0.022980925 0.029058127 0.05590843 -0.052834436
0.46581307 0.020847892 0.10819019 0.07269663 0.048626523 0.023690123 -0.9215168 0.3342962
0.04115835 0.06053979 -0.15837573 0.53564024 -0.0015522764 0.052915137 0.25520384 -0.01484862
0.118565425 0.038421206 -0.005884613 0.51801133 0.20662151 0.033339363 1.2080742 -0.026167147
0.8518324 -0.058563985 0.07663125 0.060313784 -0.3904858 0.008626228 0.53350216 0.042728286
0.026566466 0.065980844 0.048821554 0.023773076 0.02160662 0.020403318 0.0029586344 0.05214756
0.60306346 0.040254384 0.02620157 0.09857333 0.07589039 0.06512882 -0.0067829182 -0.0197681
0.052811194 0.0741006 0.019183837 0.5884764 -0.2926755 -0.01654425 -0.01889247 1.0810128
0.07827754 -0.022152096 0.017357469 0.06951221 0.02312628 0.0023667936 0.03898766 -0.2524054
0.27482027 0.06652571 0.053567577 0.065269284 0.033357438 0.024673238 0.02077773 0.33798075
-0.010817037 0.021186374 0.3053455 0.07401571 0.004941719 -0.01945695 -0.7706268 -0.03950251
-0.11585606 0.0018299526 -0.0074145054 0.0029520718 0.37898555 0.009173085 1.2167609 -0.30728015
0.7412687 0.8087576 -0.0056634285 0.030534724 0.47553375 -0.021018444 -0.13475995 -0.0014603399
-0.011563629 -0.01194593 0.04210495 0.026049307 0.8079643 -0.006854813 -0.030634634 -0.002312044
0.4675614 0.026720045 0.00018080293 -0.001926862 0.046262905 0.013140848 -0.030336093 0.031470917
0.003837634 0.024151452 -0.011730964 0.5883041 -0.122007616 0.066453606 -0.09367873 0.72394
0.033508845 -0.046128545 -0.0005703697 0.06299139 0.013137641 -0.052697722 0.0020121923 0.25176123
0.13582498 -0.01757801 -0.08225436 0.025622707 -0.005361479 -0.0030592598 1.5029494 0.2789229
00000000: 0166 d73b 59ff c73c f570 24bf 1731 abbe
00000010: 6c3a 2d3c c099 0e3c a1ca 49bf 14a8 08bd
00000020: 5720 64bc 466b a93c 7d76 e13c 239a 74be
00000030: 5149 ef3e 8945 293c 7dfb e13e 407b bfbe
00000040: d0b2 853e 8ce0 9b3e 5a8c 97bc 6abc 8e3c
00000050: 427a 3d3f d4a8 2fbc 7bc2 45bd 83a8 5c3c
00000060: 4a7c f03c 49ed 433c a980 363d 8cab 113d
00000070: ac00 33be d844 103d 2009 e83c 4447 713d
00000080: c1cf 313f 826d 333c 576a 283c 0374 fe3c
00000090: 7c20 8c3d a0b2 a23c 0ce8 e03b 5168 283d
000000a0: a8a6 a93c 9f81 163d 76fb 103c ab5c 31bf
000000b0: 0b61 57be 3356 483d bc1a ac3e e1da 943f
000000c0: 972c 0d3d 1e7d 0b3c eb9a b03c 929b a53d
000000d0: 97da 973c 8baf 25bb 7ac8 de3c 1f26 2a3f
000000e0: 9f4d bb3e 9f05 843c 2eaf 193d 0c5b cf3c
000000f0: d4bd 9c3c 36db a23c 460f bb3e f2f6 503e
00000100: f60d 2e3d 82fc 503d 5b32 ac3e 9dc6 d0be
00000110: 05a9 513c e9e7 9d3d cb79 e7bb e3ec 95bc
00000120: 96a1 c43d fe79 1e3d f0ff 173d 4cae 9abe
00000130: b0ba 0d3e 3921 343d b41e 3e3f f45b 7cbd
00000140: d01c 1b3f 3316 313d a00f 293d 25d4 4e3d
00000150: dad3 b7bd 0306 7f3c 5695 a73e 6199 583d
00000160: cc34 983d 5ecc 903d ee33 3c3d 7ed5 193d
00000170: fbcf 5a3e 2e37 383d 3fff e53c 27bc b83d
00000180: 12cb 5c3f fcd8 c03c a1a1 253d c13b db3d
00000190: 0ac3 a93d 9a09 4c3d 05f7 693a 4cc4 0abc
000001a0: 27e1 473d 937b 523d f9f5 353d 8fc9 38bf
000001b0: 2461 f0be 1706 80bc 43d6 a73e c452 d13f
000001c0: a8de 943d dd90 a23c 286f 1e3d ad75 a63d
000001d0: 7e42 bc3c 4f0b ee3c 3d00 653d ec68 58bd
000001e0: 0d7f ee3e 33c9 aa3c d192 dd3d f9e1 943d
000001f0: 9b2c 473d ca11 c23c 86e8 6bbf df28 ab3e
00000200: a895 283d 92f8 773d 3f2d 22be b81f 093f
00000210: c175 cbba 8bbd 583d 14aa 823e a047 73bc
00000220: 6ed2 f23d 8e5f 1d3d b6d3 c0bb 649c 043f
00000230: 9794 533e db8e 083d 2da2 9a3f 7c5c d6bc
00000240: b011 5a3f cae0 6fbd d8f0 9c3d 960b 773d
00000250: c1ed c7be 0655 0d3c 9993 083f db03 2f3d
00000260: eba1 d93c f720 873d 1cf9 473d c1bf c23c
00000270: 5e00 b13c dc24 a73c a6e5 413b ae98 553d
00000280: 5e62 1a3f c8e1 243d ada4 d63c d0e0 c93d
00000290: 6c6c 9b3d 4262 853d 3e43 debb b6f0 a1bc
000002a0: 8d50 583d 0ec2 973d 6c27 9d3c 64a6 163f
000002b0: 90d9 95be cf87 87bc 62c4 9abc a15e 8a3f
000002c0: fa4f a03d 5078 b5bc 4031 8e3c 6b5c 8e3d
000002d0: 5373 bd3c 351c 1b3b 86b1 1f3d 483b 81be
000002e0: 3eb5 8c3e a23e 883d ad69 5b3d e7ab 853d
000002f0: cfa1 083d 881f ca3c 0f36 aa3c d00b ad3e
00000300: f139 31bc 0c8f ad3c 3f56 9c3e 8c95 973d
00000310: 25ee a13b 2e64 9fbc cc47 45bf 62cd 21bd
00000320: f145 edbd 05db ef3a 61f5 f2bb 8c77 413b
00000330: 650a c23e b54a 163c d2be 9b3f d353 9dbe
00000340: c9c3 3d3f bd0a 4f3f 4894 b9bb f523 fa3c
00000350: 2979 f33e df2e acbc 83fe 09be e068 bfba
00000360: 6075 3dbc ddb8 43bc 3d76 2c3d 5b65 d53c
00000370: c0d6 4e3f 579e e0bb 7cf5 fabc a985 17bb
00000380: 3564 ef3e ffe3 da3c eb95 3d39 c38e fcba
00000390: 2c7e 3d3d b64c 573c 6683 f8bc a6e7 003d
000003a0: d180 7b3b 44d9 c53c 3b33 40bc 199b 163f
000003b0: 21df f9bd d418 883d a2da bfbd 2254 393f
000003c0: 9240 093d 49f1 3cbd dd84 15ba a101 813d
000003d0: 433f 573c 91d9 57bd fcde 033b d9e6 803e
000003e0: b415 0b3e c2ff 8fbc f974 a8bd b6e6 d13c
000003f0: 58af afbb dd7d 48bb a560 c03f fbce 8e3e

b f4 [16]
0.016629457 -4.945948e-05 -0.0049906825 -0.0046749515 0.01172245 -0.0019317559 -0.019640043 0.02956978
-0.019746372 -0.010311213 0.0019101016 -0.00025655123 -0.0092566 0.031129552 -0.018063074 -0.0020861828
00000000: 803a 883c b672 4fb8 e188 a3bb 5630 99bb
00000010: 850f 403c f932 fdba 28e4 a0bc 533c f23c
00000020: 25c3 a1bc 5df0 28bc 605c fa3a b981 86b9
00000030: ffa8 17bc 6703 ff3c 03f9 93bc 57b8 08bb

c f4 [64]
0.6130952 0.47306675 0.003899206 0.007987821 0.5127838 -0.37589845 -0.05921026 0.45032477
-0.023291234 0.5505818 0.445915 -0.008910802 -0.0015488178 0.5379782 -0.0151526965 -0.0028607368
-0.013947203 0.0008428757 0.47389975 -0.6007855 -0.004149122 0.40992573 -0.010371086 0.47743648
-0.30382967 0.41718036 -0.486615 -0.45941746 0.0038257313 -0.44325727 0.45670134 -0.2934279
-0.006139383 -0.5097122 0.5661803 -0.32035473 -0.54554546 0.53776884 -0.43619636 0.6772308
-0.48715135 -0.35002944 -0.39345276 0.001235087 -0.012845588 0.61980116 -0.0037286123 -0.018715132
-0.57744884 0.47854418 -0.4172263 -0.5444992 0.5815091 0.40634233 -0.33935323 -0.012211406
-0.0038642376 -0.3406656 -0.002464611 0.66054726 0.52392024 0.47267896 -0.0008782396 0.0016604494
00000000: cff3 1c3f ce35 f23e d289 7f3b 59df 023c
00000010: cd45 033f c375 c0be 7586 72bd f890 e63e
00000020: 42cd bebc eef2 0c3f f94e e43e 9dfe 11bc
00000030: b401 cbba f0b8 093f 0443 78bc 337b 3bbb
00000040: cf82 64bc 6ef4 5c3a fda2 f23e 14cd 19bf
00000050: 5cf5 87bb c9e1 d13e 7deb 29bc 8e72 f43e
00000060: 908f 9bbe aa98 d53e 9a25 f9be c438 ebbe
00000070: 1fb9 7a3b 9ef2 e2be c2d4 e93e 2f3c 96be
00000080: e12c c9bb 807c 02bf 31f1 103f 8905 a4be
00000090: dea8 0bbf 38ab 093f 2155 dfbe ff5e 2d3f
000000a0: e76b f9be 0f37 b3be a472 c9be a5e2 a13a
000000b0: 4d76 52bc 4aab 1e3f bc5b 74bb 7a50 99bc
000000c0: b0d3 13bf be03 f53e b09e d5be 4d64 0bbf
000000d0: c8dd 143f 1a0c d03e b5bf adbe 5912 48bc
000000e0: 263f 7dbb b96b aebe 5085 21bb a019 293f
000000f0: a31f 063f fa02 f23e a939 66ba 70a3 d93a

conditioner.fc1.weight f4 [64, 1]
-0.11882677 0.03356628 -0.03793986 -0.015302204 -0.45265126 -0.8169014 0.0021890476 -1.0309737
-0.03238858 -0.0029931755 0.11559508 -0.065616325 -0.0012027395 0.054618884 0.02594498 0.6272408
-0.33806893 0.012052884 0.08754829 0.07249283 -0.4884449 -0.019587023 0.051881913 0.03468026
-0.8241602 0.7072528 -0.003895972 -0.02828006 0.49595657 -0.0052779964 -0.045966115 -0.27740392
-0.01237372 0.007157155 0.5959521 0.06572886 0.008422233 -0.23132278 0.21969454 -0.78564066
-0.0074660964 0.3680851 0.13727793 0.0072374446 0.19646458 -0.002567044 0.031115143 -0.7580114
-0.030367918 -0.0024651191 -0.0029065767 -0.0196471 0.065392666 1.1410879 0.12084731 -0.215763
-0.17261522 -0.2038516 -0.87991536 -0.23631929 -0.13048847 0.16666216 -0.017903265 0.18863414
00000000: 735b f3bd cc7c 093d d466 1bbd 18b6 7abc
00000010: e8c1 e7be 7320 51bf 2076 0f3b f2f6 83bf
00000020: e3a9 04bd 2729 44bb 1dbd ec3d da61 86bd
00000030: 3ea5 9dba 0db8 5f3d 918a d43c da92 203f
00000040: 5f17 adbe 7679 453c 854c b33d 1f77 943d
00000050: 7315 fabe f774 a0bc 2182 543d e30c 0e3d
00000060: 2afc 52bf 850e 353f 9053 7fbb 96ab e7bc
00000070: 05ee fd3e 0bf3 acbb f746 3cbd e307 8ebe
00000080: 25bb 4abc 9186 ea3b 5190 183f da9c 863d
00000090: 68fd 093c e1df 6cbe 9bf7 603e bf1f 49bf
000000a0: 28a6 f4bb a675 bc3e 9692 0c3e 1628 ed3b
000000b0: 032e 493e da3b 28bb 2fe5 fe3c 090d 42bf
000000c0: 24c6 f8bc d68d 21bb 447c 3ebb f4f2 a0bc
000000d0: 97ec 853d 2b0f 923f cb7e f73d faf0 5cbe
000000e0: 0bc2 30be 79be 50be 2242 61bf affd 71be
000000f0: c59e 05be 7ca9 2a3e dea9 92bc 4f29 413e

conditioner.fc1.bias f4 [64]
0.3412237 -0.07469991 -0.023550993 0.010890907 -0.010229156 0.43395832 0.014439227 0.71629775
0.08091375 -0.02117811 -0.38331887 0.124311246 0.012103241 -0.1481179 -0.059576895 -0.800362
0.92485654 -0.02663525 -0.2650912 -0.18884723 0.19421329 -0.008922645 -0.1278998 -0.07355317
0.9295247 -0.95289606 -0.010124915 0.10756691 -0.092660256 0.00020505894 0.13558184 0.78632575
-0.005504394 0.02750415 -0.44447032 -0.12287693 -0.020999445 0.65524334 0.47656283 0.5539572
0.023047218 0.14473315 -0.40092587 0.0053809374 -0.57792044 -0.013811906 0.025241256 1.0126412
0.04430211 0.001372771 0.0030514502 0.008669851 -0.20443939 -0.7854661 -0.3519719 0.60157883
0.50239193 0.58669704 0.85603046 0.70495033 0.3899353 -0.5006869 0.0025938312 0.24655919
00000000: dfb4 ae3e 44fc 98bd 03ee c0bc c66f 323c
00000010: 3198 27bc c92f de3e 8292 6c3c 4a5f 373f
00000020: 1cb6 a53d b77d adbc 5f42 c4be e596 fe3d
00000030: ac4c 463c 38ac 17be e706 74bd 86e4 4cbf
00000040: 66c3 6c3f 2b32 dabc 09ba 87be 2b61 41be
00000050: d9df 463e 4930 12bc 2af8 02be 0ba3 96bd
00000060: 55f5 6d3f fff0 73bf f9e2 25bc 0a4c dc3d
00000070: a9c4 bdbd 1705 5739 f7d5 0a3e a54c 493f
00000080: 345e b4bb 6250 e13c 9d91 e3be e6a6 fbbd
00000090: 0707 acbc 07be 273f 0b00 f43e 24d0 0d3f
000000a0: 85cd bc3c ed34 143e 2846 cdbe 9352 b03b
000000b0: 98f2 13bf 554b 62bc c0c6 ce3c 3a9e 813f
000000c0: 2176 353d 8dee b33a d7fa 473b fe0b 0e3c
000000d0: 8f58 51be 4e14 49bf a935 b4be 1201 1a3f
000000e0: c29c 003f c731 163f d024 5b3f a077 343f
000000f0: 9aa5 c73e 042d 00bf 44fd 293b 037a 7c3e

conditioner.fc2.weight f4 [160, 64]
-0.033355583 -0.08894293 0.079119906 0.034247946 0.1624158 0.034073662 0.34006414 0.05404281
0.010473674 0.14891039 -0.05227145 0.020679412 0.23403813 0.18984455 0.05928497 -0.13144557
-0.226027 -0.035828955 -0.060196046 0.08102398 0.16051222 -0.13204938 -0.0711892 0.09953103
0.055598427 -0.066918276 -0.3029341 0.04673558 -0.090379134 -0.062018692 0.08219895 -0.005108042
-0.1261676 -0.045326833 -0.1337139 0.05813514 -0.09929127 -0.24614955 -0.11624824 -0.06646262
-0.05825108 -0.12232065 -0.013991383 -0.04111644 -0.06743162 0.03373996 0.06773182 0.052132905
-0.0739422 0.024510484 -0.076413855 -0.021102691 0.07145693 -0.036687568 -0.108547226 -0.21840318
-0.012459281 -0.2874272 0.024382727 -0.036303937 -0.029033905 0.013266494 0.014909365 0.036793057
-0.045705285 0.00018760309 0.09255872 -0.07805952 0.117220774 -0.018342145 -0.02888858 0.11964346
0.034154017 0.2149091 0.06460396 0.0655906 -0.514555 0.0028193211 -0.09318428 0.023345323
-0.1321008 0.07853165 -0.12767465 0.09011224 -0.008264764 0.17826855 0.060553625 -0.10125814
-0.14027447 -0.024699198 -0.08475916 -0.006262472 -0.13694958 -0.08636382 -0.04340516 0.03321429
-0.024692021 0.1131283 -0.1544087 0.06497664 0.0119040245 -0.3013584 -0.2377385 0.12544684
0.13299902 -0.21955587 0.061931774 0.17933305 -0.036927395 0.029352834 -0.07757302 -0.053010624
0.15637033 0.09184299 0.30196205 0.13924922 0.1040984 -0.016650805 -0.022875536 -0.18931614
0.035955124 -0.05362236 0.013158694 0.031148385 -0.083995804 -0.029651687 -0.017237982 -0.20099758
-0.066087335 -0.072986424 0.13251442 -0.021894531 0.05308998 0.19104815 0.1761757 0.036979884
0.053078618 0.037613038 -0.07187409 -0.051292814 -0.05243024 0.07475148 0.022358613 -0.1391999
-0.12169314 -0.095589325 0.02808335 0.014849629 0.09309851 -0.009022699 0.030309696 -0.015185529
0.14980958 -0.057872366 -0.2832047 -0.02058604 -0.032565933 -0.104125 0.052428123 -0.17180392
0.0146043 0.02209228 0.03527002 0.018965194 -0.07577299 -0.17775974 0.06584745 0.13549551
0.13565367 -0.026446152 -0.047806073 0.11153809 0.06411718 0.102564976 0.08213911 -0.05602652
0.14811403 -0.057326216 0.13101965 -0.042639557 0.105006166 -0.20333537 0.064392045 -0.037391253
-0.022364203 -0.22229049 0.10528881 -0.122402474 0.059859157 0.10452022 0.044750318 -0.13900934
-0.025441311 0.071186654 -0.11305782 0.053930808 0.09552881 0.002167987 -0.22538571 0.21648726
0.024099391 -0.080604725 -0.049813993 -0.13517508 -0.13675019 0.14060977 0.033594597 -0.005133516
-0.16942216 0.07943714 -0.092441946 0.056331888 0.063997135 -0.07646107 0.008594409 -0.10709082
-0.00402498 -0.11979271 0.2369401 0.1202554 0.02952701 -0.0016168144 -0.06664292 -0.029632153
0.00041984557 -0.049423333 -0.013676877 0.06969009 -0.093377426 -0.25195023 -0.036057614 -0.034035537
0.07009725 -0.14365615 -0.001038808 -0.028435446 0.013036381 0.09916801 0.11839615 0.016275939
-0.122167945 0.02918526 0.27027988 -0.091581576 0.13957107 -0.18684831 0.031110665 -0.16132875
-0.10346856 -0.0045074923 0.18540812 -0.059252273 0.11431325 0.07957236 0.14521036 -0.0033481428
00000000: dd9f 08bd b627 b6bd 9e09 a23d 9347 0c3d
00000010: 5450 263e d390 0b3d e31c ae3e fe5b 5d3d
00000020: c699 2b3c f77b 183e 971a 56bd df67 a93c
00000030: b1a7 6f3e 9c66 423e ccd4 723d ab99 06be
00000040: 9f73 67be 62c1 12bd 2190 76bd e7ef a53d
00000050: 515d 243e f437 07be a5cb 91bd edd6 cb3d
00000060: 2dbb 633d 730c 89bd 2e1a 9bbe cf6d 3f3d
00000070: b218 b9bd 5007 7ebd ec57 a83d 5d61 a7bb
00000080: 1432 01be a1a8 39bd 4cec 08be 1d1f 6e3d
00000090: 3959 cbbd a10e 7cbe 8f13 eebd 8e1d 88bd
000000a0: af98 6ebd 4083 fabd 1d3c 65bc b669 28bd
000000b0: 9719 8abd ea32 0a3d fbb6 8a3d 5089 553d
000000c0: 026f 97bd 36ca c83c de7e 9cbd 8ddf acbc
000000d0: 0358 923d b445 16bd 024e debd 15a5 5fbe
000000e0: 0322 4cbc a829 93be 49be c73c 70b3 14bd
000000f0: 83d8 edbc b55b 593c 6946 743c 51b4 163d
00000100: 7735 3bbd 52b7 4439 6d8f bd3d abdd 9fbd
00000110: 7211 f03d 4442 96bc bea7 ecbc a107 f53d
00000120: 15e5 0b3d 2211 5c3e 154f 843d 5d54 863d
00000130: e0b9 03bf 5cc4 383b 66d7 bebd b13e bf3c
00000140: 6f45 07be 34d5 a03d 25bd 02be c48c b83d
00000150: ef68 07bc 088c 363e 1407 783d 6d60 cfbd
00000160: 1ca4 0fbe f955 cabc 3696 adbd 6c35 cdbb
00000170: 833c 0cbe 84df b0bd 9cc9 31bd b50b 083d
00000180: ec46 cabc cfaf e73d 501d 1ebe 7912 853d
00000190: 1909 433c a64b 9abe b971 73be 2375 003e
000001a0: e530 083e 41d3 60be 2cac 7d3d 15a3 373e
000001b0: 2e41 17bd 5b75 f03c 9ade 9ebd ab21 59bd
000001c0: 8b1f 203e 2d18 bc3d c59a 9a3e 5997 0e3e
000001d0: 8b31 d53d 4567 88bc 7a65 bbbc 17dc 41be
000001e0: ae45 133d 1fa3 5bbd 9097 573c e62a ff3c
000001f0: fe05 acbd 18e8 f2bc ab36 8dbc 4fd2 4dbe
00000200: cc58 87bd e879 95bd dcb1 073e 295c b3bc
00000210: e174 593d 20a2 433e 6767 343e 3878 173d
00000220: f768 593d 2110 1a3d b932 93bd 6a18 52bd
00000230: 17c1 56bd 4e17 993d 6929 b73c 6b8a 0ebe
00000240: 413a f9bd 56c4 c3bd 0e0f e63c dc4b 733c
00000250: 6eaa be3d f1d3 13bc 0a4c f83c bacc 78bc
00000260: af67 193e 930b 6dbd 3500 91be 0ea4 a8bc
00000270: db63 05bd 7d3f d5bd dfbe 563d 5eed 2fbe
00000280: e046 6f3c dffa b43c 4c77 103d e55c 9b3c
00000290: df2e 9bbd a606 36be 07db 863d 56bf 0a3e
000002a0: cce8 0a3e 9aa5 d8bc 4dd0 43bd 156e e43d
000002b0: de4f 833d 960d d23d 8d38 a83d 107c 65bd
000002c0: 34ab 173e e5ce 6abd 042a 063e d1a6 2ebd
000002d0: 790d d73d 2637 50be fadf 833d 9227 19bd
000002e0: 2235 b7bc 1ea0 63be a9a1 d73d 26ae fabd
000002f0: e02e 753d b20e d63d 1c4c 373d 7758 0ebe
00000300: 4c6a d0bc 4fca 913d dc8a e7bd 8de6 5c3d
00000310: 9ca4 c33d c914 0e3b 83cb 66be d6ae 5d3e
00000320: 166c c53c 1714 a5bd c209 4cbd 566b 0abe
00000330: 3e08 0cbe 02fc 0f3e 7d9a 093d 0e37 a8bb
00000340: 017d 2dbe f0af a23d 3452 bdbd 44bc 663d
00000350: ee10 833d 9f97 9cbd 90cf 0c3c 6f52 dbbd
00000360: fbe3 83bb e155 f5bd 6da0 723e 7748 f63d
00000370: a1e2 f13c 4aeb d3ba 157c 88bd 21bf f2bc
00000380: b81e dc39 1f70 4abd fb14 60bc aeb9 8e3d
00000390: aa3c bfbd 9fff 80be 26b1 13bd d968 0bbd
000003a0: 268f 8f3d 991a 13be 9d28 88ba 74f1 e8bc
000003b0: 8c96 553c 9918 cb3d ae79 f23d 1e55 853c
000003c0: 3033 fabd ed15 ef3c 2062 8a3e 1f8f bbbd
000003d0: b8eb 0e3e 2a55 3fbe cbdb fe3c 5d33 25be
000003e0: 53e7 d3bd 96b3 93bb a0db 3d3e 83b2 72bd
000003f0: 111d ea3d d5f6 a23d 06b2 143e 846c 5bbb

conditioner.fc2.bias f4 [160]
-0.008541677 -0.08477463 0.022717698 -0.10673844 -0.21357372 -0.27256754 -0.06274355 -0.026156189
-0.042644132 -0.11451707 -0.14236712 -0.25777388 -0.21122961 -0.061313692 -0.045689408 -0.1696903
0.07607958 0.011811484 -0.09270738 -0.17952426 0.06720819 -0.046087965 -0.09913722 -0.08672456
0.07799484 -0.08505725 -0.07445843 0.04432382 -0.09773449 -0.13980953 -0.20975809 -0.11501674
-1.0750489 -0.91120005 -0.12923357 -0.43608645 -0.9705407 0.50751275 -0.15878272 -0.96958816
-0.07704834 -1.0560701 -0.8742164 0.11178632 -0.031233365 -1.1209794 -0.1541531 -0.27208045
-0.09597883 -0.18754394 -0.82191885 0.6227615 -0.070747316 -1.0936072 -0.14905551 -0.98063153
0.6379221 -0.7481446 0.7013928 0.8580583 -0.1000365 0.6209416 -0.8982001 0.51797724
-0.024289953 0.65371794 -1.0618794 0.5261017 0.7329099 -1.0205886 0.72656476 -0.84789157
0.6558201 0.58251625 0.6204987 -0.1559278 -0.0014115277 -0.983219 -0.1554385 -0.165026
0.7200249 -1.1278869 0.6595109 0.5676257 -1.050766 -1.0906188 0.563591 -0.04736519
-0.17363596 0.53545094 -0.15047416 -0.6289424 -0.9309537 -0.7359396 -0.27790055 -0.18008597
-0.17127645 -0.35279208 -0.21482952 -0.38388357 -0.37930474 -0.45273703 -0.2900544 -0.33217892
-0.38760918 -0.30533758 -0.26685467 -0.44636127 -0.16886275 -0.2843756 -0.32774243 -0.2218323
-0.45168763 -0.351974 -0.45443693 -0.3302207 -0.3123185 -0.29445386 -0.34003934 -0.32490927
-0.40339696 -0.3529179 -0.29315296 -0.3296202 -0.36159828 -0.39730564 -0.31938455 -0.5185065
-0.18892884 -0.25303122 -0.16909114 -0.4033179 -0.20315918 -0.31738237 -0.34205714 -0.29257312
-0.3459208 -0.37415227 -0.38646552 -0.14491828 -0.39188263 -0.35268492 -0.20702721 -0.30262256
-0.24657723 -0.24815223 -0.33844176 -0.15533881 -0.2762596 -0.40211946 -0.38111866 -0.14919405
-0.115151145 -0.32226032 -0.48036623 -0.357529 -0.28093493 -0.40565255 -0.26371366 -0.3969987
00000000: 64f2 0bbc 529e adbd 771a ba3c af99 dabd
00000010: 12b3 5abe f98d 8bbe b17f 80bd 8145 d6bc
00000020: 9dab 2ebd ed87 eabd b0c8 11be f0fa 83be
00000030: 934c 58be 1124 7bbd d124 3bbd 4bc3 2dbe
00000040: 9ccf 9b3d f484 413c 5edd bdbd 35d5 37be
00000050: 73a4 893d bcc6 3cbd 7408 cbbd a59c b1bd
00000060: c2bb 9f3d 7f32 aebd a97d 98bd e58c 353d
00000070: 0529 c8bd 3b2a 0fbe d3ca 56be e68d ebbd
00000080: 349b 89bf 6844 69bf ce55 04be b946 dfbe
00000090: 5b75 78bf 5bec 013f f097 22be ee36 78bf
000000a0: 85cb 9dbd 4e2d 87bf a5cc 5fbf 3af0 e43d
000000b0: 1ddd ffbc 417c 8fbf 4fda 1dbe 214e 8bbe
000000c0: 8c90 c4bd 850b 40be 4669 52bf 4c6d 1f3f
000000d0: f8e3 90bd 52fb 8bbf 02a2 18be ab0a 7bbf
000000e0: dd4e 233f 6886 3fbf 7b8e 333f b5a9 5b3f
000000f0: f0df ccbd 07f6 1e3f 71f0 65bf 289a 043f
00000100: b9fb c6bc 0f5a 273f aaeb 87bf 9aae 063f
00000110: fc9f 3b3f a6a2 82bf 2600 3a3f 6c0f 59bf
00000120: d3e3 273f c91f 153f 01d9 1e3f 8aab 1fbe
00000130: 0303 b9ba 3eb4 7bbf 452b 1fbe 93fc 28be
00000140: 8d53 383f 995e 90bf b5d5 283f eb4f 113f
00000150: 807f 86bf 6699 8bbf 8047 103f 0002 42bd
00000160: a0cd 31be 5013 093f e615 1abe 5e02 21bf
00000170: fb52 6ebf 8a66 3cbf fb48 8ebe 7568 38be
00000180: 1863 2fbe 2aa1 b4be 45fc 5bbe 638c c4be
00000190: 3b34 c2be 26cd e7be 0382 94be 5b13 aabe
000001a0: b674 c6be 3555 9cbe 2da1 88be 7789 e4be
000001b0: 5bea 2cbe ae99 91be dbcd a7be 0228 63be
000001c0: 9a43 e7be f035 b4be f5ab e8be b012 a9be
000001d0: 36e8 9fbe a8c2 96be a319 aebe 825a a6be
000001e0: 0c8a cebe a8b1 b4be 2518 96be fbc3 a8be
000001f0: 6923 b9be a56b cbbe 5f86 a3be d8bc 04bf
00000200: 9076 41be 4f8d 81be 3a26 2dbe af7f cebe
00000210: f608 50be f17f a2be 1d22 afbe 25cc 95be
00000220: 881c b1be e390 bfbe cfde c5be 7565 14be
00000230: d7a4 c8be 1e93 b4be f1fe 53be 58f1 9abe
00000240: be7e 7cbe 9e1b 7ebe 3d48 adbe 2311 1fbe
00000250: e671 8dbe 9ae2 cdbe fc21 c3be 53c6 18be
00000260: 5dd4 ebbd 4eff a4be 90f2 f5be 0b0e b7be
00000270: b4d6 8fbe b1b1 cfbe 7a05 87be 6a43 cbbe
